logs/agents learned package 1/target_params_A_50_onehot.pt (torch, 6375 bytes, 6 tensors)

0.weight f4 [24, 12]
00000000: b4fc ce3f df2b ab3f f5c0 6cbe 72cd 2e3f
00000010: e086 8f3f 21d2 933e 57f6 373f 1439 f63d
00000020: 5534 d040 ec0e a5be 380a b73f ccba cf3f
00000030: b7d5 a0c0 878b 94bf 1b4c eb3e 5965 efbd
00000040: 0baa 89bd 2a06 3dbe 0783 1c3d fd51 b43e
00000050: 1ee1 9cc0 7f56 bdbc 5c38 bbbf 9013 a8be
00000060: 91fd 8abe 2680 d9be 100b 1bbd 3ac4 3cbe
00000070: 0456 92bd 5939 5bbe c1a4 21bf a4ff 2c3d
00000080: 5f4a 4bbe 30d2 e2bc 2fdd e5be 6d05 e6bd
00000090: 1ed9 a3bf 0730 0cc0 2d3a 0440 6079 fe3c
000000a0: 4974 4bbe 1160 b5bf 20fd 5dbf 4734 ea3e
000000b0: ce5d 8f3f dce1 54c0 dc49 a8c0 f307 e0be
000000c0: 5754 8e3f 3fad 88bf 8efb 33bf 2ea4 be3f
000000d0: 928d 21bf 5eea 413d 7ab3 e93c 58cd cf3f
000000e0: 5197 a03d b2e0 6fbf a3eb 073f d1d7 f13f
000000f0: 78ce 55bd 3203 77be 6f1c 653d 8983 08be
00000100: 23fe 31be d5ae 68be 463d b1bd e366 d6bc
00000110: 709f f8bc 665d 7ebe b8d0 92be 095c c1ba
00000120: 74f4 c9be 2406 eabf 58d0 453f 85d1 9f3e
00000130: b00d d03e c836 ba3f ef84 413f 2865 f33f
00000140: dab0 2d3f 7b97 993f 358f 58bf 6c61 cbbe
00000150: 47f5 da3f 3e24 dfbe 4b80 a53f 121b 4f3e
00000160: 4119 fc3e 92e8 d6be 33ec eebe da13 113f
00000170: f37f 8a40 5b2a d83f 7d05 84bf 9dc3 a93f
00000180: c9d8 993f 9557 3cc0 1f91 3a3f d8f8 8c3e
00000190: 7893 643e 7025 343f 9e0e 473f 6342 923f
000001a0: 9f6c c53f 0a2b 883d 5424 9cc0 5cd0 7ebe
000001b0: 46ea a4c0 a17b 413f c581 623e 85aa c5be
000001c0: c251 8bbf 04c0 32c0 029a 503f d5eb 2dbf
000001d0: 57ef 703f c6b0 40bf 6165 88c0 8fff 03bf
000001e0: 8108 8f3e feb4 a4bf d853 64bf 8664 413f
000001f0: 7757 82bf 6b91 593d d52a e93d ddc1 9abe
00000200: dd09 713f 8230 45bf 9370 dfbe 66e7 913e
00000210: 92ad 12be 6c2d 89bf 311d 9dbe d922 0b3f
00000220: f8ca 643f 1962 7c3f 3aef 1d3e 6c62 0b3f
00000230: 4efb 2c40 75f6 293f 2aee 97bf dac8 663f
00000240: 0034 babd c5a4 9cbe 0163 a9be 0ed1 afbe
00000250: 15b1 a6be ef2b 9abe cc88 51be daab dbbe
00000260: ed6c 21be af29 5ebe 742a b9bd d6f4 cebd
00000270: 951d e9bf 6be9 9bbf 284b 3b3f c5b7 2a3f
00000280: d5d4 f53f b822 1f3f 4766 c33f c7c6 69bf
00000290: fa98 87c0 540c 49be 4d78 a73f aaaf ae3f
000002a0: 5018 c2be e40f dc3e 01ac 8bbe 6d87 d6bf
000002b0: f849 903f f0d5 53ba 30e6 e23f 5545 553e
000002c0: ef72 0bc0 a178 f8bd 2edc dfbf f335 a83f
000002d0: 4882 2e3f 2e40 583e cf56 16bf 94c5 e23f
000002e0: 6a9c 0d3f 673f 6b3e a015 dcbe 00d4 72bd
000002f0: f01d 9dc0 54f3 803f 2292 f83e 86ef 323f
00000300: c3e6 d23d dc24 8b3f 0c31 e3bf f0c9 cb3f
00000310: 2a0b 88bf 298e 893f ed44 993f 70b9 8a3e
00000320: 753e 4b40 173f efbf d6d7 3ac0 def2 33bf
00000330: 4453 983f c5c0 c33f d483 ac3f 5934 2dbf
00000340: fc29 2d3f c7e6 2b3d a44d b73e 1b90 68bd
00000350: 49e1 67c0 a19c a03f 661e 2240 4d48 16bf
00000360: 87eb b0bf 6504 4940 ecb0 973e fd03 34c0
00000370: 3dab 3c3e b2f9 1740 b331 a03f 6ca4 29bf
00000380: c2a0 343f 75af 2b3e 8b20 3d40 930e a43e
00000390: 975e 24be d888 43bd e061 ad3d ffb2 0cbe
000003a0: 637d cbbe ac57 93be 989f 63be 3cc5 83be
000003b0: 7dc3 72be b4e3 92be 6e0c c7bd 80df 09bc
000003c0: 2ffa 2940 d751 0b40 00ca 32bf 9079 f23c
000003d0: 7843 923e 16b9 423f 7d28 67bd 52e1 68bf
000003e0: b7bd 1a3e e227 12c0 a6e4 32be 91ca fdbe
000003f0: 0036 53bf 50ef da3e 1c26 85bf 7376 0040
1.6170869 1.3372763 -0.23120482 0.68282235 1.1213036 0.28871253 0.7186026 0.120226055
6.506388 -0.32237947 1.4299994 1.6228881 -5.026088 -1.160508 0.459565 -0.116892524
-0.06721886 -0.18459383 0.038210895 0.35218802 -4.90248 -0.023112534 -1.4626575 -0.32827425
-0.2714658 -0.42480582 -0.037852347 -0.1843423 -0.071453124 -0.21408595 -0.6314202 0.042235985
-0.19852589 -0.027688116 -0.44895312 -0.11231504 -1.2800634 -2.1904314 2.0660508 0.031063735
-0.19868578 -1.4169942 -0.86714363 0.4574301 1.1200502 -3.3262854 -5.259016 -0.43756065
1.1119488 -1.067787 -0.70305717 1.4893854 -0.63106644 0.04734265 0.028527964 1.6234541
0.07841361 -0.9370223 0.5309393 1.8893987 -0.052198857 -0.24122313 0.05593532 -0.13331427
-0.17382102 -0.22722943 -0.08654265 -0.026172107 -0.030349463 -0.24840316 -0.28674865 -0.001475216
-0.39444315 -1.8283124 0.7727103 0.31214538 0.40635443 1.4547968 0.75593466 1.9015245
0.6784798 1.1999353 -0.84593517 -0.39722764 1.7106103 -0.43582338 1.2929777 0.2022517
0.49238017 -0.41974312 -0.4666458 0.56670916 4.328119 1.6887926 -1.0314175 1.3262821
1.2019283 -2.9428456 0.7287769 0.27533603 0.2232188 0.70369625 0.7775668 1.142651
1.5423774 0.06648834 -4.8794346 -0.2488417 -5.153598 0.7557927 0.22119816 -0.3860666
-1.0884326 -2.7929697 0.81485 -0.67937976 0.94115204 -0.75269735 -4.2623754 -0.51561826
0.27936175 -1.2867734 -0.89190435 0.7554401 -1.0182942 0.053117197 0.11385123 -0.3022603
0.94155675 -0.7702714 -0.43640575 0.28496855 -0.14324024 -1.0716987 -0.30686334 0.5435005
0.89372206 0.98587185 0.15423289 0.54447055 2.7028384 0.6639169 -1.1869557 0.90150225
-0.090919495 -0.3059446 -0.33083346 -0.34339184 -0.32556978 -0.30111644 -0.2046234 -0.4290455
-0.15764208 -0.21695589 -0.090413004 -0.101052925 -1.8212153 -1.2180609 0.73161554 0.6668666
1.9205576 0.6216235 1.5265588 -0.91318935 -4.237424 -0.19633609 1.3083588 1.3647358
-0.37909174 0.42980874 -0.27279666 -1.6760079 1.1272573 -0.00080808904 1.7726498 0.2082723
-2.17889 -0.12132383 -1.7489069 1.3141464 0.68167543 0.21118233 -0.5872621 1.7716546
0.55316794 0.22973405 -0.4298525 -0.05928421 -4.9099045 1.0074258 0.4854899 0.69896734
0.102979206 1.0870624 -1.7749343 1.5921001 -1.0628407 1.0746509 1.197416 0.27094603
3.175687 -1.8691128 -2.9194236 -0.7029246 1.1900411 1.5293204 1.3477731 -0.67658
0.6764219 0.041968133 0.35801423 -0.056778055 -3.6231253 1.2547799 2.5331054 -0.5870407
-1.3821877 3.1408932 0.29627168 -2.8127434 0.18424697 2.3746152 1.2515167 -0.6626651
0.70557797 0.1676615 2.9551113 0.3204237 -0.16051708 -0.047737926 0.08465934 -0.13740157
-0.397441 -0.28777826 -0.22228849 -0.25736415 -0.23707385 -0.2868935 -0.09719168 -0.008415103
2.655895 2.17687 -0.6983948 0.029598981 0.285671 0.7606367 -0.056435097 -0.9096881
0.15111433 -2.2836843 -0.17470035 -0.49568608 -0.8250427 0.42760706 -1.0402255 2.0072296

0.bias f4 [24]
00000000: 00f2 6bc0 46a8 6b40 3002 9f3d b35d 4a3f
00000010: e714 bebf b644 90be c994 1140 36b3 22bf
00000020: 51e2 943f 8c16 0440 b051 243e d0f5 fd3e
00000030: 142e cebd b52c 6540 890c 6cbf f900 b03f
00000040: 1fb1 8dbd be6e 35bf f145 083e 95f0 ebbe
00000050: 116b fcbf ec64 823f 3793 303d d53d 6bbf
-3.6866455 3.6821456 0.07764089 0.79049224 -1.4850129 -0.28177422 2.2747061 -0.63554704
1.1631566 2.0638762 0.16046786 0.49601603 -0.100673825 3.5808537 -0.9220663 1.3750297
-0.06918549 -0.70872104 0.1330793 -0.46081987 -1.9720174 1.0187049 0.043109145 -0.91891223

2.weight f4 [24, 24]
00000000: 12fb e1be 2c73 f73f 9e09 4b3e 1ef6 6abc
00000010: 6255 2a3e 6079 f7bd 02df f7be c0e7 693f
00000020: 198e 43bd fe4a 8d40 824f cfbf 603a fbbe
00000030: 76c0 343e 7a42 863e e418 ac3e d092 933d
00000040: 6011 353f f8ae 8bbe a27d f53e 7e42 de3e
00000050: 0924 643e b39f 9a3f 5896 cfbe c0c9 38bf
00000060: 6ae0 123f b717 62c0 22c1 19be 45ed 063e
00000070: 0d94 60bf a849 a1bd 123c 42be 02bd debd
00000080: 67ee afbd bd98 5cc0 fe1a f73f a68d 8b3f
00000090: ee3a e1be 9ce0 bc3e ff18 e9be c5ff df3e
000000a0: 8ef5 243f 4762 343e 2709 653f d0a9 dd3e
000000b0: 9565 743e 9a3a 9d3d 3dee c8be c8f0 953f
000000c0: 62be 0140 4355 f1bf 145b f1bd d852 083f
000000d0: 90f5 7dbf b921 84bd aae3 a53f d368 103f
000000e0: c589 693f 7705 d13f 8c99 d73e 7e8a 973f
000000f0: fd6f 19be c712 c0c0 aa0a 17c0 fb74 ccc0
00000100: 1425 e53f 949b 11c0 7ef3 c83e 50c7 81bc
00000110: 3449 063f 07ce 0040 5a86 e23f 92e6 adc0
00000120: fc1e 8c3f 42cd 8e40 5628 cbbe 4cf8 4abf
00000130: 55f0 75be b270 92bd a7e9 90be 46a6 423f
00000140: 1d10 f8bd a8b6 6a40 c576 0ebf e848 293f
00000150: a635 69be e2a6 5bbb 798a d7be c758 063f
00000160: 6de2 4f3e 80ac d6be 0161 273f bc07 a13e
00000170: dee5 083e 0772 6ebf 2a6b 8cbe 5868 623f
00000180: 998d 8a3f 1aef 51bf 331f c43c d720 0b40
00000190: ad55 cfc0 1759 cebd 8d28 9d3f 89ee da3f
000001a0: ece5 883f 3be2 02bf 1145 e8be 948d 5d3f
000001b0: 51c5 36bd 9072 7fbf b6a9 80c0 b91f 9ac0
000001c0: 5c2f 7fc0 928c 6ac0 6740 e1c0 b8dd 02bd
000001d0: 0a58 95c0 a729 87c0 1081 42c0 8509 c5c0
000001e0: e0cf dc3e 7396 4540 4b76 6ebe 9575 d03f
000001f0: e87b 87be 0eba 22be 718d 673f 734d 99be
00000200: 5075 193f 0763 623f 790e 7c3d c2e2 163f
00000210: 486f edbc 750a f3bf 740d d2be ff0c 6ec0
00000220: cd3d 923f 6a40 afbf 3750 84be 34c2 1c3d
00000230: 179d 963e ccd8 1a40 9a12 e33e 7558 79bf
00000240: 5501 d3bd 0b99 80bd 0fa2 c5bd d88b b03c
00000250: dba1 aabc 5850 cebc 1b18 83be e997 fabe
00000260: d0bf a1be fa81 72be 7aac 103e 38d4 c4bd
00000270: efe5 a53b e875 83be b90e e6bd 8702 ac3e
00000280: 9144 8dbe 8cf9 2bbe 436c 8cbe c8a6 cd3c
00000290: 7153 cabe 8973 d5be d50a 1cbd dafc bdbb
000002a0: 7789 4e3d e73b 15c0 6098 b7be 3b02 953e
000002b0: a3ec 94bc 9071 063e 0186 523f 7fe0 923d
000002c0: d4ce 8a3f 5319 c4bf fc1c f33e a5d3 0a3f
000002d0: 5234 b13e 5c65 8dbe 4ae4 023f 8753 1bbf
000002e0: 2761 55bf 4a8d 37be f261 9cbe fa40 c4be
000002f0: f11e 133d 01cd 7cbf 3e0d 82bd 6aa4 213f
00000300: ed2c f1c0 c845 4040 6320 d93e 3935 2340
00000310: 0f83 03c0 6559 9cbd cff0 da3f 3fd1 ccbf
00000320: 4208 683f a110 0a40 3bb7 66bf dae2 56bb
00000330: 2f27 7d3e 98e1 5e40 f81a e0be fa62 5440
00000340: 730d 533e 49b5 24bf 07d8 fcbe cce8 a93d
00000350: 885c a7bf 9438 0d40 f528 ac3f 30ef d2be
00000360: c615 853f 89ff edbe e788 25be e06b dc3f
00000370: eeef bdc0 a66a 263b b701 a33f eff1 dd3f
00000380: e1aa 823f 67f1 78be a801 d8bd 0dd5 883f
00000390: bfd6 743e ef7f 95be b3d0 8bc0 e518 4fc0
000003a0: 99c9 7ac0 4562 8dc0 7403 d2c0 3ae2 193e
000003b0: 9f66 80c0 9711 afc0 1c7d 4ec0 417b eac0
000003c0: 57f9 17c0 fdbf cc40 2388 243f 9ce1 cb3f
000003d0: f070 e3bf 5c87 ac3d faf2 073f d399 f0bf
000003e0: 158d a8bf 5d85 6340 ed40 a7be d887 773d
000003f0: e8e5 2ebe 9799 1340 4266 fabf d42c a03f
-0.44136864 1.9332023 0.19827887 -0.0143409055 0.16634133 -0.12083697 -0.4841233 0.9136925
-0.047742937 4.4154043 -1.6196139 -0.49067974 0.17651543 0.26222593 0.3361274 0.07205737
0.7072964 -0.27281928 0.47947413 0.43410105 0.22279371 1.2079986 -0.4054439 -0.72182846
0.5737368 -3.5326974 -0.1501508 0.13176449 -0.8772591 -0.07875377 -0.18968228 -0.10875894
-0.085903935 -3.4468224 1.9305112 1.0902603 -0.43990272 0.36890113 -0.45526883 0.43749824
0.64437187 0.17615615 0.8946709 0.4329362 0.23866875 0.07677193 -0.3924426 1.1714106
2.027245 -1.8854145 -0.1178495 0.5325141 -0.99202824 -0.064517446 1.2960103 0.5640995
0.91225845 1.6329793 0.42109334 1.183914 -0.14984126 -6.002292 -2.360026 -6.38928
1.790194 -2.2751207 0.3924827 -0.01584211 0.5245545 2.012575 1.7697251 -5.434396
1.0946956 4.462556 -0.3967921 -0.7928512 -0.2401746 -0.07150401 -0.28303263 0.76034963
-0.12112448 3.6673985 -0.5564998 0.6612687 -0.22774372 -0.0033516218 -0.42097834 0.52479213
0.20301218 -0.41928482 0.6538239 0.31451213 0.13368937 -0.9314274 -0.2742551 0.88440466
1.0824462 -0.82005465 0.023940658 2.1738794 -6.4792085 -0.10075586 1.2278 1.7104045
1.0695167 -0.5112645 -0.45365193 0.86544156 -0.04462177 -0.99784184 -4.0207167 -4.8163724
-3.9872656 -3.6648297 -7.0391116 -0.03194973 -4.666997 -4.2238345 -3.0391273 -6.157412
0.43127346 3.0873077 -0.23287313 1.6285883 -0.2646172 -0.15891287 0.904502 -0.29941902
0.5994463 0.88432354 0.06153724 0.58939755 -0.028983727 -1.8987566 -0.4102589 -3.7195432
1.142511 -1.3691533 -0.2584245 0.038271144 0.29416725 2.4194822 0.4435013 -0.974006
-0.103029884 -0.06279191 -0.09650051 0.021551058 -0.020829132 -0.025184795 -0.2560433 -0.48944023
-0.31591654 -0.23682395 0.14128295 -0.0961079 0.0050628106 -0.25675893 -0.11233277 0.33595678
-0.27591375 -0.16794413 -0.27426347 0.025103942 -0.39516786 -0.4168971 -0.038096268 -0.0057979645
0.050424065 -2.3317811 -0.3585844 0.29103264 -0.018179243 0.13129258 0.82235724 0.071717255
1.0844369 -1.5320228 0.4748305 0.54229194 0.3461023 -0.27616394 0.5112959 -0.6067433
-0.8335137 -0.17924991 -0.30543476 -0.38330823 0.03591818 -0.9875031 -0.06350182 0.631415
-7.536734 3.004259 0.42407522 2.5501235 -2.0548742 -0.07634238 1.7104739 -1.6001357
0.906376 2.157265 -0.9012334 -0.0032789023 0.24721979 3.4825191 -0.43770576 3.318541
0.20610599 -0.6433912 -0.49383566 0.082963556 -1.3075113 2.2065783 1.3449999 -0.4119811
1.039727 -0.4648402 -0.16165505 1.7220421 -5.9355383 0.0025393157 1.2734898 1.7339457
1.0208398 -0.24310838 -0.10547191 1.0690018 0.23910044 -0.29199168 -4.369226 -3.2358944
-3.9185545 -4.418246 -6.5629215 0.15027705 -4.012527 -5.470897 -3.226386 -7.3275456
-2.3745935 6.398436 0.6427023 1.5928226 -1.7768841 0.08424255 0.5310513 -1.8796943
-1.3168055 3.5550148 -0.32666722 0.060432285 -0.1707989 2.3062494 -1.9562457 1.251368

2.bias f4 [24]
00000000: 2f26 983f 30c3 a9bf 66d4 22bf 3ab4 1a3f
00000010: 7f34 4b3f 8260 d43e 7577 5ebe 850d b3bf
00000020: 13fa 9440 e98b 803f d962 1740 22e4 d43f
00000030: bcbd 8cbf 035b fe3f 0ab4 a5be 5413 c63f
00000040: fa3c 83bf 926d 36be d378 853f 9cbc 04c0
00000050: ce14 68bf e011 8fbf 95fa 61be 1185 6b3f
1.1886653 -1.3262691 -0.63605344 0.60431254 0.7937698 0.4147988 -0.21725257 -1.3988501
4.6555266 1.0042697 2.3654082 1.6632121 -1.0995402 1.9871525 -0.3236392 1.5474648
-1.0252984 -0.17815235 1.0427498 -2.0740118 -0.90656745 -1.117733 -0.22068246 0.9199992

4.weight f4 [4, 24]
00000000: c160 fc3f 1892 0bc0 f421 3640 e897 883f
00000010: 9ea2 b6bf b0ab 9f3f 2064 ac3e dac8 eebf
00000020: 44a5 8540 a792 953f 3035 ba40 4d63 a83f
00000030: 8d0c 483f 2c25 cd3f 83e8 82bd 4bb8 9740
00000040: 7503 a53f bd34 88bc 8863 6c3f 7c88 e7bf
00000050: 7905 dc3f 9189 d13f b8cb 84be 43e5 d8bc
00000060: 11f6 153d 8a1e f6be 4b72 9640 923a 313b
00000070: 6eb6 7e40 8c74 f43f 3f30 173e 89e4 093f
00000080: b0f8 c93f 343e 6940 5c62 0d40 7b2a 68bf
00000090: f33e 933f b02b 2f3f 406a 713d c9a9 783f
000000a0: 8a8c 333f 7cf3 2ebe 1c49 6440 540e 0c3f
000000b0: 416b 7640 ff52 1d40 00d2 6b3d 1e75 7840
000000c0: 451b c93e 878d f93e 7083 4840 3971 5abf
000000d0: 8b93 1b40 d7cc aabd 4bfa c8ba a3ba e93e
000000e0: fc48 0041 a413 6c40 4dad 13c0 9d1c 323f
000000f0: 8e00 8240 7db7 5e3d 40ea 79bc 79d4 5640
00000100: 7125 b7be be49 093e bdda 8040 3755 543f
00000110: 9aae 4240 73da 6e40 b49f edbd 75c8 6b40
00000120: a1ac 6ebf c9fb 403f a49c 9140 bd22 0d3f
00000130: 463b 8740 7247 7c3f d849 11be d803 1ebf
00000140: fa11 4f3f 1b84 7940 e362 d0bd 80e2 3ebf
00000150: 9ff0 1ebf c202 873f acf5 883d 956d 943f
00000160: b5ea b5bf 8848 2fbe 5157 7040 92d7 b1be
00000170: 0edd 3440 68c6 a13f 0cd2 2cbd 8cac 5340
1.9717027 -2.1807919 2.8458223 1.0671358 -1.4268377 1.247427 0.3367014 -1.8655045
4.176424 1.168538 5.8189926 1.3155304 0.7814415 1.6026969 -0.06392004 4.7412467
1.289168 -0.01662671 0.9233937 -1.8088527 1.718917 1.6370107 -0.25936675 -0.026476508
0.03661162 -0.48070174 4.701452 0.0027042967 3.9798846 1.9098067 0.14764498 0.5386434
1.5779018 3.6444216 2.2091284 -0.9068982 1.1503586 0.68426037 0.05893922 0.9713407
0.7013632 -0.1708507 3.5669622 0.54709363 3.8502963 2.4581907 0.05757332 3.8821483
0.39278618 0.4874079 3.1330223 -0.85329014 2.4308803 -0.08339851 -0.0015333382 0.45650205
8.017818 3.6886988 -2.3074524 0.6957491 4.0625677 0.054374207 -0.015253603 3.3567183
-0.35770753 0.13407037 4.0267015 0.8294253 3.0419068 3.732083 -0.116027266 3.68411
-0.9323216 0.75384194 4.550371 0.5513113 4.2259855 0.98546517 -0.14188325 -0.61724615
0.80886805 3.898688 -0.10175111 -0.7456436 -0.6208591 1.0547717 0.06687483 1.1595942
-1.4212252 -0.17117512 3.7553294 -0.3473478 2.825992 1.2638674 -0.042192504 3.3074064

4.bias f4 [4]
00000000: fd7f 2540 0df9 043e c5a1 953f fcf4 2e3f
2.5859368 0.1298563 1.1689993 0.68342566
