logs/agents learned package 1/target_params_B_175_onehot.pt (torch, 6383 bytes, 6 tensors)

0.weight f4 [24, 12]
000000 62 d5 10 be c9 25 d2 be e7 96 62 be e7 7b fb bc
       -0.14143899 -0.41044453 -0.22127877 -0.03069873
000010 4f 85 a9 be 7b 0a 91 3e a9 2c 50 3f 44 dd 23 3f
       -0.3310952 0.28328308 0.81318146 0.640095
000020 cd 27 40 c0 79 71 0d 3f 06 fb f8 be b9 50 80 c0
       -3.0024292 0.5525127 -0.48629016 -4.009854
000030 b3 b7 8f 3f 0f 37 47 3e 08 55 5d be e0 a5 4e 3e
       1.1227936 0.19454597 -0.21614468 0.20180464
000040 69 6b cb be 62 b9 9c bf a4 b4 3d be eb f2 cf be
       -0.39730385 -1.2244074 -0.1852594 -0.4061502
000050 22 06 76 40 59 92 e0 be 09 d0 c1 bf 3c 3d b9 bf
       3.8441243 -0.43861654 -1.5141612 -1.4471812
000060 be 44 9f be 1b a5 2a bf e8 46 9d 3d fa 20 02 bf
       -0.31107134 -0.6665818 0.0767954 -0.5083157
000070 29 26 0c bf ca 7d 17 bf ce 2c e7 be a4 27 99 3d
       -0.5474573 -0.59176314 -0.4515137 0.07478264
000080 81 9a a3 bd dc 73 cd be 7f f2 02 3e 57 cb 64 bf
       -0.07988454 -0.40127456 0.12787817 -0.8937277
000090 a6 c9 70 bf 68 a7 14 3f aa 7a 81 3e dc 61 a8 3e
       -0.9405769 0.5806794 0.25288898 0.3288716
0000a0 bd 9d 41 3f 22 fc 29 bf 67 d8 07 3e 82 19 4f 3f
       0.75631315 -0.6640035 0.13266145 0.80898297
0000b0 35 4e 5b bf 29 0c b7 bd 3f 1f e5 bf f4 81 12 3f
       -0.8566621 -0.08937866 -1.790016 0.5722954
0000c0 7b c8 2a 3f b7 7b d2 3e 5a 79 1e be 94 5d db 3e
       0.6671216 0.41110012 -0.1547598 0.42844832
0000d0 20 e1 c8 3e 5a c4 34 3e cf 2c bf 3d 09 87 0e 3e
       0.39234257 0.17653027 0.093347184 0.139187
0000e0 62 53 62 40 a9 d1 a0 3e 72 5a 62 3f f5 f6 2a 3e
       3.5363393 0.31409958 0.8841926 0.16695769
0000f0 0a a3 7c 3c d1 9b 41 3f e8 8a 76 be 6a 70 01 3f
       0.015419731 0.7562838 -0.24076426 0.50562155
000100 00 e9 e4 3e 2f df 14 be b3 f6 b4 bf f9 8e 92 bf
       0.44709015 -0.14538263 -1.4137787 -1.1449882
000110 ff 81 c2 bd cc de 2c 3f 93 90 d7 bf af 9c 44 c0
       -0.09497451 0.6752746 -1.6840996 -3.0720632
000120 a5 38 89 bf 2a 71 a4 3f 89 2b f8 3c b3 39 15 3f
       -1.0720412 1.2847035 0.030294197 0.5829117
000130 48 08 e4 be 47 82 ec 3e 4a ca 05 bf d3 07 72 3f
       -0.44537568 0.46193144 -0.52261794 0.9454319
000140 9f f1 31 40 0e e4 54 3e 4d 7f 70 3e 9f f4 61 3f
       2.7803724 0.20790121 0.23486061 0.8826389
000150 ad 26 7a 3f 92 df 06 3f 24 9e 43 be 4d 95 e8 3e
       0.97715265 0.5268489 -0.19103295 0.45426407
000160 c6 54 fe 3e 6a a7 4a be bd 76 d4 bb c4 c4 fe bd
       0.49674052 -0.19790426 -0.0064838813 -0.12439874
000170 73 a9 3c 40 ce d1 8e 3f 62 43 c5 3f 68 46 a6 3e
       2.9478424 1.1157777 1.5411189 0.3247559
000180 cf 9f ef bf 49 29 43 bf 24 1d 08 be 26 89 f8 3e
       -1.8720645 -0.7623487 -0.13292366 0.48542136
000190 87 b9 37 bf f9 1c 00 bc 67 e8 0c 3f c1 96 58 be
       -0.7176747 -0.007819408 0.5504212 -0.21151258
0001a0 61 e4 21 bf b5 de 16 c0 37 37 36 3f 72 ac 0f bf
       -0.63239104 -2.357343 0.71178 -0.56122506
0001b0 40 b2 4c 3f 81 a9 0e 3f 24 3b 27 bd 19 cc db 3e
       0.7995949 0.5572739 -0.040827885 0.42929152
0001c0 16 48 bd 3e c7 b1 c3 3e 2f 79 21 3e b0 ed 6b be
       0.3696906 0.3822157 0.15768884 -0.2303989
0001d0 ac c1 42 40 34 7a f3 be 89 c9 9c 3f d2 15 5b 3f
       3.0430708 -0.4755417 1.2249004 0.8558017
0001e0 12 1d 2e 3f 21 ff 3b 3d ab 6e 06 40 4f fc 1e be
       0.6801311 0.045897607 2.1005046 -0.15525936
0001f0 b8 81 a4 bd 5b e7 42 be d0 24 45 3f 84 3e ed be
       -0.080325544 -0.19033568 0.77009296 -0.46336758
000200 ad a8 02 40 30 f3 25 bd 55 90 c1 bf c9 24 77 c0
       2.0415452 -0.040515125 -1.5122172 -3.8616202
000210 aa 0c be 3e 27 07 85 bf 95 ed 1a 3f 9e d6 42 3e
       0.37119037 -1.0392808 0.6051877 0.19027182
000220 0e 70 78 3f 6e 2c 6b bf 0b e7 44 3e 46 c9 75 bf
       0.9704598 -0.9186467 0.19228761 -0.96010244
000230 08 3a ac bf 6f f2 e5 3f 31 60 b2 be 87 2a ac bf
       -1.345521 1.796461 -0.34839013 -1.3450478
000240 1f 39 75 bd 6f bb 1f 3f b2 b5 19 3f b6 03 6b be
       -0.059868928 0.62395376 0.6004287 -0.22950634
000250 19 17 39 be c5 89 20 3e 28 af 49 bf 8c 3a c5 be
       -0.18075217 0.15677555 -0.7878289 -0.3852123
000260 84 28 70 c0 88 38 ef bd c0 a3 33 c0 d9 13 19 3f
       -3.7524729 -0.11680704 -2.8068695 0.5979591
000270 57 29 53 3f 58 d6 ad 3e 57 30 53 3e 7d 4e ae 3e
       0.82484955 0.33952594 0.20623909 0.34044257
000280 3d 4f 09 3f 0f a9 0b 3e a3 c5 34 be 86 4a 5c 3d
       0.53636533 0.1363871 -0.17653517 0.05378201
000290 f1 f7 3b 40 a8 07 a8 3e a2 6c a9 3f 9d 36 c4 3f
       2.9370081 0.3281834 1.3236277 1.5329167
0002a0 e2 4c e3 3f c0 c7 91 bf ca 63 9c 3e fd b9 a1 bc
       1.7757838 -1.1389084 0.30544883 -0.019742006
0002b0 be a4 6a 3d 82 a3 9c be 34 fc cc be e3 95 b0 3e
       0.057286017 -0.30593497 -0.40036166 0.34489354
0002c0 97 52 15 c0 fa 47 19 bf 6d c0 cc be 19 8e 98 bd
       -2.333166 -0.5987545 -0.3999056 -0.07448978
0002d0 75 32 8a 3f 51 eb 4e bd 7f fd 26 be 37 c1 d6 3e
       1.0796648 -0.050517384 -0.16307639 0.41944286
0002e0 43 38 e9 3e 9f c5 40 3e e8 9c a5 3e 52 4e 93 bd
       0.45550737 0.18825386 0.32346272 -0.07192673
0002f0 2f 6c 41 40 5c 37 57 3f 42 38 0d 40 bc 94 c2 3f
       3.022228 0.84068847 2.2065587 1.520164
000300 87 2e 76 3f ed 5f a2 3c 49 ec d7 be 0b 6a 42 3f
       0.96164745 0.019821132 -0.4217246 0.7594306
000310 20 c9 20 bf 87 68 70 be af 51 b7 3e 15 3d 54 bf
       -0.6280689 -0.23477374 0.35804507 -0.82905704
000320 7c 6f 1e c0 2f 88 0b 3f 47 40 1f 3f 65 6c e0 3d
       -2.4755545 0.54504675 0.62207454 0.109581746
000330 c4 47 52 3f 8d bc f2 3e d3 4a 9b 3e cc 18 6c 3e
       0.82140756 0.47409478 0.30330524 0.23056334
000340 0c c2 36 c0 4a 89 97 bd 1a b3 38 bf 90 fa 2a bf
       -2.8555937 -0.07399233 -0.7214829 -0.6678858
000350 d3 f2 e9 be 8d e4 01 bf 0e 9c 98 c0 33 fe 30 c0
       -0.45693073 -0.50739366 -4.7690496 -2.765515
000360 52 df 42 bf c8 5e a3 bf cb 04 e8 3e 74 95 13 3e
       -0.7612201 -1.27633 0.45316157 0.1441248
000370 40 7f 84 3d 5c 6e a6 3f e1 4f 51 3f 57 19 cc 3e
       0.064695835 1.3002429 0.8176251 0.39863083
000380 5f d9 c6 bf f2 a7 2f 3f c8 ad ad 3f 9f 11 c0 3f
       -1.5535086 0.6861564 1.3568659 1.5005378
000390 07 04 ef 3c bd 84 5a 3d 6a 33 aa 3e f6 50 52 3c
       0.029176725 0.053349245 0.3324235 0.012836685
0003a0 f9 f0 68 c0 b4 38 79 3e 81 16 91 bf 01 44 db bd
       -3.6397078 0.24338037 -1.1334993 -0.1070633
0003b0 23 b1 ce 3d c9 e1 e6 bf 8d 64 fa bf 85 2b 6b c0
       0.1009238 -1.8037654 -1.9561936 -3.6745312
0003c0 f1 1a 27 3f bc 5f 40 3f d0 60 40 3d 5c 83 c5 3e
       0.65275484 0.7514608 0.046967328 0.38576782
0003d0 02 f1 dd 3e 1a 7b ac 3e 95 3c 5c 3e bc f1 92 be
       0.43347937 0.3368767 0.21507485 -0.28700054
0003e0 37 d3 41 40 d7 e3 6d 3e a3 09 3c bc 4b 8d 1f 3f
       3.0285165 0.23231445 -0.011476907 0.6232497
0003f0 e4 d6 16 bf 1e dc f8 bf c6 a9 0f 3e 47 52 0d 3f
       -0.5892165 -1.9442174 0.14029607 0.5520367

0.bias f4 [24]
000000 66 ee ea 3f 28 e0 12 c0 f8 af b8 be e8 9d 07 40
       1.8354003 -2.2949314 -0.36071754 2.1190128
000010 2e 41 eb bf 7b f9 9c bf 9c 4b 92 bf 8b 81 a9 bf
       -1.8379266 -1.2263635 -1.1429324 -1.3242658
000020 d7 3d 23 3f 43 d9 15 c0 17 11 cf bf 52 ff d2 3f
       0.63766235 -2.3413856 -1.617709 1.6484168
000030 dc f2 bd 3f d5 f0 cf bf 36 4d cf 3f 68 3b a1 bf
       1.483974 -1.6245371 1.6195438 -1.2596254
000040 b4 88 fb 3f b0 31 a1 bf 7f c7 00 40 45 41 c7 bf
       1.9651093 -1.2593288 2.0121763 -1.5566794
000050 9f e0 1f c0 5b 9c 17 3e 33 3b e4 3f 3a ef 1f c0
       -2.4980848 0.14805739 1.7830566 -2.4989762

2.weight f4 [24, 24]
000000 c7 ac 84 be 52 42 0c be 05 ee f1 3d 00 b1 48 bd
       -0.2591307 -0.13697174 0.11812977 -0.048996925
000010 99 32 9e bd 8a b8 45 3e bd 20 38 bd 46 95 80 be
       -0.077244945 0.19308677 -0.044953097 -0.25113887
000020 07 eb 5b be 76 67 16 3c 90 6e 61 be 8e b2 6d 3d
       -0.21476375 0.00917994 -0.22014832 0.05803161
000030 00 81 88 bd 38 29 f3 bd ec 01 29 3d 39 43 36 3d
       -0.0666523 -0.11873096 0.0412616 0.044497702
000040 76 7f 90 3d 83 97 3f be 07 5e d4 bd 1d 78 5e be
       0.07055561 -0.18710141 -0.10369497 -0.21725507
000050 04 aa 65 be ad cf 50 bd 2b 89 59 bd 61 da 4c 3d
       -0.22428137 -0.050979305 -0.05310933 0.05001295
000060 d3 61 3c be 32 8f 6f bd e1 6f a2 bd 6d 0e 24 bd
       -0.18396692 -0.05848617 -0.079314955 -0.04005282
000070 b9 23 1f be 88 65 12 be c6 a0 96 be b4 b5 aa 3c
       -0.15540971 -0.14296544 -0.29419535 0.020838596
000080 51 51 b0 bd b5 2a 7b be a6 6e b2 3d 44 b0 87 bc
       -0.0860926 -0.2452801 0.08712511 -0.016563542
000090 22 32 7d bd d0 9f 7f 3d 08 03 74 3d d4 71 19 bd
       -0.06181539 0.06240827 0.059573203 -0.03746207
0000a0 b4 ee 62 be 4f 2a 1e be b3 85 13 be 24 99 73 be
       -0.2216137 -0.15445827 -0.14406471 -0.23788887
0000b0 cd 70 66 be e5 d1 55 be 8f 5a 52 be bd 9f 01 b8
       -0.22503968 -0.2088085 -0.20542358 -3.0904765e-05
0000c0 fe 1b 2b 3f d3 c5 0d c0 32 46 ad 3e 09 29 21 bd
       0.6683959 -2.2151992 0.33842617 -0.039345775
0000d0 54 59 03 3f df 65 15 40 59 04 23 3f aa 5d 27 3d
       0.5130818 2.3343427 0.6367851 0.04086081
0000e0 5d 9a a0 bf 45 4d 1d 3e f5 a2 a7 3e 4d 12 02 3f
       -1.2547108 0.15361507 0.32741514 0.50809175
0000f0 08 c3 f0 be d3 f9 0b 3e 2a de d0 bf 33 98 1d 3e
       -0.47023797 0.13669519 -1.6317799 0.1539009
000100 69 37 83 bf d2 de 11 40 84 6c c6 bc f3 d5 b9 3f
       -1.0251285 2.2792249 -0.024221666 1.4518417
000110 d8 62 4a 3e 3a f7 84 3e 4a 4c 4a 3f 77 28 bd 3e
       0.19764268 0.2596987 0.7902266 0.36944935
000120 8c 97 d4 3f f9 ce f3 bf c9 5a d4 3e 83 70 54 3f
       1.6608748 -1.9047538 0.41475514 0.8298418
000130 ab d2 ae bd 92 d9 e7 3e 07 4c d5 be 24 45 18 be
       -0.085362755 0.4528318 -0.41659567 -0.14870125
000140 01 60 94 3f 9f 9f 05 be 93 68 f8 be 82 50 16 3f
       1.1591798 -0.13049172 -0.48517284 0.58716595
000150 28 1e aa 3f 09 dc 09 be 11 57 83 3f b0 13 68 be
       1.3290453 -0.13462843 1.0260946 -0.2266376
000160 41 8f 8c 3f 91 12 86 c0 36 e1 34 bc 5a 81 c2 bf
       1.0981218 -4.1897664 -0.011040023 -1.5195725
000170 d5 8d 49 3c 03 e1 63 3f d4 54 d8 3e 60 ec d7 bf
       0.012301882 0.89015216 0.4225222 -1.6869011
000180 6e 97 c5 be de 3a d7 3f a7 3b be be c6 42 9e 3e
       -0.38592094 1.681484 -0.37154886 0.3091032
000190 d7 95 2f 3e fe 27 68 bc af 2d c3 3d 01 30 f6 3e
       0.17147003 -0.014169691 0.09530198 0.480835
0001a0 28 6e 59 3e bc df f5 bd eb 33 c8 be 33 b7 a1 3e
       0.21233428 -0.120055646 -0.3910211 0.31585082
0001b0 be 7f 86 3f f7 0e b8 3e 50 e5 0f 40 6d 18 e7 3e
       1.0507734 0.35948917 2.2483711 0.45135823
0001c0 50 6a 18 3f b4 27 b7 bf 9a cc 6e 3e a0 ac 96 bf
       0.5953722 -1.4308991 0.23320237 -1.1771431
0001d0 1f 45 9d be d6 6b 71 3d 78 2a ab 3e 49 44 c8 3f
       -0.30716798 0.05894073 0.3343084 1.5645839
0001e0 9f c7 86 3e a9 ce 24 3f 02 7d 7a be 38 0d b9 3e
       0.26324174 0.6437784 -0.24461749 0.36142898
0001f0 68 e2 47 3e 48 5c d1 3e ab de 06 3d 5b fc 3a 3d
       0.19519961 0.40890718 0.032927196 0.04565082
000200 1c 9b a0 3e 0b 9e 7c be 23 1e 07 bf 9f 73 cb 3e
       0.3136834 -0.24669664 -0.5278036 0.3973665
000210 0e 6c a1 3f 48 e4 a3 bd b5 dc 12 40 11 d3 0e bc
       1.2611101 -0.080025256 2.294721 -0.008717314
000220 bb 58 db 3f da f6 be bf 3c 76 95 3e d8 f3 78 bf
       1.7136453 -1.4919083 0.29191768 -0.97247076
000230 06 ac 64 be 9c d6 90 be 49 f2 0c 3e a0 f3 c7 3f
       -0.22331247 -0.28288734 0.137643 1.5621223
000240 37 48 74 3b 98 93 87 3d 60 7d c7 bb 86 09 e2 bd
       0.0037274489 0.06619948 -0.006087944 -0.11036973
000250 2a 3f 71 be f8 62 bb bc bf f3 5c be a7 c9 b2 be
       -0.23559251 -0.02287434 -0.21577357 -0.34919474
000260 70 5c 68 3d 35 c1 3a be 33 e1 97 be aa f6 14 be
       0.05672878 -0.18237765 -0.29664 -0.1454722
000270 52 42 05 bc ef bb 8d be 84 f5 31 be 63 f4 65 be
       -0.008133488 -0.27682444 -0.17378813 -0.22456507
000280 cc de ce bc eb 1b 06 be 62 03 aa be b2 61 b7 bc
       -0.025252722 -0.13096587 -0.33205706 -0.022385452
000290 0b 3c de bd dd 84 21 be bb 0e a2 bd ec d1 bd bd
       -0.10851296 -0.1577334 -0.07912966 -0.09268555
0002a0 35 87 4e bd c1 9f 78 be dd 88 4a 3c 0d 2e 6e be
       -0.050421912 -0.24279691 0.012361732 -0.23259754
0002b0 26 53 2d be e4 fe 21 3e 0e 32 2b be 65 a0 8c be
       -0.1692625 0.1581989 -0.16718313 -0.2746612
0002c0 0b db 21 bd 80 6a 28 be b0 5d 66 bd 58 d0 90 bd
       -0.039515536 -0.16446877 -0.05624169 -0.070709884
0002d0 13 97 51 be 97 94 4a be 19 5e a0 be 55 17 a7 3d
       -0.20467786 -0.19783245 -0.3132179 0.08158747
0002e0 a1 e3 a4 bd 1f 9c 88 bd 06 87 16 bd a4 19 3f 3e
       -0.08051229 -0.06670403 -0.036749862 0.18662125
0002f0 08 56 14 3d b7 8c 8e be de b5 67 be f6 70 0e be
       0.03621486 -0.27841732 -0.2262797 -0.13910279
000300 8d d6 04 c0 ab 7a d8 3d ed ab 10 be 30 7e 89 bf
       -2.0755951 0.10570272 -0.14128084 -1.0741634
000310 ad e3 ab 3e 97 d6 2b 3e 68 6a 19 3f a5 69 7d 3e
       0.3357214 0.16781078 0.5992799 0.24747331
000320 85 b3 0b c0 6a 70 6d 3f 4c 5d 7a 3f 30 95 1b c0
       -2.182832 0.92749655 0.9779861 -2.4309807
000330 44 4f 97 c0 b9 f1 23 3f 0d 47 00 c1 1c 01 e8 3e
       -4.728426 0.64040715 -8.017346 0.45313346
000340 fc 6f 33 c0 69 c8 cb 3f dd ee 3c c0 6c 12 0c 3f
       -2.80371 1.5920535 -2.952079 0.5471561
000350 1b 31 93 3f e5 d1 92 c0 d0 06 c5 bf b2 a0 81 3f
       1.1499361 -4.588122 -1.5392704 1.0127165
000360 4a dd 8e c0 0c 55 16 40 ba 33 1b bb 8c 49 62 bf
       -4.464513 2.3489408 -0.0023681954 -0.88393474
000370 67 75 32 3f a3 8a 90 bf 18 cd 82 3f 5e 5d 32 3f
       0.6971039 -1.1292309 1.021884 0.6967372
000380 fc a1 e5 be 92 65 91 3f cc c3 13 3e eb 6d 5e bf
       -0.44850147 1.1359122 0.1443016 -0.8688647
000390 1b 1f e4 c0 3b 91 78 3f 32 17 8e bf dd ea 66 3f
       -7.128797 0.97096604 -1.1100829 0.9020212
0003a0 d0 19 39 c0 77 30 38 3f 0c ee d0 3f 20 36 34 3f
       -2.8922005 0.7194895 1.6322646 0.7039509
0003b0 17 8c 8c 3f 97 0b 6f c0 f1 c7 39 be db 85 0e 40
       1.0980252 -3.7350824 -0.18142678 2.22692
0003c0 39 23 66 be 5a 76 fc be 01 ef 44 be b9 3c 75 be
       -0.22474374 -0.49309045 -0.19231798 -0.23948945
0003d0 7d 5a eb be 9a a7 d0 3e 74 07 2d be cf a8 c4 be
       -0.45967475 0.4075287 -0.16897374 -0.3841004
0003e0 ef 90 93 3d c1 d7 57 be 4f 52 c4 3e ea 1c b2 be
       0.07205378 -0.21078397 0.38344046 -0.34787685
0003f0 dd 4e bf be 56 34 bc be 81 f7 a7 be de 24 d1 be
       -0.37364855 -0.3675868 -0.32806018 -0.4084844

2.bias f4 [24]
000000 85 a7 03 3c 3a 88 ae 3d 28 8e f3 3d 89 c0 1c 3f
       0.008035545 0.08522077 0.118923485 0.61231285
000010 0e 86 22 3f d5 58 a6 3f 29 88 b8 be e3 48 5e be
       0.634858 1.2995859 -0.36041382 -0.21707492
000020 89 ae 14 c0 57 d5 a9 bf a5 37 42 be 12 68 24 bf
       -2.3231528 -1.3268231 -0.18966539 -0.642213
000030 e8 86 21 be ad 0e 29 be ef 05 5d bd 03 ac 37 3f
       -0.15774119 -0.16509505 -0.053960737 0.71746844
000040 da b1 91 bf 5d 69 26 bf c8 08 a7 bf 68 5b 40 3f
       -1.1382401 -0.6500452 -1.3049555 0.75139475
000050 4d f2 50 be 90 59 50 3f 18 6b a9 3f 33 b5 3a 3f
       -0.2040493 0.8138666 1.3235807 0.7293274

4.weight f4 [4, 24]
000000 d1 7f 48 3d 18 29 09 3b 18 4d a7 bf 51 19 3a bf
       0.04895002 0.0020929035 -1.3070402 -0.7269488
000010 26 4a b7 3e a5 68 e3 be 90 22 68 bc af bc 27 bd
       0.35798758 -0.44415775 -0.014168397 -0.040951427
000020 10 f9 21 40 fc cb d9 3f d8 ea fc 3e 7e 0e 80 3f
       2.5308266 1.7015376 0.49397922 1.0004423
000030 1b 3c bb 3d 26 3a e4 bd a1 b2 f7 3e 22 b3 71 3f
       0.091423236 -0.111439034 0.4837847 0.9441396
000040 6f 1d 15 40 0c a0 08 3f 48 de 8c 3f c4 7f 01 3f
       2.3299215 0.5336921 1.1005335 0.5058558
000050 34 f9 e2 bd 01 6f 9b bf 60 90 d3 be 6c 21 99 bf
       -0.11082688 -1.2143251 -0.41321087 -1.1963325
000060 26 40 ef 3c 80 fb 1f bc e9 48 01 bf 64 ec da bf
       0.029205393 -0.009764552 -0.5050188 -1.7103391
000070 26 81 89 3f d2 a6 88 3f fa 73 16 3e a5 a5 28 be
       1.0742538 1.067591 0.14692679 -0.16469438
000080 ca 6d 55 c0 f9 7a b4 3f 20 d3 fb bd 99 c8 92 3f
       -3.334826 1.4100028 -0.12296128 1.1467468
000090 78 4d 7d 3c 1a 0f bc bd 11 36 c9 3e 68 6e d9 3f
       0.0154603645 -0.09182568 0.39299062 1.6986818
0000a0 0a 32 52 40 87 35 b5 bf 8d 94 62 40 72 ac 86 3f
       3.2843041 -1.415696 3.5403168 1.0521376
0000b0 02 66 40 3d b1 4b a9 bf e3 bf 8a bf a7 0c bb bf
       0.046972282 -1.3226224 -1.0839809 -1.4613236
0000c0 af 29 af 3d 74 47 c5 3d fc d5 16 c0 2f 5c d3 be
       0.085528724 0.09632769 -2.3568106 -0.41281268
0000d0 46 47 0e 3f 8b a0 28 3f a0 3e 33 be 08 61 7f 3d
       0.55577505 0.6586997 -0.17504358 0.062348396
0000e0 33 71 95 be c5 e8 0d 40 6d b2 75 bd 99 47 03 3f
       -0.29187927 2.2173321 -0.059984613 0.51281124
0000f0 a7 ac b5 bd 6b 47 1f be 4b 6c 2e bd 00 ba db 3f
       -0.088708214 -0.15554588 -0.042583745 1.7166138
000100 72 48 b3 3f 53 dd d2 3e ab a2 f8 3f 2f 30 c9 3e
       1.4006484 0.41184482 1.9424642 0.39294574
000110 a0 6f 8f bc 9f aa a7 bf b0 df 8c bf 8d af a2 bf
       -0.017509282 -1.3098944 -1.1005764 -1.2709824
000120 b4 32 6f 3b 63 54 17 be 14 dd 3c 3f 30 50 b5 bf
       0.0036498727 -0.14778285 0.7377484 -1.4165096
000130 f3 74 db bd 79 9c db be 38 0a 50 be 41 aa 6f 3c
       -0.10715666 -0.42892817 -0.20316398 0.014627994
000140 ca 96 0c 40 d8 f3 f7 3f ad 3c 8b 3e f2 64 a0 3f
       2.1967034 1.937129 0.2719473 1.2530806
000150 86 c2 29 be 61 71 86 3c 48 00 1f 40 4f 81 6b bf
       -0.16578111 0.016411485 2.4843922 -0.91994184
000160 80 7a 70 3f 84 bf 8b 3f f8 dc 36 40 1c a4 d8 be
       0.9393692 1.0917821 2.8572369 -0.42312706
000170 33 06 20 3d 2f dc 45 bf f5 3c de bf 10 4d 66 bf
       0.039068412 -0.772891 -1.7362353 -0.8996134

4.bias f4 [4]
000000 38 d0 02 c0 2e 6c 2f 3f 45 0d 1b c0 13 ca 81 be
       -2.0439587 0.68524444 -2.422685 -0.25349483
