logs/agents learned package 1/target_params_A_175_onehot.pt (torch, 6383 bytes, 6 tensors)

0.weight f4 [24, 12]
00000000: 8cb2 5a3e f8fb 1d3f f49c 5cbd 82ee 883f
00000010: e5a6 923f 1671 923f ba39 6b3f 025a 233f
00000020: 596f dc40 40e3 b43f f0d1 4d3e 2198 a83f
00000030: 4038 41c0 14f2 5bbf 0d7f 1e3e 4c51 afbd
00000040: ad17 84be 29fb d8be f2e1 b1be b2c9 11be
00000050: 9b96 a1c0 2f33 95bf e07d f7bf 3851 02c0
00000060: 91fd 8abe 2680 d9be 100b 1bbd 3ac4 3cbe
00000070: 0456 92bd 5939 5bbe c1a4 21bf a4ff 2c3d
00000080: 5f4a 4bbe 30d2 e2bc 2fdd e5be 6d05 e6bd
00000090: 8ef1 a5be e611 8abf ce15 0140 0c4d 89bd
000000a0: 13ad 76bf c00a d4bf b7f7 a5be 2723 253f
000000b0: e529 2a3e 2ec6 d3bf f75e cfc0 0300 10c0
000000c0: a7bc 033f c6b8 96bf c117 76bf 28b2 a53f
000000d0: 73d9 62be 5f9d 053f a1eb 1e3e 0053 ea3f
000000e0: 3b53 f8be f12e 5b3f c4d5 0a40 7463 4640
000000f0: 78ce 55bd 3203 77be 6f1c 653d 8983 08be
00000100: 23fe 31be d5ae 68be 463d b1bd e366 d6bc
00000110: 709f f8bc 665d 7ebe b8d0 92be 095c c1ba
00000120: 2cca 9dbe 255e a1bf 47d4 673f 2ead ca3e
00000130: 1a9e 5a3f 663c c53f b728 003f 52af ce3f
00000140: ea40 783f cdbb b43f 1f47 213f 67c1 e73e
00000150: 9f71 1440 70c0 eebf 750e 643f dda6 d03d
00000160: e584 783e b5ad cebe c014 f0bd 4f08 fe3d
00000170: 2f50 9540 f122 0c40 a0cb c8be 26bf babe
00000180: 2e9c a33f 8ffa 50c0 8331 133f ecd7 123f
00000190: 13e8 803e e0cd a63f 7610 613f 78c1 133f
000001a0: 6b50 cd3f 9f87 90be 9547 a7c0 422e 2d3f
000001b0: fb51 20c0 8465 a8be 3a06 9c3e 7e68 76bf
000001c0: 782b a2bf 531d fabf 149a cf3e cc1f 12bf
000001d0: 15a2 3640 9de3 813f fbb6 5dc0 74b5 80bf
000001e0: 5925 b53f 9054 a4c0 a5b3 8dbf cf2a 0540
000001f0: 76ea b8bf 8cb3 36bf abb2 b6be 6405 e73d
00000200: 45ad b63f 4c6c b1c0 eb56 21c0 8ec7 13c0
00000210: 0128 5ebf b064 bdbf 7031 d7be c469 1e3f
00000220: 3d2c 943f 6547 b03f 1e34 633e 3319 a03e
00000230: f427 4e40 b5fb 773f af3f 51bd abe0 a93f
00000240: 0034 babd c5a4 9cbe 0163 a9be 0ed1 afbe
00000250: 15b1 a6be ef2b 9abe cc88 51be daab dbbe
00000260: ed6c 21be af29 5ebe 742a b9bd d6f4 cebd
00000270: 45f4 04c0 66f2 53bf 77b6 fc3d 49e8 4f3f
00000280: 6114 cf3f a716 9a3f cedc 5b3f e653 0fbf
00000290: 385d a6c0 4f15 8dbe 4afd 50bf 3be8 1fbe
000002a0: 1849 a8be 374c 3c3f 0a6d 2dbf f11a 0bc0
000002b0: d065 433f ef42 cd3d d192 1b40 578a 903e
000002c0: a2e4 cbbf 5a03 7abe be56 3dbf f2cf c53f
000002d0: 6c19 4f3f bc04 72be 7576 1ebf 7663 b63f
000002e0: c5e4 973b 02b3 5bbe 1949 adbe 23d3 8fbd
000002f0: 275f afc0 be88 c23f c8fe b3be d14e 8e3f
00000300: 2803 a23d 1101 bd3f 006f dbbf f8e1 733f
00000310: 9060 48bf 13ce 7f3f a172 b83f de32 413d
00000320: f18e 6240 578b 1cc0 ef98 ffbf 0ce8 003f
00000330: 1c9e a93f 15b3 8d3f 2840 b03f 468c 0c3e
00000340: a11d 1b3f 130b ec3e e999 4f3f ad12 e0bd
00000350: 29d7 4bc0 d3ce b43f e2d7 4b40 b4e6 2abc
00000360: 11c9 1cc0 9e31 8240 d647 b53e 46bf 3bc0
00000370: b0d1 093e c984 ee3f deda 853f 19dc cfbf
00000380: 4e7e 8a3f 1a57 16c0 93f5 3f40 da5a 4dbf
00000390: 975e 24be d888 43bd e061 ad3d ffb2 0cbe
000003a0: 637d cbbe ac57 93be 989f 63be 3cc5 83be
000003b0: 7dc3 72be b4e3 92be 6e0c c7bd 80df 09bc
000003c0: af92 6840 2c98 553f 585d aabf 2571 983e
000003d0: 610b 603f 8324 a53f c891 13be 3c2b 81bf
000003e0: 54a8 45bf 74f4 20c0 67e8 2dbf 0692 673f
000003f0: e33f 66bf 1b58 7fbf e9be 55bf 41a6 e13f
0.21357173 0.617126 -0.05386062 1.0697787 1.1457182 1.1440761 0.9188496 0.63809216
6.8885922 1.4131851 0.20099616 1.3171426 -3.0190582 -0.85916257 0.15478154 -0.08560428
-0.25799313 -0.4237912 -0.34742695 -0.14237097 -5.0496345 -1.1656245 -1.9335289 -2.0362072
-0.2714658 -0.42480582 -0.037852347 -0.1843423 -0.071453124 -0.21408595 -0.6314202 0.042235985
-0.19852589 -0.027688116 -0.44895312 -0.11231504 -0.32410854 -1.0786712 2.0169559 -0.06704149
-0.9635784 -1.6565781 -0.32415554 0.64506763 0.16617544 -1.6544855 -6.4803424 -2.2500007
0.51459736 -1.1775138 -0.96129996 1.2944994 -0.22153263 0.52193254 0.15519573 1.830658
-0.48501 0.856185 2.1692972 3.0998201 -0.052198857 -0.24122313 0.05593532 -0.13331427
-0.17382102 -0.22722943 -0.08654265 -0.026172107 -0.030349463 -0.24840316 -0.28674865 -0.001475216
-0.30818307 -1.2606856 0.90558285 0.3958525 0.85397494 1.5409057 0.50062126 1.6147254
0.9697405 1.4119812 0.6299915 0.45264742 2.319435 -1.8652477 0.8908456 0.10188077
0.24269445 -0.40366903 -0.11722708 0.124039285 4.666038 2.1896327 -0.39217854 -0.3647396
1.2782037 -3.265293 0.57497424 0.5736072 0.2517706 1.3031578 0.8791574 0.57717085
1.6040167 -0.2822847 -5.227488 0.6764871 -2.5050037 -0.3288995 0.304735 -0.9625319
-1.2669516 -1.9540199 0.4054724 -0.5707977 2.8536427 1.0147587 -3.4642932 -1.0055375
1.4152023 -5.1353226 -1.1070448 2.0807378 -1.4446552 -0.71367717 -0.35683188 0.11280325
1.4271628 -5.54447 -2.52093 -2.3090549 -0.8677979 -1.4796352 -0.42029905 0.61880136
1.1576 1.3771788 0.2218785 0.31269225 3.2211885 0.9686845 -0.051086124 1.3271688
-0.090919495 -0.3059446 -0.33083346 -0.34339184 -0.32556978 -0.30111644 -0.2046234 -0.4290455
-0.15764208 -0.21695589 -0.090413004 -0.101052925 -2.077409 -0.82791746 0.1233949 0.81213814
1.6178094 1.2038163 0.85883796 -0.55987394 -5.1988792 -0.2755532 -0.8163649 -0.15615933
-0.32868266 0.73553795 -0.67744505 -2.1735194 0.7632723 0.10022532 2.430836 0.28230545
-1.5929148 -0.24415341 -0.73960483 1.5454085 0.80898166 -0.23634619 -0.618995 1.4249103
0.0046354258 -0.21455005 -0.33844832 -0.07022693 -5.4803653 1.519798 -0.3515532 1.1117803
0.07910758 1.476595 -1.714325 0.95266676 -0.7827234 0.9992382 1.4409982 0.04716765
3.5399745 -2.4460046 -1.9968547 0.50354075 1.3251376 1.1070276 1.3769579 0.13725385
0.60592085 0.461022 0.81094223 -0.10941062 -3.1850073 1.4125618 3.1850514 -0.0104309805
-2.4497721 4.068557 0.3540637 -2.9335494 0.13458896 1.8634273 1.0457418 -1.6239043
1.0819795 -2.3490663 2.9993637 -0.80216753 -0.16051708 -0.047737926 0.08465934 -0.13740157
-0.397441 -0.28777826 -0.22228849 -0.25736415 -0.23707385 -0.2868935 -0.09719168 -0.008415103
3.6339529 0.8343532 -1.3309736 0.29773822 0.8751736 1.2901767 -0.1441108 -1.0091319
-0.77209973 -2.5149202 -0.6793274 0.9045719 -0.89941233 -0.99743813 -0.8349443 1.7628862

0.bias f4 [24]
00000000: 81c7 a2c0 17de 9f40 3002 9f3d c0b3 5d3f
00000010: 0333 d8bf b644 90be 0b7b 6240 cc08 c0bf
00000020: 9bd8 bd3f 221c 7140 81e5 853f 1acc 31be
00000030: 142e cebd 29d4 a440 f569 8a3c fdc6 4e40
00000040: 41eb dfbe f63f 593e 62d1 603e 95f0 ebbe
00000050: 1c59 32c0 2608 e23f 8c15 303f f7ad c5bf
-5.0868535 4.9958606 0.07764089 0.866024 -1.6890568 -0.28177422 3.53876 -1.5002685
1.4831728 3.767342 1.0460664 -0.17363015 -0.100673825 5.1508985 0.016896227 3.2308953
-0.43734172 0.21215805 0.21954873 -0.46081987 -2.7866888 1.7658737 0.6878288 -1.5443715

2.weight f4 [24, 24]
00000000: 8cd5 84be d04c ae40 9e09 4b3e 7fd9 343f
00000010: c29f 77bf 6079 f7bd ba40 af3d 08b5 783f
00000020: 7f70 27bf 121a 9840 b40a cec0 238d afbf
00000030: 76c0 343e 559c 05bd f9fe 10bd eb76 203e
00000040: 59ab b33f f711 5d3e b631 3b3f 7e42 de3e
00000050: f567 953d e76f 1040 3ba5 56bf b6d8 13c0
00000060: 3b95 583f 3423 2fc0 22c1 19be 6790 5d3e
00000070: 7f66 04c0 a849 a1bd c294 b8be 395c aa3d
00000080: 89b7 fcbe 671c 39c0 311c a13e b91b aa3f
00000090: ee3a e1be e8e8 443f 3d02 813d 4628 503f
000000a0: a34b 7c3f 0f83 56be 4a5b 933f d0a9 dd3e
000000b0: 61e0 88be 6621 a8be 13d9 9ebe c587 233e
000000c0: efcc 2540 8397 f5bf 145b f1bd 1e27 263f
000000d0: 8773 afbf b921 84bd a8b1 ac3f 7f99 0d3f
000000e0: d9ab 913f 56d0 8040 99d6 0440 152a ca3f
000000f0: fd6f 19be 2b57 c7c0 f8aa e4bf e798 cfc0
00000100: 7a7d d03f 6ef2 05c0 d34a 38be 50c7 81bc
00000110: ad1d 943f 9613 0140 ab4f b93f f41d c8c0
00000120: 6717 c43f e137 e240 5628 cbbe 9da3 2ebf
00000130: c677 bcbf b270 92bd 0285 44bf 720a b53e
00000140: fa09 1abf de54 1b40 ce14 7d3f 409d 4e3f
00000150: a635 69be 0fa0 553e 3715 753f 42f9 d0be
00000160: a80e e93e 056a fbbe 6b2a cc3e bc07 a13e
00000170: d1d8 413f 8dec d93e d66e 90bf ebe2 343e
00000180: 0a55 9a3f ef0a 53bf 331f c43c 5ec2 cc3f
00000190: 6962 c4c0 1759 cebd dfc8 583f 5876 853f
000001a0: 841d 833f 67fc f2bf 55f0 e13f af53 3d3f
000001b0: 51c5 36bd ed1a 8abe 9f4e 92c0 9b5d 91c0
000001c0: da5b 3ec0 11fb bfbf f51f 00c1 b8dd 02bd
000001d0: ac04 cec0 dd74 6fc0 847b aec0 661f e1c0
000001e0: 2eff 5b3e 26dd 4b40 4b76 6ebe 5428 643f
000001f0: 9e38 d6be 0eba 22be b5e7 563f fa35 50bf
00000200: c735 693f d913 5440 d08a 3840 f9c2 223f
00000210: 486f edbc ac54 45c0 8886 f23e 304f 7ec0
00000220: 8f59 923f ca99 f4bf a861 3abf 34c2 1c3d
00000230: cf04 9f3f c65c 2140 52bd 0e3f 97f4 d5bf
00000240: 5501 d3bd 0b99 80bd 0fa2 c5bd d88b b03c
00000250: dba1 aabc 5850 cebc 1b18 83be e997 fabe
00000260: d0bf a1be fa81 72be 7aac 103e 38d4 c4bd
00000270: efe5 a53b e875 83be b90e e6bd 8702 ac3e
00000280: 9144 8dbe 8cf9 2bbe 436c 8cbe c8a6 cd3c
00000290: 7153 cabe 8973 d5be d50a 1cbd dafc bdbb
000002a0: e7af 4d3d 286e 40bf 6098 b7be 09a7 40bf
000002b0: b39b 1b3f 9071 063e 44cc 973f 0b67 de3e
000002c0: 75a6 9c3f 57c7 d23e d67a d3bf 367c 993f
000002d0: 5234 b13e 0bc0 12bf 6823 0bbf 1ca0 7abf
000002e0: aaee 85bf 9672 81bf 49a8 dd3d fa40 c4be
000002f0: eb36 4cbf 4e0d 06c0 4960 6c3e fc30 ce3e
00000300: 2b60 02c1 31f4 4840 6320 d93e be79 5a3f
00000310: 5446 a8bf 6559 9cbd 77f0 f13f 5406 fabf
00000320: 885a 143f bf63 6f3f 4c91 dbbe c40e c3be
00000330: 2f27 7d3e e15c 7a40 79a2 24be ccf5 9940
00000340: c93e 02be 592f c13e b252 a3be cce8 a93d
00000350: cd29 b1be dad4 7e40 3763 bc3f 7907 a93e
00000360: 8c6f 7c3f 402f f1be e788 25be 8697 4a3f
00000370: 4e02 c3c0 a66a 263b 85e2 863f 70f8 bb3f
00000380: b1bb 743f 3633 16bf 2b91 66bf 2c05 993f
00000390: bfd6 743e 8679 74be 3198 bac0 4c28 56c0
000003a0: 96b6 7ac0 b76e 34c0 c733 d9c0 3ae2 193e
000003b0: 01b8 a7c0 54b1 99c0 1f6a 74c0 f14e fbc0
000003c0: 4b96 babf 1c4e 0441 2388 243f 25d0 71bf
000003d0: bdd1 56bf 5c87 ac3d db7e 093f c20e b4bf
000003e0: 4b7f abbf 750f 6f40 394b e0c0 e351 063f
000003f0: e8e5 2ebe 1440 3640 dd4d a9bf 898d 5dbe
-0.25944173 5.4468765 0.19827887 0.7064437 -0.96728146 -0.12083697 0.085572675 0.9715123
-0.6540603 4.7531824 -6.4388065 -1.3714947 0.17651543 -0.032619793 -0.03539941 0.15670364
1.4036666 0.21588884 0.7312273 0.43410105 0.07295219 2.25683 -0.8384587 -2.310102
0.8460271 -2.7365236 -0.1501508 0.21637116 -2.0687559 -0.07875377 -0.36050993 0.08318371
-0.49358776 -2.8923585 0.3146682 1.328971 -0.43990272 0.76917887 0.06299255 0.8131145
0.9855291 -0.20948432 1.1512234 0.4329362 -0.26733688 -0.3283798 -0.3102499 0.1596976
2.5906332 -1.9186863 -0.1178495 0.6490344 -1.3707131 -0.064517446 1.3491716 0.5531234
1.1380569 4.0254316 2.075598 1.5794092 -0.14984126 -6.2293906 -1.7864676 -6.487415
1.6288292 -2.0929217 -0.17997293 -0.01584211 1.1571556 2.0168204 1.4477438 -6.2536564
1.5319642 7.069321 -0.3967921 -0.68218404 -1.4724052 -0.07150401 -0.76765454 0.35359532
-0.60171473 2.427055 0.9885987 0.80708694 -0.22774372 0.20861839 0.95735496 -0.4081517
0.45518994 -0.49104324 0.39876112 0.31451213 0.7572146 0.42563286 -1.1283824 0.17664687
1.2057202 -0.8243856 0.023940658 1.5996816 -6.137013 -0.10075586 0.84681505 1.0426741
1.0243382 -1.8983277 1.7651469 0.73955816 -0.04462177 -0.26973668 -4.5720973 -4.5426764
-2.9743562 -1.4998494 -8.007802 -0.03194973 -6.4380703 -3.7415078 -5.4525776 -7.035083
0.21484062 3.1853728 -0.23287313 0.89124036 -0.4184007 -0.15891287 0.83947307 -0.8133236
0.9109768 3.3137114 2.8834724 0.63578755 -0.028983727 -3.083293 0.47368264 -3.9735832
1.1433581 -1.9109433 -0.7280526 0.038271144 1.2423342 2.5212874 0.5575763 -1.6715268
-0.103029884 -0.06279191 -0.09650051 0.021551058 -0.020829132 -0.025184795 -0.2560433 -0.48944023
-0.31591654 -0.23682395 0.14128295 -0.0961079 0.0050628106 -0.25675893 -0.11233277 0.33595678
-0.27591375 -0.16794413 -0.27426347 0.025103942 -0.39516786 -0.4168971 -0.038096268 -0.0057979645
0.05021658 -0.75168085 -0.3585844 -0.75254875 0.60784453 0.13129258 1.1859212 0.4343799
1.2238299 0.4116771 -1.6521862 1.1991031 0.3461023 -0.57324284 -0.543509 -0.9790056
-1.046346 -1.0113094 0.108231135 -0.38330823 -0.797713 -2.094562 0.23083605 0.40271747
-8.1484785 3.1399043 0.42407522 0.85342014 -1.3146462 -0.07634238 1.8901509 -1.9533181
0.5795064 0.93511575 -0.4288429 -0.38097203 0.24721979 3.9119189 -0.16077603 4.8112545
-0.12719263 0.37731436 -0.3189903 0.082963556 -0.34602204 3.9817414 1.4717778 0.33013514
0.9860771 -0.4710636 -0.16165505 0.79137456 -6.0940313 0.0025393157 1.0537878 1.4685192
0.95598894 -0.5867189 -0.9006526 1.1954703 0.23910044 -0.23874483 -5.831078 -3.3462095
-3.9173942 -2.8192575 -6.7875705 0.15027705 -5.2412114 -4.8028965 -3.818977 -7.8533864
-1.4577116 8.26907 0.6427023 -0.9445823 -0.83913785 0.08424255 0.5370919 -1.4067004
-1.3398222 3.7353184 -7.0091825 0.524687 -0.1707989 2.847661 -1.3226887 -0.21636023

2.bias f4 [24]
00000000: 0dad 9540 6c51 bdbf 98e9 87bf 61e3 2c3f
00000010: c901 fc3d 8835 9a3e 7577 5ebe 7c0b dabf
00000020: 59d0 ec40 da61 363f 42d9 2840 9d2a 6340
00000030: b346 67bf 1480 5140 0ab4 a5be b965 3e40
00000040: 0811 0ac0 926d 36be 791e 933f c2bd 58c0
00000050: 9fb0 20be 80fc 43bf 95fa 61be a545 263f
4.6773744 -1.4790473 -1.0618162 0.6753445 0.12305028 0.30118966 -0.21725257 -1.7034755
7.400433 0.7124306 2.6382604 3.549476 -0.90342253 3.2734423 -0.3236392 2.9749587
-2.1572895 -0.17815235 1.1493675 -3.386582 -0.15692376 -0.7655716 -0.22068246 0.6495002

4.weight f4 [4, 24]
00000000: 5352 6640 83f6 02c0 08ec 5c40 541c e93f
00000010: 3206 0ec0 ebc6 863f 2064 ac3e 3c3e 27c0
00000020: b8a8 b240 2efe b53f d533 b840 9a0d 1240
00000030: e852 143f cef9 f53f 83e8 82bd bda0 b440
00000040: 208d 273f bd34 88bc 9267 5d3f faeb acbf
00000050: 34a3 f93f 145f d03f b8cb 84be 1a81 2e3f
00000060: 8394 bbbe 2b56 023f d743 9e40 ea5d 143e
00000070: 36cd 6c40 6d34 3e40 3f30 173e f147 7e3f
00000080: ade9 8d40 3374 5c40 1805 5d40 fb1f 2c3f
00000090: c0d7 5cbf 1338 473f 406a 713d 4d3c 4640
000000a0: 2374 6140 7cf3 2ebe 5bf4 1c40 2f93 993f
000000b0: e42a a040 f24f 1040 00d2 6b3d c0bb 6b40
000000c0: fb7e 0340 fc83 183e 0c98 8640 3f44 febe
000000d0: f5ba df3f 1d83 173f 4bfa c8ba bd06 04bf
000000e0: 38cd 0641 d966 2a40 9855 66c0 74dc c13f
000000f0: 94b1 9440 34bc 5e3f 40ea 79bc abaf 9040
00000100: 47ed 563e be49 093e f7d3 9040 3ef7 473f
00000110: f2f7 4540 e4aa 9140 b49f edbd c028 3d40
00000120: 591f f1bf fdb9 a53f 702d a040 a818 bd3f
00000130: 8cbd 9d40 c519 cf3f d849 11be 2f20 95be
00000140: 00ca ae40 3d5e 9240 8eb6 e33f f55c a4bf
00000150: 75e8 713f ea03 cd3f acf5 883d c62c 843f
00000160: f732 2ac0 8848 2fbe 1c07 7b40 1081 d43e
00000170: 1e10 5b40 c34c c73f 0cd2 2cbd 7a11 6840
3.5987747 -2.046296 3.4519062 1.821177 -2.2191281 1.0529455 0.3367014 -2.6131735
5.5830956 1.4218194 5.756327 2.2820802 0.57939005 1.9216859 -0.06392004 5.6446214
0.65449715 -0.01662671 0.8648616 -1.3509514 1.9502931 1.6279016 -0.25936675 0.68165743
-0.36636743 0.5091273 4.945781 0.1448895 3.700025 2.9719498 0.14764498 0.99328524
4.434775 3.4445922 3.453436 0.672363 -0.8626671 0.7781994 0.05893922 3.0974305
3.5227134 -0.1708507 2.4524143 1.1998042 5.0052357 2.2548795 0.05757332 3.6833344
2.0546253 0.14894098 4.2060604 -0.49661443 1.747893 0.5918444 -0.0015333382 -0.5157278
8.425102 2.6625273 -3.5989742 1.5145402 4.646677 0.87005925 -0.015253603 4.521444
0.20988952 0.13407037 4.5258746 0.78111637 3.0932584 4.5521107 -0.116027266 2.9556122
-1.8837692 1.2947384 5.0055466 1.477315 4.929388 1.6179739 -0.14188325 -0.29126117
5.462158 4.5740037 1.7790086 -1.2840868 0.94495326 1.601682 0.06687483 1.0326164
-2.6593606 -0.17117512 3.922309 0.41504717 3.4228587 1.5570301 -0.042192504 3.6260667

4.bias f4 [4]
00000000: 9466 8840 01cc 27be 5419 4e40 d427 7e3f
4.2625217 -0.16386415 3.220296 0.9927952
