logs/agents learned package 1/target_params_B_75_onehot.pt (torch, 6375 bytes, 6 tensors)

0.weight f4 [24, 12]
-0.18118787 -0.5666954 -0.24382655 -0.38252547 -0.37066013 0.42601538 0.92400813 0.5855654
-1.576815 1.020495 -0.7077015 -2.5110826 1.2264801 0.39689165 -0.4456115 0.31158406
-0.1493509 -1.4869236 -0.6604154 -0.47586164 3.4918337 -0.729469 -1.105301 -2.3360968
-0.31107134 -0.6665818 0.0767954 -0.5083157 -0.5474573 -0.59176314 -0.4515137 0.07478264
-0.07988454 -0.40127456 0.12787817 -0.8937277 -1.1579148 0.60197276 0.18114156 0.11952327
0.8047951 -0.5535224 0.047060452 0.81702006 -0.9055993 -0.17888275 -1.5975735 0.13599288
0.89309144 0.5560756 0.008359997 0.6252146 0.43877956 0.061145265 0.026995324 0.18944065
2.9880078 0.15994933 0.49051827 0.43652996 -0.18354622 0.7871042 -0.09628838 0.65480375
0.5753231 -1.1199256 -1.2977756 -0.6652542 -0.19709112 0.5150499 -1.8132181 -2.8441792
-0.53978145 1.1596855 0.16835843 0.8936855 -0.39496145 0.36785194 -0.7685951 0.7215594
1.6168668 -0.2960066 -0.038582675 0.19576639 1.1335837 0.54514337 -0.10769456 0.6051159
0.52803785 -0.37775204 -0.09606376 -0.14081202 2.5534856 0.91242063 1.0036666 0.42944866
-1.8549596 -0.5696078 -0.0024369624 0.7528911 -0.7526032 0.1463105 0.6433451 -0.014507588
-0.20289212 -2.356132 0.91836625 -0.26198396 0.9820238 0.6760851 0.041489072 0.5774349
0.31798118 0.17834951 0.10805284 -0.008682566 2.6666722 -0.4823596 1.0274643 0.99939686
0.76326555 0.048559066 2.1080358 -0.41489634 -0.011979964 0.08606146 0.64981854 -0.64622444
1.4260107 -0.40680194 -1.24872 -4.6829324 0.3526541 -1.0660146 0.9513515 0.3894603
0.8955473 -0.7904239 0.0926679 -1.0819368 -1.1633689 1.4235666 -0.091080576 -0.8219027
-0.06270404 0.84918636 0.6179175 -0.5949503 -0.0026306827 -0.6371709 -0.9822394 0.047318712
-2.0104349 0.61821604 -2.7448683 -0.14365625 0.9512465 0.42515248 0.25727403 0.5133587
0.4967682 -0.077013694 -0.19168293 0.13471168 2.7196932 0.18634221 0.87852377 1.6195853
1.8262479 -1.1713635 0.36189634 0.17850058 0.010668132 -0.06343357 -0.49679202 0.46119836
-2.1995113 -1.2189474 -0.18789022 -0.15654315 1.1820774 0.08709308 0.0066051595 0.61863536
0.49822688 0.044083294 0.2657057 -0.12493649 2.6503148 0.48361853 1.6093564 1.6676582
1.0973445 -0.056559898 -0.56545705 0.7531433 -0.61005986 -0.1783075 0.44672254 -0.91583925
-2.4933252 0.11782298 1.343537 0.29014465 0.61510617 0.28523895 0.20226313 0.42248404
-3.7816124 0.27881685 -0.5821801 -0.55951124 -0.0907304 -1.7214031 -3.766001 -4.783036
-0.9983608 -1.254974 0.55581546 0.07803728 0.16498673 0.91869456 0.6544106 0.30951014
-1.4766656 0.69762194 0.5545538 1.0723257 -0.0793732 0.1606178 0.26428887 0.11438855
-3.6397078 0.28000623 -1.1335016 -0.06075284 0.13821885 -1.8037654 -1.9561936 -3.6745312
0.8103654 0.8334469 0.07874417 0.49888673 0.38293174 0.19208366 0.21892133 -0.07866716
2.6945467 0.1892933 -0.09977802 0.81861055 -0.6923538 -1.430738 0.5528245 0.42563155
00000000: 5089 39be f312 11bf abad 79be 61da c3be
00000010: 2ac7 bdbe b01e da3e cc8b 6c3f 9de7 153f
00000020: 13d5 c9bf 959f 823f ed2b 35bf 94b5 20c0
00000030: 4dfd 9c3f 6235 cb3e 3127 e4be f287 9f3e
00000040: 71ef 18be 8353 bebf fc10 29bf 23a4 f3be
00000050: 347a 5f40 7bbe 3abf 817a 8dbf 9c82 15c0
00000060: be44 9fbe 1ba5 2abf e846 9d3d fa20 02bf
00000070: 2926 0cbf ca7d 17bf ce2c e7be a427 993d
00000080: 819a a3bd dc73 cdbe 7ff2 023e 57cb 64bf
00000090: 8d36 94bf e31a 1a3f 2c7d 393e 9ec8 f43d
000000a0: 0d07 4e3f a5b3 0dbf 76c2 403d 3a28 513f
000000b0: 5bd5 67bf 0a2d 37be 4a7d ccbf b841 0b3e
000000c0: a4a1 643f f85a 0e3f 5ef8 083c 100e 203f
000000d0: b7a7 e03e 7573 7a3d 4c25 dd3c bbfc 413e
000000e0: 853b 3f40 c2c9 233e 3625 fb3e db80 df3e
000000f0: 8af3 3bbe a97f 493f d832 c5bd 38a1 273f
00000100: 6048 133f b959 8fbf 831d a6bf 194e 2abf
00000110: 41d2 49be 4fda 033f 8817 e8bf 0807 36c0
00000120: 1e2f 0abf 9370 943f 2766 2c3e 93c8 643f
00000130: 6338 cabe 1757 bc3e a6c2 44bf 1eb8 383f
00000140: 7ef5 ce3f 2d8e 97be de08 1ebd fc76 483e
00000150: 4519 913f 848e 0b3f f78e dcbd e0e8 1a3f
00000160: 7d2d 073f b768 c1be 14bd c4bd 0731 10be
00000170: 4f6c 2340 6694 693f 2678 803f b2e0 db3e
00000180: 516f edbf d1d1 11bf 72b5 1fbb 79bd 403f
00000190: 9aaa 40bf 6bd2 153e 44b2 243f 3cb1 6dbc
000001a0: f4c2 4fbe deca 16c0 0d1a 6b3f c322 86be
000001b0: e965 7b3f ea13 2d3f 72f0 293d c6d2 133f
000001c0: 6ece a23e 41a1 363e cf4a dd3d 5241 0ebc
000001d0: c2aa 2a40 d6f7 f6be f383 833f 79d8 7f3f
000001e0: 5f65 433f dfe5 463d 0fea 0640 4b6d d4be
000001f0: 9c47 44bc fe40 b03d 825a 263f f76e 25bf
00000200: 8587 b63f 5848 d0be 0fd6 9fbf 95da 95c0
00000210: 148f b43e 2b73 88bf c68b 733f 5767 c73e
00000220: 9642 653f 3959 4abf abc8 bd3d e87c 8abf
00000230: 46e9 94bf 6e37 b63f 7488 babd 3768 52bf
00000240: fa6a 80bd 4764 593f d72f 1e3f aa4e 18bf
00000250: 8867 2cbb a21d 23bf 0b74 7bbf 44d1 413d
00000260: f7aa 00c0 6843 1e3f ecab 2fc0 a01a 13be
00000270: e484 733f 96ad d93e 6cb9 833e 7a6b 033f
00000280: 6758 fe3e 5bb9 9dbd 8848 44be dcf1 093e
00000290: 740f 2e40 7ed0 3e3e efe6 603f 924e cf3f
000002a0: 7ec2 e93f 3def 95bf 7a4a b93e dbc8 363e
000002b0: 64c9 2e3c 76e9 81bd 865b febe 3122 ec3e
000002c0: cbc4 0cc0 7806 9cbf 4b66 40be d94c 20be
000002d0: 504e 973f db5d b23d 1870 d83b e35e 1e3f
000002e0: 9817 ff3e af90 343d 940a 883e b4de ffbd
000002f0: c29e 2940 d99c f73e 64ff cd3f d375 d53f
00000300: c975 8c3f 5aab 67bd cbc1 10bf 00ce 403f
00000310: e22c 1cbf 3e96 36be d1b8 e43e 7174 6abf
00000320: a492 1fc0 2d4d f13d 05f9 ab3f d78d 943e
00000330: 9977 1d3f d70a 923e 111e 4f3e d44f d83e
00000340: f005 72c0 15c1 8e3e c109 15bf 213c 0fbf
00000350: dcd0 b9bd f056 dcbf 2906 71c0 a20e 99c0
00000360: 9394 7fbf fda2 a0bf ec49 0e3f 02d2 9f3d
00000370: 48f2 283e 912f 6b3f 7487 273f 1d78 9e3e
00000380: 6103 bdbf 5a97 323f 3df7 0d3f f841 893f
00000390: 6b8e a2bd fe78 243e df50 873e 8b44 ea3d
000003a0: f9f0 68c0 fa5c 8f3e 9516 91bf f8d7 78bd
000003b0: 3e89 0d3e c9e1 e6bf 8d64 fabf 852b 6bc0
000003c0: 1b74 4f3f c75c 553f a044 a13d 156e ff3e
000003d0: a10f c43e 94b1 443e ea2c 603e 3f1c a1bd
000003e0: 7473 2c40 1ad6 413e 6b58 ccbd 7690 513f
000003f0: 193e 31bf 6c22 b7bf e885 0d3f 61ec d93e

0.bias f4 [24]
1.9860545 -2.2821376 -0.36071754 2.0333161 -1.7856426 -0.9711258 -0.8672001 -1.3357294
0.9039097 -2.2140183 -1.6248323 1.6146394 1.3616759 -1.5046647 1.5273392 -1.1995229
1.7663887 -1.3848327 2.153674 -1.5321777 -2.4262846 0.56037384 1.7699648 -2.4454598
00000000: 0937 fe3f 8b0e 12c0 f8af b8be da21 0240
00000010: f08f e4bf b39b 78bf d300 5ebf 2ef9 aabf
00000020: a066 673f 7ab2 0dc0 81fa cfbf 81ac ce3f
00000030: 654b ae3f da98 c0bf da7f c33f f789 99bf
00000040: 0619 e23f 3342 b1bf cbd5 0940 661e c4bf
00000050: 3f48 1bc0 a974 0f3f 358e e23f 6a82 1cc0

2.weight f4 [24, 24]
-0.2591307 -0.13697174 0.11812977 -0.048996925 -0.077244945 0.19308677 -0.044953097 -0.25113887
-0.21476375 0.00917994 -0.22014832 0.05803161 -0.0666523 -0.11873096 0.0412616 0.044497702
0.07055561 -0.18710141 -0.10369497 -0.21725507 -0.22428137 -0.050979305 -0.05310933 0.05001295
-0.18396692 -0.05848617 -0.079314955 -0.04005282 -0.15540971 -0.14296544 -0.29419535 0.020838596
-0.0860926 -0.2452801 0.08712511 -0.016563542 -0.06181539 0.06240827 0.059573203 -0.03746207
-0.2216137 -0.15445827 -0.14406471 -0.23788887 -0.22503968 -0.2088085 -0.20542358 -3.0904765e-05
0.73640656 -2.2013192 0.33842617 -0.1486921 0.36948606 1.7183204 0.5372086 -0.027262399
-0.16520521 0.13207248 0.5928904 0.5728571 -0.71472144 0.08893858 -1.4365013 0.10136766
-0.3302181 2.5477765 0.22016898 1.5203104 0.2046699 0.10600677 0.8148031 -0.2277076
0.77916896 -2.0639057 0.41475514 0.41965482 0.00828664 0.6007836 -0.116804324 -0.05356979
0.9236991 -0.10261678 -0.5019712 0.5894331 1.365131 -0.114464745 0.799876 -0.10593737
0.90846145 -2.799316 -0.19401336 -1.5213424 -0.04162153 0.4035274 0.44918928 -0.74476075
-0.114082776 1.936782 -0.37154886 0.23359358 0.14387189 -0.51711464 -0.022957815 0.3166834
0.13958149 -0.10231474 -0.3630637 0.23525989 1.3092839 0.27996436 2.1567304 0.30951604
0.41944748 -1.2108637 0.2357901 -1.1811683 -0.16217335 0.20224725 0.3236346 1.2821751
0.1311726 0.71091396 -0.24461749 0.26976413 0.22360042 0.014097953 -0.07216453 -0.037656542
0.39677015 -0.12667443 -0.7335984 0.3531703 1.3508694 -0.05126394 2.2746167 -0.021763897
1.5791051 -1.5907006 0.45641595 -1.0218922 -0.008809968 0.1706196 0.14330061 1.3625066
0.0037274489 0.06619948 -0.006087944 -0.11036973 -0.23559251 -0.02287434 -0.21577357 -0.34919474
0.05672878 -0.18237765 -0.29664 -0.1454722 -0.008133488 -0.27682444 -0.17378813 -0.22456507
-0.025252722 -0.13096587 -0.33205706 -0.022385452 -0.10851296 -0.1577334 -0.07912966 -0.09268555
-0.014821249 -0.24279691 0.012361732 -0.0054754154 -0.16427454 0.1581989 0.077858485 -0.17215197
-0.039515536 -0.16518387 -0.03764172 -0.070709884 0.008658054 -0.18483658 -0.0029495358 0.08158747
-0.08051229 -0.06670403 -0.022994487 0.18662125 0.034584384 -0.27841732 -0.11811313 -0.13910279
-2.0777068 -1.065376 -0.14128084 -1.2197046 0.43546245 1.9322853 1.0761389 0.3047919
-2.23718 0.9134014 1.4979242 -2.8816445 -4.9726543 0.6067122 -8.706849 0.5252886
-2.947986 1.5580432 -2.6054072 0.59774 1.0089864 -2.2857687 -1.1132823 0.9106385
-2.0139527 2.93445 -0.0023681954 -0.5098908 0.4599476 -1.0752239 0.86437917 0.64015406
-1.2972549 0.80220085 -0.06578794 -1.0162946 -3.4565406 0.72903913 -1.2641717 0.6210547
-2.7341042 0.873741 -0.04426246 0.83095354 0.83638173 -3.4906135 -0.9184638 1.2747822
-0.22474374 -0.49309045 -0.19231798 -0.23948945 -0.45967475 0.4075287 -0.16897374 -0.3841004
0.07205378 -0.21078397 0.38344046 -0.34787685 -0.37364855 -0.3675868 -0.32806018 -0.4084844
00000000: c7ac 84be 5242 0cbe 05ee f13d 00b1 48bd
00000010: 9932 9ebd 8ab8 453e bd20 38bd 4695 80be
00000020: 07eb 5bbe 7667 163c 906e 61be 8eb2 6d3d
00000030: 0081 88bd 3829 f3bd ec01 293d 3943 363d
00000040: 767f 903d 8397 3fbe 075e d4bd 1d78 5ebe
00000050: 04aa 65be adcf 50bd 2b89 59bd 61da 4c3d
00000060: d361 3cbe 328f 6fbd e16f a2bd 6d0e 24bd
00000070: b923 1fbe 8865 12be c6a0 96be b4b5 aa3c
00000080: 5151 b0bd b52a 7bbe a66e b23d 44b0 87bc
00000090: 2232 7dbd d09f 7f3d 0803 743d d471 19bd
000000a0: b4ee 62be 4f2a 1ebe b385 13be 2499 73be
000000b0: cd70 66be e5d1 55be 8f5a 52be bd9f 01b8
000000c0: 2485 3c3f 6ae2 0cc0 3246 ad3e be42 18be
000000d0: 472d bd3e ecf1 db3f 8186 093f 6555 dfbc
000000e0: 8e2b 29be 023e 073e aac7 173f c3a6 123f
000000f0: fcf7 36bf 6e25 b63d 46df b7bf d999 cf3d
00000100: 5912 a9be c50e 2340 fa73 613e 8899 c23f
00000110: fc94 513e 141a d93d f096 503f 2e2c 69be
00000120: 9e77 473f 0817 04c0 c95a d43e ffdc d63e
00000130: b0c4 073c f4cc 193f 1b37 efbd ff6b 5bbd
00000140: 8b77 6c3f bf28 d2bd 2f81 00bf 16e5 163f
00000150: 9dbc ae3f 7e6c eabd acc4 4c3f b1f5 d8bd
00000160: ee90 683f fe27 33c0 70ab 46be 59bb c2bf
00000170: 567b 2abd 259b ce3e 23fc e53e a4a8 3ebf
00000180: 3ba4 e9bd 79e8 f73f a73b bebe 2833 6f3e
00000190: 2753 133e a061 04bf 0712 bcbc 5424 a23e
000001a0: 73ee 0e3e 648a d1bd 7ce3 b9be f8e7 703e
000001b0: 9d96 a73f 7d57 8f3e df07 0a40 e378 9e3e
000001c0: d2c1 d63e 95fd 9abf f672 713e 8630 97bf
000001d0: c510 26be e719 4f3e 6fb3 a53e 501e a43f
000001e0: 1c52 063e 75fe 353f 027d 7abe 861e 8a3e
000001f0: 82f7 643e 1afb 663c ffca 93bd bf3d 1abd
00000200: 7525 cb3e f1b6 01be 1bcd 3bbf bdd2 b43e
00000210: 4ae9 ac3f 23fa 51bd 5293 1140 334a b2bc
00000220: 1e20 ca3f 149c cbbf 5aaf e93e 5dcd 82bf
00000230: af57 10bc e8b6 2e3e 65bd 123e 9e66 ae3f
00000240: 3748 743b 9893 873d 607d c7bb 8609 e2bd
00000250: 2a3f 71be f862 bbbc bff3 5cbe a7c9 b2be
00000260: 705c 683d 35c1 3abe 33e1 97be aaf6 14be
00000270: 5242 05bc efbb 8dbe 84f5 31be 63f4 65be
00000280: ccde cebc eb1b 06be 6203 aabe b261 b7bc
00000290: 0b3c debd dd84 21be bb0e a2bd ecd1 bdbd
000002a0: d3d4 72bc c19f 78be dd88 4a3c 1d6b b3bb
000002b0: 9637 28be e4fe 213e 4574 9f3d 9b48 30be
000002c0: 0bdb 21bd f625 29be 342e 1abd 58d0 90bd
000002d0: 83da 0d3c cd45 3dbe 004d 41bb 5517 a73d
000002e0: a1e3 a4bd 1f9c 88bd ef5e bcbc a419 3f3e
000002f0: 5ba8 0d3d b78c 8ebe 4ce5 f1bd f670 0ebe
00000300: 26f9 04c0 3e5e 88bf edab 10be 481f 9cbf
00000310: eff4 de3e 2055 f73f ebbe 893f af0d 9c3e
00000320: f52d 0fc0 add4 693f fbbb bf3f dd6c 38c0
00000330: fc1f 9fc0 7e51 1b3f 414f 0bc1 5079 063f
00000340: cdab 3cc0 f66d c73f febe 26c0 7d05 193f
00000350: 7726 813f 094a 12c0 0980 8ebf 9b1f 693f
00000360: 9ae4 00c0 07ce 3b40 ba33 1bbb 3488 02bf
00000370: 407e eb3e f0a0 89bf f447 5d3f 23e1 233f
00000380: 730c a6bf 095d 4d3f d4bb 86bd f115 82bf
00000390: f637 5dc0 4fa2 3a3f 61d0 a1bf 71fd 1e3f
000003a0: 90fb 2ec0 7dad 5f3f 8e4c 35bd 5fb9 543f
000003b0: 1d1d 563f 3666 5fc0 7220 6bbf 102c a33f
000003c0: 3923 66be 5a76 fcbe 01ef 44be b93c 75be
000003d0: 7d5a ebbe 9aa7 d03e 7407 2dbe cfa8 c4be
000003e0: ef90 933d c1d7 57be 4f52 c43e ea1c b2be
000003f0: dd4e bfbe 5634 bcbe 81f7 a7be de24 d1be

2.bias f4 [24]
0.008035545 0.08522077 0.15032998 0.6730098 0.36278915 0.98915625 -0.36041382 -0.19879968
-1.5971504 -0.90578634 -0.18966539 -0.23312272 -0.15774119 -0.16509505 -0.15994337 0.45698133
-1.234291 -0.16505416 -1.6737006 0.48870912 -0.2040493 0.8811246 1.1385442 0.7794249
00000000: 85a7 033c 3a88 ae3d 1af0 193e 5f4a 2c3f
00000010: 80bf b93e 5839 7d3f 2988 b8be 2592 4bbe
00000020: 6d6f ccbf 9de1 67bf a537 42be b9b7 6ebe
00000030: e886 21be ad0e 29be 32c8 23be 75f9 e93e
00000040: 3ffd 9dbf f503 29be d23b d6bf 1538 fa3e
00000050: 4df2 50be 6291 613f d1bb 913f 6488 473f

4.weight f4 [4, 24]
0.04895002 0.0020929035 -1.1269267 -0.706391 0.22184116 -0.29575735 -0.014168397 -0.094538696
1.8686824 0.71900356 0.49397922 0.52928877 0.091423236 -0.111439034 0.24338998 0.6739688
1.7080617 0.30268273 1.5731435 0.2739748 -0.11082688 -1.0244832 -0.06420599 -0.90009326
0.029205393 -0.009764552 -1.128684 -1.2709534 0.92004645 0.8740058 0.14692679 -0.16469438
-2.6528401 1.093759 -0.12296128 0.97136444 0.0154603645 -0.09182568 0.1713063 1.5945967
4.227922 -1.6755805 4.024845 0.90540105 0.046972282 -1.1996509 -0.6453251 -1.2442328
0.085528724 0.09632769 -1.4903737 -0.3848198 0.4703705 0.5356885 -0.17504358 0.060492985
-1.0178916 1.5694094 -0.059984613 0.35268432 -0.088708214 -0.15554588 -0.49244994 1.4557805
1.6453613 0.07908022 1.7149599 0.39623958 -0.017509282 -1.082214 -0.50694054 -0.8863482
0.0036498727 -0.14778285 0.627366 -0.9927671 -0.3883658 -0.8379456 -0.20316398 0.014627994
3.3588912 1.0798056 0.2719473 0.8475285 -0.16578111 0.016411485 2.3455994 -1.1870736
0.71958315 1.1856331 4.0468173 -0.67423975 0.039068412 -0.7587424 -1.3076142 -0.7304843
00000000: d17f 483d 1829 093b 223f 90bf 0ad6 34bf
00000010: 542a 633e 826d 97be 9022 68bc 819d c1bd
00000020: fc30 ef3f 9e10 383f d8ea fc3e 787f 073f
00000030: 1b3c bb3d 263a e4bd 393b 793e 3889 2c3f
00000040: c4a1 da3f 3bf9 9a3e c45c c93f 6d46 8c3e
00000050: 34f9 e2bd 4422 83bf 6e7e 83bd 836c 66bf
00000060: 2640 ef3c 80fb 1fbc b878 90bf 9aae a2bf
00000070: 2a88 6b3f d8be 5f3f fa73 163e a5a5 28be
00000080: 22c8 29c0 4b00 8c3f 20d3 fbbd 57ab 783f
00000090: 784d 7d3c 1a0f bcbd eb6a 2f3e bf1b cc3f
000000a0: 234b 8740 6c79 d6bf 88cb 8040 5dc8 673f
000000b0: 0266 403d 298e 99bf 0734 25bf 0543 9fbf
000000c0: af29 af3d 7447 c53d 91c4 bebf 1a07 c5be
000000d0: 67d4 f03e e222 093f a03e 33be 7ec7 773d
000000e0: 464a 82bf 68e2 c83f 6db2 75bd 0a93 b43e
000000f0: a7ac b5bd 6b47 1fbe 6622 fcbe 0457 ba3f
00000100: 339b d23f cff4 a13d ce83 db3f eadf ca3e
00000110: a06f 8fbc fd85 8abf dbc6 01bf b7e7 62bf
00000120: b432 6f3b 6354 17be 0f9b 203f fc25 7ebf
00000130: e2d7 c6be 9a83 56bf 380a 50be 41aa 6f3c
00000140: 13f8 5640 1237 8a3f ad3c 8b3e a1f7 583f
00000150: 86c2 29be 6171 863c 4d1e 1640 07f2 97bf
00000160: 9a36 383f d3c2 973f 877f 8140 fa9a 2cbf
00000170: 3306 203d f13c 42bf e75f a7bf 0501 3bbf

4.bias f4 [4]
-1.9871656 0.22039041 -2.0915406 -0.32332316
00000000: 715b febf 06ae 613e cddb 05c0 9d8a a5be
