logs/try3/target_params_A_25_onehot.pt (torch, 14823 bytes, 6 tensors)

0.weight f4 [24, 100]
0.9542149 1.385481 -0.116849385 -4.2826123 0.836184 -0.96984154 -0.13253582 3.3027582
1.3564688 -1.9486965 0.38091758 -1.8748806 -1.183523 1.1246912 -3.8459644 0.71022725
-0.39827478 0.97921443 4.483734 -0.5514019 -1.4357458 -0.24326967 0.45692852 -4.0145855
-0.6262715 -0.23506403 1.6448249 4.652645 -0.6769072 -1.3685282 3.5140955 2.1292057
4.0771666 4.690456 4.1500983 1.427427 2.4003217 4.680203 2.7537503 -3.5634115
0.5832446 1.3776122 -2.5332685 -4.981752 -2.6119442 3.617682 -1.2716154 -3.8916907
-0.26735792 2.1111045 2.7171412 0.7366967 -0.66334003 0.14754952 0.7103476 -0.16691893
-1.3953508 2.0792341 2.26279 -0.70941347 -1.4825401 2.0166883 -2.385993 -2.7912374
-3.2774277 -2.7481897 -1.9712546 -2.9244235 -2.9569063 -1.1920977 -2.7018034 -2.2311485
-3.487266 -1.320111 -1.7081147 -0.25346383 -1.3404094 -1.2203655 -1.0999746 -0.30933058
-2.433807 1.6562638 1.1449629 -1.1120578 -0.054672226 0.16334376 0.7449721 -1.074944
-4.7614217 0.16526984 -1.0378546 -1.465676 -1.6402154 5.8875227 -0.25729832 1.2280307
-0.6905363 -3.0986295 -0.21063651 1.3558515 -2.2625093 2.4984632 2.505164 -1.7326792
-0.830101 1.9940611 -0.99545246 1.5480735 -2.7934704 -1.0719119 -2.8354456 -3.1721783
-2.6099844 -0.4175894 -1.2585943 -0.34460896 -3.5515025 4.223039 -1.8571944 -1.215753
-0.18614604 1.2320565 0.5624675 -3.794553 1.1489811 0.6353846 -0.5654071 -3.765696
0.39374202 4.5841556 -3.6758657 -1.4655174 -1.4266558 3.7865944 1.7226963 1.5647742
-1.5378122 4.290081 0.50626785 -1.4446929 -0.75180846 2.8209982 1.4205838 -2.2832475
-2.172763 2.2626028 1.0671496 -2.673319 -2.008442 2.6242518 0.12143364 -3.0509148
-2.3226528 1.5957654 2.8526835 -2.7425327 -1.8956169 2.3850806 1.1194693 -2.2260878
-1.0111554 3.1478956 0.97335273 -5.528809 -2.002189 4.192249 -1.9530973 -3.6517327
-2.1203227 2.1443102 1.7708348 -0.5238202 3.308302 1.8732064 -0.48000026 -2.7287056
-3.762621 4.0357375 -1.2860613 -1.7161325 -2.390645 2.6197762 1.1219606 -3.9578164
-2.5178916 0.77086747 -3.065535 -3.646921 -2.4400303 2.1320148 -0.9030303 -2.1333766
-5.28734 -0.9738653 -2.6095567 0.738188 -2.389035 2.3554943 -2.8895721 4.2393546
0.4099487 -1.8014764 -1.1219755 3.2456553 0.8282188 1.4634995 0.50650895 -0.93528163
2.415672 1.570137 6.0674696 0.48863178 -3.4675477 1.5686462 1.7567979 1.3875073
-4.247447 -0.5125521 -3.2098866 1.4261979 -2.232487 0.2377815 1.4161129 2.4905205
-0.4574907 -1.2347062 1.0847114 2.3027112 2.4720564 1.0753846 0.25318956 -3.8206835
-3.0375137 -0.4705758 1.0618877 0.1939988 -3.9552693 1.8895326 5.320627 0.6865847
-0.7615842 -2.112045 2.6210036 -1.5570073 2.1338148 -3.9256425 0.34981707 0.67629546
2.706439 -0.0055008098 -0.85227877 -1.0834482 1.6921659 0.15866086 0.7332701 3.5541582
00000000: 6d47 743f 7157 b13f bb4e efbd 290b 89c0
00000010: 2810 563f 8947 78bf 78b7 07be 6460 5340
00000020: c5a0 ad3f e36e f9bf a107 c33e 16fc efbf
00000030: af7d 97bf e2f5 8f3f 4824 76c0 74d1 353f
00000040: acea cbbe ccad 7a3f c07a 8f40 ad28 0dbf
00000050: 85c6 b7bf af1b 79be 89f2 e93e 7c77 80c0
00000060: 5453 20bf a0b4 70be 9f89 d23f 78e2 9440
00000070: ca49 2dbf ef2b afbf f1e6 6040 e844 0840
00000080: 2678 8240 3718 9640 9bcd 8440 eeb5 b63f
00000090: df9e 1940 39c4 9540 723d 3040 ef0e 64c0
000000a0: 854f 153f 9955 b03f 1221 22c0 836a 9fc0
000000b0: 182a 27c0 1a88 6740 4bc4 a2bf 7611 79c0
000000c0: 23e3 88be 561c 0740 a4e5 2d40 2898 3c3f
000000d0: a7d0 29bf 3917 173e 57d9 353f ccec 2abe
000000e0: db9a b2bf 2c12 0540 8dd1 1040 1f9c 35bf
000000f0: e0c3 bdbf 6c11 0140 1cb4 18c0 a2a3 32c0
00000100: 60c1 51c0 57e2 2fc0 1252 fcbf c129 3bc0
00000110: f43d 3dc0 a896 98bf 59ea 2cc0 23cb 0ec0
00000120: 5e2f 5fc0 66f9 a8bf 81a3 dabf 03c6 81be
00000130: 8992 abbf f034 9cbf f8cb 8cbf 9460 9ebe
00000140: 7ec3 1bc0 7400 d43f 258e 923f e957 8ebf
00000150: fcef 5fbd 9643 273e 7eb6 3e3f c497 89bf
00000160: 915d 98c0 7f3c 293e 6bd8 84bf 459b bbbf
00000170: 94f2 d1bf 9666 bc40 9bbc 83be 1c30 9d3f
00000180: fdc6 30bf f24f 46c0 19b1 57be 8b8c ad3f
00000190: f4cc 10c0 d2e6 1f40 9b54 2040 6fc8 ddbf
000001a0: 8081 54bf 653d ff3f f9d5 7ebf 4627 c63f
000001b0: 38c8 32c0 6934 89bf f177 35c0 f804 4bc0
000001c0: fc09 27c0 47ce d5be 9e19 a1bf 9670 b0be
000001d0: d14b 63c0 2323 8740 8cb8 edbf cb9d 9bbf
000001e0: 119d 3ebe 07b4 9d3f dffd 0f3f f5d9 72c0
000001f0: d011 933f 91a8 223f 85be 10bf 2a01 71c0
00000200: 8e98 c93e 67b1 9240 6241 6bc0 1396 bbbf
00000210: a89c b6bf 9057 7240 5081 dc3f 854a c83f
00000220: 08d7 c4bf 5848 8940 c59a 013f b2eb b8bf
00000230: 8576 40bf 3c8b 3440 b1d5 b53f ba20 12c0
00000240: 8d0e 0bc0 7cce 1040 5c98 883f a917 2bc0
00000250: 508a 00c0 bef3 2740 33b2 f83d 3042 43c0
00000260: 58a6 14c0 0a42 cc3f 5e92 3640 a885 2fc0
00000270: 93a3 f2bf 29a5 1840 c54a 8f3f 3978 0ec0
00000280: 8a6d 81bf 1f77 4940 a52d 793f 01ec b0c0
00000290: dd23 00c0 e726 8640 18ff f9bf fdb5 69c0
000002a0: 5eb3 07c0 613c 0940 b7aa e23f 1519 06bf
000002b0: 38bb 5340 3ac5 ef3f 98c2 f5be 1da3 2ec0
000002c0: c8ce 70c0 c324 8140 a89d a4bf 3baa dbbf
000002d0: 5400 19c0 6aaa 2740 689c 8f3f dd4c 7dc0
000002e0: 2325 21c0 9257 453f ba31 44c0 2767 69c0
000002f0: 7529 1cc0 ee72 0840 fe2c 67bf 3e89 08c0
00000300: e431 a9c0 3c4f 79bf fa02 27c0 e4f9 3c3f
00000310: f3e5 18c0 6bc0 1640 c0ee 38c0 cba8 8740
00000320: cce4 d13e c796 e6bf e59c 8fbf d1b8 4f40
00000330: 2606 543f f453 bb3f 92aa 013f 9e6e 6fbf
00000340: 5f9a 1a40 40fa c83f b628 c240 f22d fa3e
00000350: 4dec 5dc0 66c9 c83f c1de e03f d799 b13f
00000360: 16eb 87c0 9d36 03bf c86e 4dc0 a78d b63f
00000370: 11e1 0ec0 fe7c 733e 3043 b53f b064 1f40
00000380: 393c eabe da0a 9ebf d3d7 8a3f 9f5f 1340
00000390: 2c36 1e40 34a6 893f 10a2 813e 1486 74c0
000003a0: a066 42c0 50ef f0be f0eb 873f 9fa7 463e
000003b0: 2223 7dc0 34dc f13f 9442 aa40 04c4 2f3f
000003c0: 2ff7 42bf bf2b 07c0 86be 2740 044c c7bf
000003d0: 6c90 0840 ba3d 7bc0 391b b33e b321 2d3f
000003e0: 4c36 2d40 2340 b4bb f12e 5abf 6eae 8abf
000003f0: e498 d83f fe77 223e 97b7 3b3f 5477 6340

0.bias f4 [24]
-6.9198594 -6.1860003 -6.1062775 -8.194998 1.1357087 -5.0507703 -4.866885 -5.2910447
-3.4205046 -5.1620855 -6.431472 -7.437942 -8.4662 -7.73568 -4.7519393 -5.4999566
-6.641079 -6.7229767 -6.721768 -8.21656 -6.1852255 -6.4021425 -6.563732 -6.2368946
00000000: 7d6f ddc0 b7f3 c5c0 a066 c3c0 b61e 03c1
00000010: e75e 913f e99f a1c0 86bd 9bc0 3d50 a9c0
00000020: 8ce9 5ac0 ce2f a5c0 9ece cdc0 9f03 eec0
00000030: 8e75 07c1 b18a f7c0 e30f 98c0 a5ff afc0
00000040: b883 d4c0 a022 d7c0 b918 d7c0 0877 03c1
00000050: 5eed c5c0 5ade ccc0 180a d2c0 a494 c7c0

2.weight f4 [24, 24]
13.9649515 13.675332 13.261744 17.5994 6.814966 11.686626 8.142172 9.113919
7.117791 8.968475 13.162109 14.243254 18.21834 18.59284 8.913695 11.176322
12.392777 15.384023 15.747808 16.714312 12.526956 13.490436 12.852045 12.325254
14.297698 13.759712 13.132732 17.775892 6.760851 11.28977 8.377027 9.429399
6.8645477 8.760904 13.153366 14.521569 17.945536 18.66454 9.082468 10.928011
12.337427 15.31816 15.75759 16.5693 12.563369 13.472405 13.119998 12.55937
13.400946 13.207188 12.118927 17.7729 7.1639333 10.530011 7.9213104 8.652986
7.0979095 8.31797 12.30462 14.379588 17.314156 18.863003 9.49468 10.210554
11.319479 14.52283 15.127823 16.18375 12.269159 12.894912 13.521722 12.041716
14.34196 13.980001 13.178022 17.918715 6.525022 11.533618 8.721228 8.796631
6.9181795 8.454489 13.6991 14.39488 18.240211 19.283596 8.940429 10.941724
12.473373 14.965629 15.58862 16.884924 12.973926 13.636945 13.399494 12.646748
14.480912 14.051755 12.753871 18.348812 6.707602 11.335105 8.800811 8.922279
6.964765 8.772201 13.833187 14.52164 18.518099 18.927229 8.892198 10.70951
12.423501 14.9683895 15.915821 16.96641 13.052765 13.526536 13.535012 12.788832
10.864867 8.473602 4.502342 18.867214 1.9911213 4.5780845 3.0147274 2.7105346
1.2897533 5.564042 12.513619 9.764944 13.623119 17.512436 7.480634 4.0437617
3.9808621 6.020242 8.005511 8.027781 12.631951 5.3661866 15.950061 9.503301
13.721048 13.811348 13.344359 17.7122 6.3212748 11.089306 8.098122 9.113543
6.6534758 8.851884 12.733472 14.291053 18.045528 18.745174 8.703084 11.144712
12.5942545 15.092955 15.521703 16.939146 12.027126 13.436177 12.568334 12.158531
14.239841 13.98469 13.101348 18.05964 6.464679 11.442293 8.780477 9.14545
6.89366 8.888907 13.54941 14.3074665 18.269466 18.876135 8.909405 11.064242
12.743162 15.054664 15.591246 16.933937 12.949324 13.690456 13.201184 12.40661
11.556412 10.453727 11.293706 14.5752735 7.3453856 8.958868 7.4951234 8.526303
8.057281 8.097143 9.443145 10.917093 14.478424 14.722531 8.589738 8.992614
9.537797 13.334456 13.891669 14.521263 9.251644 11.323465 9.113988 10.058644
13.794156 13.725794 13.066181 17.627785 7.0362935 11.696501 8.63813 9.194287
6.884166 8.755508 13.038191 14.163496 18.16438 18.912888 9.064394 10.993305
12.473897 15.044692 16.027187 16.90899 12.488799 13.539649 12.974493 12.329926
14.154339 13.962526 12.918121 17.952585 6.747572 11.405384 8.226065 9.037889
6.980894 9.073716 13.314926 14.620935 18.01732 19.040535 9.168097 11.127616
00000000: 7170 5f41 29ce 5a41 1a30 5441 92cb 8c41
00000010: 3414 da40 6cfc 3a41 5646 0241 9dd2 1141
00000020: f2c4 e340 e07e 0f41 0098 5241 5ee4 6341
00000030: 29bf 9141 23be 9441 7f9e 0e41 37d2 3241
00000040: d148 4641 f524 7641 06f7 7b41 e9b6 8541
00000050: 696e 4841 d3d8 5741 faa1 4d41 3e34 4541
00000060: 5fc3 6441 c827 5c41 ac1f 5241 0735 8e41
00000070: e458 d840 e6a2 3441 4d08 0641 d1de 1641
00000080: 60aa db40 aa2c 0c41 3074 5241 5958 6841
00000090: 7590 8f41 fa50 9541 ca51 1141 22d9 2e41
000000a0: 1a66 4541 2f17 7541 171f 7c41 ed8d 8441
000000b0: 8f03 4941 f98e 5741 83eb 5141 2ef3 4841
000000c0: 466a 5641 a450 5341 20e7 4141 e62e 8e41
000000d0: f13e e540 ed7a 2841 607b fd40 a172 0a41
000000e0: 1322 e340 6816 0541 b9df 4441 cb12 6641
000000f0: 6483 8a41 6ee7 9641 36ea 1741 6e5e 2341
00000100: 961c 3541 835d 6841 900b 7241 5278 8141
00000110: 7a4e 4441 8f51 4e41 f958 5841 deaa 4041
00000120: ab78 6541 16ae 5f41 2ed9 5241 8759 8f41
00000130: fbcc d040 b389 3841 268a 0b41 00bf 0c41
00000140: ba61 dd40 9645 0741 832f 5b41 6e51 6641
00000150: f4eb 9141 ce44 9a41 ff0b 0f41 4d11 2f41
00000160: f092 4741 3773 6f41 fd6a 7941 5314 8741
00000170: 3395 4f41 ed30 5a41 5464 5641 1459 4a41
00000180: d1b1 6741 fdd3 6041 db0f 4c41 5eca 9241
00000190: ada4 d640 975c 3541 1fd0 0c41 a8c1 0e41
000001a0: 5bdf de40 ef5a 0c41 bc54 5d41 a358 6841
000001b0: 1125 9441 f76a 9741 7146 0e41 275a 2b41
000001c0: a9c6 4641 867e 6f41 34a7 7e41 35bb 8741
000001d0: 20d8 5041 b16c 5841 698f 5841 0e9f 4c41
000001e0: 7fd6 2d41 e093 0741 3013 9040 0ef0 9641
000001f0: 10dd fe3f ab7f 9240 4bf1 4040 6679 2d40
00000200: a316 a53f a20c b240 c937 4841 363d 1c41
00000210: 4cf8 5941 7819 8c41 5b61 ef40 7f66 8140
00000220: 72c6 7e40 d3a5 c040 9316 0041 ca71 0041
00000230: 791c 4a41 cdb7 ab40 7333 7f41 850d 1841
00000240: 6a89 5b41 48fb 5c41 7f82 5541 96b2 8d41
00000250: e247 ca40 cc6d 3141 e891 0141 12d1 1141
00000260: 46e9 d440 51a1 0d41 4dbc 4b41 27a8 6441
00000270: 3e5d 9041 1ef6 9541 d53f 0b41 be50 3241
00000280: 1182 4941 be7c 7141 e558 7841 5f83 8741
00000290: 1c6f 4041 95fa 5641 e517 4941 5889 4241
000002a0: 64d6 6341 4ac1 5f41 1f9f 5141 257a 9041
000002b0: a6de ce40 a213 3741 d57c 0c41 c353 1241
000002c0: dd98 dc40 f738 0e41 62ca 5841 62eb 6441
000002d0: de27 9241 5302 9741 ec8c 0e41 2307 3141
000002e0: fee3 4b41 e7df 7041 be75 7941 b478 8741
000002f0: 6e30 4f41 1c0c 5b41 0d38 5341 7981 4641
00000300: 10e7 3841 7742 2741 05b3 3441 5234 6941
00000310: 660d eb40 8657 0f41 0dd8 ef40 bd6b 0841
00000320: 9fea 0041 e68d 0141 1f17 1741 6aac 2e41
00000330: a0a7 6741 7d8f 6b41 916f 0941 bfe1 0f41
00000340: d19a 1841 ef59 5541 4744 5e41 1857 6841
00000350: bc06 1441 ea2c 3541 e5d2 1141 35f0 2041
00000360: ddb4 5c41 da9c 5b41 140f 5141 b405 8d41
00000370: 5129 e140 de24 3b41 c835 0a41 cd1b 1341
00000380: 164b dc40 9016 0c41 6e9c 5041 ae9d 6241
00000390: a650 9141 984d 9741 c207 1141 94e4 2f41
000003a0: 1595 4741 0fb7 7041 ae37 8041 9d45 8741
000003b0: 1fd2 4741 67a2 5841 8697 4f41 6047 4541
000003c0: 2c78 6241 8266 5f41 a0b0 4e41 e59e 8f41
000003d0: 1cec d740 747c 3641 f69d 0341 319b 1041
000003e0: 7c63 df40 f12d 1141 f009 5541 5aef 6941
000003f0: 7923 9041 0453 9841 86b0 1241 b70a 3241

2.bias f4 [24]
-6.466857 -6.377582 -5.5724244 -7.9677286 -7.468518 -17.285389 -8.437529 -7.2958016
-2.3204746 -6.534112 -7.23183 -7.381988 -7.193348 -7.404451 -7.001652 -6.2796526
-7.194603 -7.907549 -25.566118 -7.4049354 -7.8296156 -7.3065844 -8.01456 -7.2345743
00000000: 7ef0 cec0 2715 ccc0 4d51 b2c0 a2f7 fec0
00000010: 19fe eec0 7a48 8ac1 1e00 07c1 3577 e9c0
00000020: a882 14c0 7217 d1c0 276b e7c0 3f39 ecc0
00000030: e82f e6c0 43f1 ecc0 880d e0c0 eaf2 c8c0
00000040: 303a e6c0 a40a fdc0 6987 ccc1 3bf5 ecc0
00000050: 368c fac0 8acf e9c0 a33b 00c1 a281 e7c0

4.weight f4 [4, 24]
-8.390827 -8.530327 -9.118053 -8.631736 -8.792304 -13.716478 -8.250006 -8.625606
-8.6182165 -8.488522 -8.59458 -8.870917 -8.857608 -8.835872 -8.60241 -8.533746
-8.473561 -8.56889 -13.144905 -8.539878 -8.409705 -8.855108 -8.738346 -8.758993
-11.733794 -11.658498 -11.607231 -11.48974 -11.353358 -4.522909 -11.886907 -11.6114435
-13.041103 -11.761891 -11.710868 -11.481102 -11.589228 -11.449189 -11.392121 -11.49483
-11.367094 -11.316851 -8.765572 -11.364382 -11.381822 -11.555162 -11.286602 -11.342304
-11.076008 -11.056053 -10.575206 -11.328759 -11.1779585 -10.046162 -11.248812 -11.269659
-11.262646 -11.018603 -11.086351 -11.0688715 -11.286627 -11.134426 -10.8068 -10.890086
-11.05386 -11.461441 -16.645563 -11.18154 -11.370905 -11.325332 -11.119344 -11.244926
-10.675724 -10.71523 -10.901276 -10.366708 -10.51685 -10.085556 -10.358547 -10.415646
-12.252266 -10.39895 -10.612294 -10.532593 -10.443262 -10.670594 -10.648501 -10.781155
-10.806799 -10.570536 -11.051579 -10.655524 -10.672194 -10.427301 -10.616604 -10.551556
00000000: d440 06c1 387c 08c1 8ce3 11c1 971b 0ac1
00000010: 47ad 0cc1 b276 5bc1 0600 04c1 7b02 0ac1
00000020: 37e4 09c1 fcd0 07c1 6683 09c1 47ef 0dc1
00000030: c3b8 0dc1 bb5f 0dc1 79a3 09c1 398a 08c1
00000040: b593 07c1 2c1a 09c1 8851 52c1 57a3 08c1
00000050: 278e 06c1 86ae 0dc1 44d0 0bc1 d624 0cc1
00000060: 9fbd 3bc1 3589 3ac1 38b7 39c1 fad5 37c1
00000070: 5ba7 35c1 acbb 90c0 c530 3ec1 79c8 39c1
00000080: 5ca8 50c1 b530 3cc1 b75f 3bc1 98b2 37c1
00000090: 7a6d 39c1 e12f 37c1 2146 36c1 d3ea 37c1
000000a0: 9edf 35c1 d211 35c1 c83f 0cc1 82d4 35c1
000000b0: f11b 36c1 f2e1 38c1 ec95 34c1 147a 35c1
000000c0: 5437 31c1 98e5 30c1 0b34 29c1 9942 35c1
000000d0: ebd8 32c1 14bd 20c1 22fb 33c1 8650 34c1
000000e0: cc33 34c1 334c 30c1 b261 31c1 191a 31c1
000000f0: 0696 34c1 9c26 32c1 a7e8 2cc1 cb3d 2ec1
00000100: 9cdc 30c1 1062 37c1 1d2a 85c1 96e7 32c1
00000110: 3aef 35c1 8f34 35c1 d5e8 31c1 38eb 33c1
00000120: c4cf 2ac1 9571 2bc1 a06b 2ec1 09de 25c1
00000130: 0545 28c1 705e 21c1 9cbc 25c1 7ca6 26c1
00000140: 4809 44c1 1962 26c1 f5cb 29c1 8085 28c1
00000150: 9a17 27c1 c1ba 2ac1 4360 2ac1 9c7f 2cc1
00000160: a6e8 2cc1 ea20 29c1 45d3 30c1 077d 2ac1
00000170: 4ec1 2ac1 3ad6 26c1 9cdd 29c1 2cd3 28c1

4.bias f4 [4]
-6.220217 -5.1415615 8.737212 -3.4502044
00000000: 050c c7c0 ac87 a4c0 9fcb 0b41 26d0 5cc0
