logs/target_params_B.pt (torch, 6231 bytes, 6 tensors)

0.weight f4 [24, 12]
000000 ec b0 d2 c0 67 25 d0 c0 96 8f 8c c0 fb 6f 8a c0
       -6.584097 -6.5045657 -4.3925276 -4.3261695
000010 50 bd 8a c0 8c f0 8b c0 4c 80 c9 c0 f8 00 93 c0
       -4.3356094 -4.3731136 -6.2969112 -4.5938683
000020 53 b3 d9 c0 65 43 d9 c0 74 c8 2d be a5 1e 8e c0
       -6.80314 -6.789477 -0.16970998 -4.441241
000030 71 c5 cf c0 d4 cc d2 c0 0a d6 8a c0 55 87 94 c0
       -6.4928517 -6.5875034 -4.338628 -4.64152
000040 b9 00 89 c0 78 74 8e c0 8c e8 cf c0 ed d3 91 c0
       -4.281338 -4.4517174 -6.497137 -4.55712
000050 e9 63 cd c0 38 bf cf c0 88 74 cc 3d dc 9e 8e c0
       -6.418446 -6.492092 0.09983164 -4.456892
000060 5b 18 d4 c0 08 1c cb c0 0e e5 86 c0 69 58 89 c0
       -6.627973 -6.347172 -4.215461 -4.2920423
000070 46 ba 8d c0 40 9d 86 c0 37 af cc c0 e1 39 d5 c0
       -4.4289885 -4.2066956 -6.3963885 -6.6633153
000080 60 72 97 c0 d9 62 cc c0 c4 d7 2c 3e 40 de 86 c0
       -4.732712 -6.3870664 0.16879183 -4.21463
000090 5a c7 78 c1 00 3b 84 c1 c1 f7 f4 c0 6f a4 df c0
       -15.54867 -16.528809 -7.6552434 -6.9888225
0000a0 aa 98 39 41 fe 4a b3 bf 4c f8 59 c1 cf 81 ae c1
       11.5997715 -1.4007261 -13.623119 -21.813383
0000b0 c6 17 b1 c1 97 e4 8c c1 ec 64 33 be 7f df 8a 40
       -22.136608 -17.611616 -0.17518967 4.339782
0000c0 f9 1f 94 c0 2e 40 88 c0 8f 8b d8 c0 11 9e d1 c0
       -4.628903 -4.2578344 -6.767036 -6.550545
0000d0 77 84 c9 c0 7c 31 d3 c0 95 80 94 c0 a2 01 8b c0
       -6.29742 -6.5997906 -4.640696 -4.3439493
0000e0 c3 cb bd 40 10 40 8c c0 90 b0 69 3e fb 95 ca c0
       5.9311233 -4.38282 0.2282126 -6.330808
0000f0 29 cc 96 c0 7e 07 95 c0 04 80 90 c0 9d 23 94 c0
       -4.712422 -4.6571646 -4.515627 -4.6293473
000100 35 d4 84 c0 50 79 83 c0 72 78 87 c0 a1 cf 92 c0
       -4.150904 -4.1085587 -4.233453 -4.5878453
000110 c7 69 8f c0 5e 8c ca c0 a2 b9 50 be 61 dd 8a c0
       -4.4816623 -6.3296347 -0.20383313 -4.339524
000120 76 03 8c c0 73 75 9a c0 41 8f d6 c0 42 e5 cb c0
       -4.3754225 -4.826837 -6.704987 -6.3717356
000130 fe 1e cc c0 28 a0 cf c0 f4 a7 8c c0 12 72 88 c0
       -6.378783 -6.4883003 -4.395502 -4.2639246
000140 74 c7 c5 40 09 97 ce c0 40 8e c0 3b bd ae d2 c0
       6.1805973 -6.455937 0.0058763325 -6.5838304
000150 f1 28 95 c0 b0 60 9a c0 fa 5e d7 c0 96 73 c9 c0
       -4.6612477 -4.8243027 -6.730344 -6.2953596
000160 1d b5 cd c0 b6 b4 d4 c0 d0 9a 97 c0 6f bb 8c c0
       -6.4283586 -6.6470594 -4.737648 -4.39788
000170 21 4c bc 40 ef ac b5 c0 1e af 26 3e 52 cb f0 c0
       5.884293 -5.67736 0.1627774 -7.5248194
000180 37 98 42 c0 3d ab 94 c0 ae 90 b2 c0 18 d0 85 c0
       -3.0405405 -4.645903 -5.580161 -4.181652
000190 33 b9 19 c1 43 91 80 c0 45 cf 3f c0 17 ab 6e c0
       -9.607715 -4.017732 -2.9970257 -3.7291925
0001a0 20 a1 ab c0 c1 d2 aa 3d 48 fe 79 3d 55 a1 90 c0
       -5.3634186 0.08340979 0.061033517 -4.519694
0001b0 17 d3 d2 c0 ca 69 d4 c0 1c ef 91 c0 8a 42 90 c0
       -6.588268 -6.6379137 -4.560438 -4.5081224
0001c0 bc 69 8b c0 dd 61 8e c0 f2 f0 c9 c0 e2 fa cb c0
       -4.356657 -4.449446 -6.3106623 -6.3743753
0001d0 ca fa b7 c0 f3 db b8 c0 e0 b6 a9 3c 01 63 88 c0
       -5.749364 -5.7768493 0.020717084 -4.2620854
0001e0 26 eb 97 c0 b6 87 93 c0 fd 97 d0 c0 80 96 d4 c0
       -4.7474546 -4.6103163 -6.5185533 -6.6433716
0001f0 af ab 94 c0 47 17 8e c0 9c 8a d7 c0 be ab cd c0
       -4.6459575 -4.4403415 -6.73567 -6.4272146
000200 fe 34 ca c0 5f 92 92 c0 8c 7e 7a 3e ea 82 8f c0
       -6.318969 -4.5803676 0.24462336 -4.4847307
000210 2f 36 98 c0 2a c3 94 c0 e5 50 cb c0 3c 08 db c0
       -4.756614 -4.6488237 -6.353625 -6.844755
000220 4c dd cc c0 8b 0f d4 c0 13 e4 8a c0 0a 8e 98 c0
       -6.402014 -6.6268973 -4.340341 -4.7673388
000230 69 71 bd c0 79 43 aa c0 80 fc 4a 3e 7b a9 ce c0
       -5.920094 -5.3207364 0.19822884 -6.4581885
000240 c3 83 93 c0 75 8c 98 c0 1d bc a2 c0 a1 5e ad c0
       -4.609834 -4.7671456 -5.085463 -5.4178014
000250 32 25 ab c0 86 bf ad c0 ab 56 92 c0 89 ff 9b c0
       -5.3482904 -5.4296293 -4.5730796 -4.8749433
000260 3b 83 b2 c0 24 04 a5 c0 2e f8 87 3e 81 1c bc c0
       -5.5785193 -5.1567554 0.26556534 -5.8784795
000270 84 f8 9d c0 ad 0f 97 c0 55 53 a9 c0 3b ce a0 c0
       -4.9365864 -4.7206635 -5.2914224 -5.0251746
000280 06 31 af c0 4e bb 9f c0 27 08 90 c0 50 69 92 c0
       -5.4747343 -4.9916143 -4.500995 -4.5753555
000290 bb 35 91 c0 5d 4d 98 c0 e8 7c 21 3d 1b 74 a9 c0
       -4.537809 -4.7594438 0.03942576 -5.295423
0002a0 2b e0 91 c0 92 62 89 c0 a6 09 c9 c0 b8 21 ca c0
       -4.5586143 -4.2932825 -6.282428 -6.316616
0002b0 1c 1d cb c0 95 ce d8 c0 f0 3a 8c c0 2c 60 92 c0
       -6.3473034 -6.7752175 -4.3821945 -4.5742397
0002c0 8d 34 b8 40 8a 9b 92 c0 d3 26 79 be 70 55 ce c0
       5.756415 -4.5814867 -0.24331217 -6.4479294
0002d0 de b6 8d c0 48 9e 8f c0 af 83 d5 c0 68 0a d3 c0
       -4.4285727 -4.4880714 -6.6723247 -6.5950203
0002e0 76 cb c9 c0 c7 cd d2 c0 1a 82 90 c0 5d 4e 94 c0
       -6.3060865 -6.5876193 -4.5158815 -4.634566
0002f0 bf 18 bb 40 4d 9e 96 c0 e0 b0 74 3e 47 f9 cf c0
       5.846771 -4.706824 0.23895597 -6.4991794
000300 6e fa d4 c0 ea 0d d5 c0 11 6c 8f c0 cf 0e 93 c0
       -6.65557 -6.6579485 -4.4819417 -4.5955577
000310 fa 4c 88 c0 24 56 8c c0 24 1f cb c0 57 68 d3 c0
       -4.2593966 -4.385515 -6.3475513 -6.606487
000320 fa 63 ce c0 4f 1b cd c0 20 6d 16 3d ce a8 84 c0
       -6.449704 -6.4095836 0.036725163 -4.145606
000330 ec 84 d4 c0 51 19 d8 c0 0c 44 89 c0 fd 83 91 c0
       -6.641226 -6.7530904 -4.2895565 -4.547362
000340 60 28 81 c0 ee fe 83 c0 8f 9f d9 c0 6b 54 d6 c0
       -4.0361786 -4.1248693 -6.8007274 -6.697805
000350 26 f7 d0 c0 d0 7b c8 c0 80 43 7e bb fc 0d 76 c0
       -6.5301695 -6.265114 -0.0038797557 -3.8446035
000360 fb ab 98 c1 91 51 92 c1 1d ad 96 c1 af 5a b6 c1
       -19.083975 -18.289827 -18.834528 -22.79428
000370 63 5d b5 c1 2b 30 9a c1 b2 5c b1 c1 05 00 92 c1
       -22.670599 -19.27352 -22.170261 -18.25001
000380 8e df b4 c1 78 64 b9 c1 24 d8 04 c1 23 f0 a4 c1
       -22.609158 -23.174057 -8.302769 -20.617254
000390 1a 67 cf c0 ae c8 d0 c0 f4 1a 90 c0 2e 22 95 c0
       -6.4813356 -6.524497 -4.50329 -4.6604223
0003a0 8c 09 8c c0 79 bf 8e c0 ec da ca c0 10 bb d0 c0
       -4.3761654 -4.460873 -6.339224 -6.522835
0003b0 7a 78 cb c0 e8 e6 c9 c0 4e 64 37 3e da 96 95 c0
       -6.3584566 -6.309437 0.17909357 -4.6746645
0003c0 79 ef 88 c0 be 33 96 c0 06 27 ca c0 14 d5 d3 c0
       -4.2792325 -4.693816 -6.3172636 -6.6197605
0003d0 91 c3 d3 c0 6c 02 d7 c0 a1 8c 8e c0 15 30 89 c0
       -6.617623 -6.7190456 -4.4546666 -4.2871194
0003e0 a5 37 be 40 5e b2 91 c0 50 a0 75 3e 8d 42 cb c0
       5.9442925 -4.5530233 0.23986936 -6.351874
0003f0 b3 13 8c c0 5d ff 90 c0 ed a7 8e c0 fb 35 8e c0
       -4.3774047 -4.5311723 -4.4579988 -4.4440894

0.bias f4 [24]
000000 5e 4f 8d c0 99 93 8f c0 be 7b 89 c0 27 ae e4 c0
       -4.4159384 -4.4867673 -4.2963552 -7.146259
000010 ce c7 d5 c0 38 97 84 c0 29 99 cb c0 f6 2c cf c0
       -6.68064 -4.1434593 -6.3624463 -6.4742384
000020 0c 16 84 c0 66 ab 91 c0 1b d2 95 c0 6f 22 d6 c0
       -4.1276913 -4.5521727 -4.6818976 -6.6917033
000030 35 47 9f c0 c1 c3 a5 c0 23 33 d7 c0 28 61 c8 c0
       -4.9774423 -5.1801457 -6.7249923 -6.26186
000040 1c 88 88 c0 18 01 93 c0 2e ec 96 c1 d0 26 87 c0
       -4.266615 -4.5938835 -18.865322 -4.223488
000050 be 9d cc c0 1f c6 8b c0 35 ac 96 c0 90 e7 bb c0
       -6.3942556 -4.3679347 -4.7085214 -5.872017

2.weight f4 [24, 24]
000000 5a b4 92 c0 27 f0 90 c0 16 d3 96 c0 ca ad cf c0
       -4.5845156 -4.5293155 -4.7132673 -6.4899645
000010 f3 33 8e c0 f8 22 8c c0 c1 4c 92 c0 84 d7 94 c0
       -4.4438415 -4.3792686 -4.5718694 -4.651308
000020 16 af 97 bd b0 85 96 c0 58 42 8d c0 cc 42 91 c0
       -0.07406442 -4.7038193 -4.4143486 -4.539404
000030 4b 5d 97 c0 ce c7 8f c0 a0 90 8b c0 28 f3 97 c0
       -4.7301383 -4.49314 -4.3614044 -4.748432
000040 88 5e 8d c0 cb 5e d7 c0 a6 23 8d bd f9 78 8b c0
       -4.4177895 -6.7303214 -0.06891565 -4.358517
000050 32 40 97 c0 1b 93 93 c0 48 2f 8b c0 79 d7 c2 40
       -4.7265863 -4.611707 -4.3495216 6.088803
000060 a3 f3 bf c0 4c 4b c4 c0 43 6e be c0 b3 c8 c2 c0
       -5.998491 -6.1341915 -5.9509597 -6.0869994
000070 aa 96 bb c0 96 fc c1 c0 c4 a8 bd c0 f8 ee be c0
       -5.8621416 -6.0620832 -5.9268513 -5.966671
000080 7c 1b 88 bd c1 ad be c0 ce 8a c2 c0 81 ec b9 c0
       -0.06645867 -5.95871 -6.079444 -5.81012
000090 04 81 c4 c0 22 07 ba c0 0f d1 be c0 6b 8b c5 c0
       -6.140749 -5.8133707 -5.96302 -6.173269
0000a0 80 4c be c0 2a 16 c6 c0 90 cb 23 bd 67 2e bc c0
       -5.9468384 -6.1902056 -0.039989054 -5.8806643
0000b0 c8 41 bc c0 d5 30 c4 c0 45 88 c0 c0 38 be bb c0
       -5.88303 -6.130961 -6.0166345 -5.86697
0000c0 38 f7 bb c0 c6 c8 bb c0 1f 90 bc c0 65 91 3b be
       -5.873928 -5.8682585 -5.892593 -0.18317182
0000d0 96 ad 47 be 09 5f b2 c0 19 39 c1 c0 58 49 f3 3d
       -0.19499812 -5.574101 -6.03822 0.118792236
0000e0 96 e5 00 be be ae be c0 f8 10 7f bd ee fc f8 bd
       -0.1258758 -5.958831 -0.062272042 -0.121576175
0000f0 84 ca 01 3d dc 1d b7 c0 22 dc c0 c0 f0 9d 3b 3e
       0.031687275 -5.722395 -6.0268717 0.18321967
000100 2c 33 b3 c0 66 7d 2b be a6 cd 10 be 1e e2 b8 c0
       -5.5999966 -0.16747054 -0.14140949 -5.777602
000110 d6 35 b7 c0 43 90 bb c0 6d bf be c0 20 4a 97 bb
       -5.725322 -5.86136 -5.9608674 -0.0046169907
000120 59 0b bc c0 b2 86 be c0 28 39 c4 c0 4d d3 dd c0
       -5.876385 -5.9539423 -6.131977 -6.9320436
000130 80 f5 bc c0 db 00 df c0 53 3f b9 c0 a6 b0 b9 c0
       -5.9049683 -6.9688544 -5.78898 -5.8028135
000140 ec 60 4b bd 1e 39 c2 c0 5a 0f bc c0 9d b4 c0 c0
       -0.04965298 -6.0694723 -5.876874 -6.0220475
000150 c7 3a 6b c0 8d 54 6f c0 2f 89 c5 c0 21 c1 bf c0
       -3.6754625 -3.7395356 -6.172996 -5.9923253
000160 8f c8 ba c0 2b 70 be c0 00 55 65 bf a8 9a c0 c0
       -5.8369823 -5.9511924 -0.89582825 -6.018879
000170 da cd c0 c0 be 8f df c0 0d 56 bb c0 dc 9e c4 c0
       -6.0251284 -6.9862967 -5.8542542 -6.144392
000180 b4 ee e5 40 eb 79 ec 40 4e fd d6 40 7a ea 88 c0
       7.1853886 7.3898826 6.718421 -4.2786226
000190 d9 08 ac 40 21 8b b8 40 b8 d4 b0 40 f6 4b b6 40
       5.37608 5.7669835 5.5259666 5.6967726
0001a0 b0 07 2b 3d b0 8a f4 40 88 39 a1 40 a9 54 b3 40
       0.04175538 7.6419296 5.038273 5.6040845
0001b0 38 5d 5a 40 d3 e3 81 40 c1 08 b3 40 03 e8 b2 40
       3.4119396 4.0590606 5.5948186 5.5908217
0001c0 dc 24 ec 40 10 98 e7 40 72 b3 28 c1 c8 79 e8 40
       7.3794994 7.2373123 -10.54381 7.264866
0001d0 7b 6f ab 40 dc 99 a6 40 52 b8 f1 40 34 ec 44 be
       5.3573585 5.2062817 7.55375 -0.1923073
0001e0 02 1b b9 c0 cb ce c1 c0 22 1d bc c0 6b e8 45 c0
       -5.784547 -6.0564933 -5.8785563 -3.0923107
0001f0 24 e7 46 be da 4f 17 be e8 29 11 be 9c 68 dc 3d
       -0.1942411 -0.14776555 -0.14176142 0.1076214
000200 b2 b6 ef c0 88 ce b3 bd e8 5e b8 c0 16 69 44 3e
       -7.4910517 -0.08779627 -5.761585 0.19180712
000210 f4 da 03 be 69 3a bc c0 c3 94 c1 c0 a0 dc 27 bc
       -0.12876493 -5.88213 -6.0494094 -0.010245472
000220 3e 09 ba c0 ab e3 bb c0 94 a8 8e c1 09 b4 c1 c0
       -5.813628 -5.8715415 -17.832314 -6.053227
000230 b1 19 b7 bd cb 78 c5 c0 9d f0 c3 c0 04 23 cf bd
       -0.08940447 -6.170995 -6.1231217 -0.101141006
000240 28 21 53 3d 94 57 63 bd 48 c8 19 be 14 35 95 c0
       0.051545292 -0.055503443 -0.15017807 -4.6627293
000250 50 b6 2d bd bc 2f a5 40 de 3e 3a be f8 d9 b8 3d
       -0.042410195 5.162077 -0.18188044 0.09025949
000260 c5 b4 31 c1 b0 38 a8 bc 4c 20 ad 40 ba fc 16 3e
       -11.106633 -0.020534843 5.4101925 0.14744845
000270 f8 e1 a8 40 9e 58 a9 40 40 85 c1 bd 7c 7a 88 3d
       5.277584 5.2920675 -0.094492435 0.06663987
000280 18 b0 13 3e d1 6c 07 be 00 00 39 3a 88 31 bd 3d
       0.14422643 -0.13225104 0.000705719 0.09237963
000290 d0 7d ed 3d 36 23 af 40 d8 0d 26 bd df d4 dd bd
       0.115962625 5.473048 -0.040540546 -0.108316176
0002a0 ad 85 8c c0 3c 4f 8a c0 2b ae 8d c0 ba 63 d6 c0
       -4.391318 -4.322172 -4.4275107 -6.6996737
0002b0 24 d1 96 c0 ce 09 91 c0 10 d8 94 c0 f7 cf 94 c0
       -4.71303 -4.532447 -4.651375 -4.6503863
0002c0 87 2b c1 bd 69 55 8f c0 cc 83 d0 c0 e2 05 95 c0
       -0.0943213 -4.479176 -6.5160885 -4.656968
0002d0 ec 22 d0 c0 bc ad d6 c0 94 9f 91 c0 40 4a 91 c0
       -6.504263 -6.708708 -4.5507298 -4.5403137
0002e0 08 c7 8c c0 ba d3 8e c0 46 80 0f be 44 e3 90 c0
       -4.399296 -4.4633455 -0.14013776 -4.5277424
0002f0 2b 03 94 c0 fa be 8f c0 21 17 8d c0 22 bd bc c0
       -4.6253867 -4.4920626 -4.4090734 -5.8980875
000300 78 a0 c4 c0 23 f3 bc c0 b9 57 c4 c0 8d 11 c4 c0
       -6.1445885 -5.90468 -6.1357083 -6.1271424
000310 df 60 bb c0 91 72 be c0 99 a0 ba c0 64 00 bd 40
       -5.855575 -5.951485 -5.832104 5.9062977
000320 f6 73 a1 bd a3 fe c0 c0 ea 48 bc 40 49 fb c4 40
       -0.07883446 -6.0310836 5.8839006 6.1556745
000330 58 6d c5 c0 f7 27 c1 c0 c6 fc c4 c0 8b 53 ba c0
       -6.1695976 -6.0361285 -6.155856 -5.822698
000340 af 09 bb c0 f2 26 bc c0 2e ee 64 c1 fe 5e bc c0
       -5.844932 -5.879754 -14.308149 -5.8865957
000350 68 c5 c5 c0 38 5f ba c0 7c 60 c2 c0 41 0a bb c0
       -6.1803474 -5.8241234 -6.074278 -5.8450017
000360 6f da c5 c0 fa b1 c3 c0 10 c1 c2 c0 21 11 ba c0
       -6.1829143 -6.1154757 -6.086067 -5.814591
000370 1d 38 ba c0 0a 1b c4 c0 bd 9e c1 c0 34 48 03 3e
       -5.81935 -6.1283007 -6.050627 0.12820512
000380 39 3b 48 be df 9a bc c0 26 49 2c be 9a 5d 33 be
       -0.19553842 -5.893905 -0.16824779 -0.17516175
000390 ff 17 bd c0 4c 3d ba 40 5d 6a bf c0 05 6b ba c0
       -5.909179 5.8199825 -5.981734 -5.825564
0003a0 08 0d c4 c0 34 61 b1 3d 4d 62 76 c1 c4 bb c2 c0
       -6.1265907 0.08661118 -15.398999 -6.0854206
0003b0 80 a3 ba c0 14 0d c5 c0 f6 20 b9 c0 7c 89 c0 c0
       -5.8324585 -6.1578465 -5.7852736 -6.0167828
0003c0 3d 29 6c c0 78 7e 7d c0 23 3c 57 c0 a9 61 8e 3f
       -3.690017 -3.960844 -3.3630455 1.1123554
0003d0 7f d4 95 c0 ac 6b 87 c0 36 35 8e c0 45 8a 8d c0
       -4.6821895 -4.2318935 -4.4439955 -4.4231286
0003e0 3b 44 1b c0 98 6b 6a c0 ab de cd c0 94 a0 90 c0
       -2.4260395 -3.662817 -6.433431 -4.519602
0003f0 b2 42 cf c0 2a 47 ca c0 95 2d 8c c0 85 42 91 c0
       -6.4768915 -6.321187 -4.380564 -4.53937

2.bias f4 [24]
000000 d2 8d 97 c0 82 6a bb c0 31 61 c0 c0 57 a7 83 c1
       -4.736062 -5.8567514 -6.011864 -16.456709
000010 57 61 9b c1 d6 ff 83 c0 44 4b 6b c1 15 a7 8b c0
       -19.42253 -4.12498 -14.705875 -4.3641458
000020 25 1f 9d c1 55 57 ab c1 c7 48 3c c1 07 a4 9e c1
       -19.640207 -21.417643 -11.767768 -19.830091
000030 1c 33 e8 c0 a8 92 08 c1 95 2a c3 c0 54 0b 8f c0
       -7.256239 -8.535805 -6.098948 -4.470133
000040 45 90 ae c0 b0 25 9e c1 26 7f 3d c0 02 bc 9c c0
       -5.455111 -19.768402 -2.9608855 -4.89795
000050 50 2b a1 c0 67 81 1b c0 fc 96 8f c0 31 05 4a c1
       -5.036537 -2.429773 -4.4871807 -12.626267

4.weight f4 [4, 24]
000000 ee 9c 97 c0 bf d1 bc 40 48 5c 8d c0 c2 68 4f c1
       -4.7379065 5.900604 -4.417515 -12.963076
000010 cb 5b b8 c1 58 c5 1b c0 3a e0 b2 40 d4 ca 96 c0
       -23.04482 -2.43392 5.5898714 -4.7122593
000020 63 2b 1e c1 12 ec af c1 de 11 6b c0 59 f0 93 c0
       -9.885592 -21.990269 -3.6729655 -4.6230893
000030 f9 71 a5 40 5c cc 90 c0 79 23 bf 40 0c 4c 8f c0
       5.1701627 -4.524946 5.97308 -4.478033
000040 26 f4 a7 40 07 23 85 c0 d4 5b 5b 41 fa 20 8c c0
       5.2485533 -4.160526 13.709919 -4.3790255
000050 74 53 d2 c0 91 54 82 40 f2 ab 95 c0 67 db 6d c0
       -6.572687 4.072823 -4.6772394 -3.7165163
000060 28 3d 8b c0 96 ca bb 40 cb 5d 4a be 26 99 32 41
       -4.3512154 5.8684797 -0.19762342 11.16239
000070 ef 1a 15 41 e5 45 00 c1 24 c1 8c c0 50 ac d6 c0
       9.319076 -8.017064 -4.3985767 -6.7085342
000080 b3 c4 21 c1 ca 36 7b c1 d0 c9 3f 3e b8 01 97 c0
       -10.110522 -15.700876 0.18729329 -4.71896
000090 72 1d 2d c0 c7 e1 d5 c0 7a f0 b9 40 60 ad d3 c0
       -2.7049222 -6.6838107 5.810605 -6.614914
0000a0 20 dd aa 40 93 c0 78 c0 24 e6 b3 bf 8a 2e 91 c0
       5.339493 -3.8867538 -1.4054608 -4.536931
0000b0 f0 da 8d c0 83 ba 2b c0 af 2d 8f c0 ba c2 69 3f
       -4.432976 -2.6832588 -4.4743266 0.91312754
0000c0 01 6a 91 40 11 19 c1 c0 e3 3b 0d be 2c 7e 07 41
       4.54419 -6.03431 -0.13792376 8.468304
0000d0 e9 d0 99 41 43 65 c5 3f a4 b7 8d 3e 57 62 91 40
       19.227007 1.5421528 0.2767917 4.5432544
0000e0 b3 14 20 c1 ce c9 21 c1 9c b8 8c 40 e0 20 83 40
       -10.0050535 -10.111769 4.3975353 4.097763
0000f0 f9 29 4c 40 42 d2 8d 40 56 bd bd c0 45 e3 90 40
       3.1900618 4.431916 -5.9293623 4.527743
000100 08 1d ac 40 84 55 88 40 25 37 37 c0 60 05 97 40
       5.378544 4.260439 -2.8627408 4.719406
000110 c7 7a 8d 40 8a 1c 45 c0 d5 85 96 40 94 3a 90 40
       4.4212375 -3.079867 4.703837 4.5071507
000120 59 4a c9 c0 d7 44 c1 40 11 67 ae bd 9c 9e 43 c1
       -6.2903256 6.0396533 -0.08515752 -12.226223
000130 09 b5 2f c1 57 34 f2 3f f3 aa ba 40 4e 01 cd c0
       -10.981698 1.8922223 5.833368 -6.4064093
000140 1d 6b 57 41 f2 b0 97 41 8f 3e 32 c0 33 cb a4 c0
       13.463651 18.9614 -2.7850683 -5.1498046
000150 a2 3c 61 40 77 02 cc c0 c4 cd b8 c0 48 c3 8c c0
       3.5193257 -6.375301 -5.775118 -4.398838
000160 40 7e a4 40 37 97 4f be c4 0f 1f 40 14 1b 92 c0
       5.1404114 -0.20272528 2.4853373 -4.5658054
000170 30 ff c7 c0 3a e4 b1 be 50 38 8b c0 9a 9c 71 c0
       -6.249901 -0.34744436 -4.350624 -3.7751832

4.bias f4 [4]
000000 99 38 a6 c2 2f 1a 30 c2 f2 c1 ed c2 72 cb 84 c2
       -83.11054 -44.02557 -118.8788 -66.397354
