logs/target_params.pt (torch, 68759 bytes, 6 tensors)

0.weight f4 [150, 7]
-0.88855064 0.47744685 -0.39730734 0.18874587 -0.6143334 0.1044067 -0.14322509 -0.47485048
-0.5569599 -1.3100001 0.5161586 0.30306908 -0.15277764 0.2936731 -1.2588203 0.7169918
-0.23260587 0.18563478 -0.6022944 0.51073396 -0.23853779 0.24829361 0.1270961 0.42359874
0.023836462 0.365224 -0.015533369 -0.0006426312 -0.04845589 0.4434741 -0.18796586 -0.86862504
-0.018745234 -0.24763423 -0.40384096 -0.9067073 -0.71500516 1.0090464 0.021246374 0.030069135
0.38768318 0.10299948 0.43492258 0.36338618 -0.061504617 0.15395081 0.36282158 0.37963587
-0.46368784 0.616582 0.38635197 -0.4990579 -0.19669172 -0.4576692 -0.9687839 0.47439134
-0.33830905 1.0517836 -0.25123137 0.013189174 -0.54883456 -0.29436645 0.40171057 -0.14714529
0.2069406 0.7381996 0.085625224 0.06771964 0.28330675 -0.34508693 0.7786902 0.5713364
0.9296398 0.35716468 -0.28669828 -0.1715566 -0.39071244 -0.008389617 -0.01565735 -0.15219028
-0.52468073 -0.02396417 0.65265375 -0.17998843 0.9682644 -0.6299401 0.054686885 -0.0012108862
-0.3461559 -0.45777526 0.48304036 0.2871622 0.124569446 0.36044094 0.21181475 -0.6488743
0.2713591 -0.34838784 -0.34214795 0.043033205 -0.3009013 -0.08735872 -0.0030065824 -0.4133794
0.024761012 0.50729173 0.19370334 0.6768107 0.14640594 -0.71834993 0.08562256 -0.15395181
0.30931506 0.04870799 0.1494532 -0.7117119 0.027146308 0.30929396 0.27935284 -0.8814019
-1.3104606 0.31333214 0.44923016 0.114971615 0.48410723 0.32342038 0.07189767 0.63726467
-0.3417249 -0.23903126 0.10883601 0.24733303 0.17934214 0.40368032 0.5408754 0.2074151
0.28157678 0.033368424 0.6038507 -0.21695696 0.6376846 -0.08864804 -0.1642268 0.03922057
-0.12999853 -0.34129506 -0.07463396 0.2091987 0.062551685 -0.76202613 -0.85621065 -0.0031965242
0.5261596 0.27876282 0.18208073 0.25837097 0.70655936 0.6812039 -0.28173304 -0.3187537
-0.3411305 0.51141167 0.68070954 0.90042984 -0.61654836 -0.7153615 -0.4053091 -0.051152382
-0.1816345 -0.5754816 -0.27122477 -0.74947304 0.99179906 0.13152018 -0.37757653 -0.5795686
-0.77281976 -0.033953846 0.56274724 0.09417683 -0.17971225 0.43706566 0.46050718 -0.9182709
1.0274636 -0.38897666 0.8313864 0.2495758 -0.2573477 -0.6657304 0.41632745 0.21705358
-0.1307511 -0.34199867 -0.30568856 -0.44444683 -0.15028064 -0.8744168 0.74898833 0.56703216
-0.39191243 -0.6535667 -0.30980277 -0.92008024 -0.19915126 0.65822023 0.47770828 -0.8259099
-0.073954776 0.08023814 0.9350949 0.06536123 -0.029143412 -0.58527017 0.64015037 -0.48916903
-1.2705369 0.6336751 -1.380033 0.15243554 -0.44479597 -0.17324513 0.0842287 0.35904238
-0.8560274 0.44990322 1.0179782 0.4766073 -0.02696598 0.17949149 -0.29221576 -0.4440624
-0.28139627 -1.8692113 0.5551405 0.057900585 0.036645792 0.4983648 -0.059444793 -0.34638405
-0.11479175 -0.26385027 0.054254662 -0.32100946 0.011509091 -0.42899072 -0.1701309 0.099359185
-0.3196636 -0.20766403 -0.1712051 -0.11111912 0.6215121 0.44277984 0.06834318 -0.39283594
00000000: 0e78 63bf ea73 f43e de6b cbbe 9946 413e
00000010: f444 1dbf 2ed3 d53d 99a9 12be 9a1f f3be
00000020: ed94 0ebf 15ae a7bf f822 043f df2b 9b3e
00000030: be71 1cbe 525c 963e 0621 a1bf c68c 373f
00000040: 3c30 6ebe 0b17 3e3e f72f 1abf 76bf 023f
00000050: 4043 74be ae40 7e3e 7b25 023e efe1 d83e
00000060: af44 c33c a4fe ba3e ac7f 7ebc 4076 28ba
00000070: af79 46bd 0a0f e33e 1f7a 40be 365e 5ebf
00000080: 9b8f 99bc d493 7dbe 3ec4 cebe f81d 68bf
00000090: 940a 37bf 6f28 813f e00c ae3c 8c53 f63c
000000a0: 697e c63e 64f1 d23d 2cae de3e c10d ba3e
000000b0: 44ec 7bbd 48a5 1d3e c0c3 b93e a25f c23e
000000c0: 7e68 edbe 51d8 1d3f edcf c53e 8484 ffbe
000000d0: 8e69 49be 9e53 eabe 3902 78bf 6ce3 f23e
000000e0: d836 adbe d8a0 863f 66a1 80be 6817 583c
000000f0: 6c80 0cbf 33b7 96be 02ad cd3e 41ad 16be
00000100: 3de8 533e a6fa 3c3f 475c af3d 98b0 8a3d
00000110: 950d 913e 3caf b0be 3e58 473f 1a43 123f
00000120: e0fc 6d3f 4ade b63e 1eca 92be 89ac 2fbe
00000130: 760b c8be 9b74 09bc d843 80bc c5d7 1bbe
00000140: 7a51 06bf 8250 c4bc 5114 273f e34e 38be
00000150: 2de0 773f c143 21bf 5bff 5f3d 99b6 9eba
00000160: 593b b1be 8561 eabe 1151 f73e ed06 933e
00000170: 441e ff3d b78b b83e f7e5 583e a01c 26bf
00000180: 94ef 8a3e e45f b2be 042e afbe 9643 303d
00000190: bc0f 9abe 21e9 b2bd 150a 45bb 77a6 d3be
000001a0: 9bd7 ca3c dfdd 013f 2b5a 463e 7743 2d3f
000001b0: 70eb 153e c8e5 37bf e15a af3d 8ba5 1dbe
000001c0: 8b5e 9e3e 0882 473d 420a 193e c032 36bf
000001d0: ef61 de3c c75b 9e3e 5607 8f3e 8ea3 61bf
000001e0: 2cbd a7bf 126d a03e 7f01 e63e 3d76 eb3d
000001f0: e7dc f73e 5b97 a53e 163f 933d c723 233f
00000200: 91f6 aebe 9cc4 74be 6ae5 de3d df44 7d3e
00000210: 77a5 373e 30af ce3e cf76 0a3f a064 543e
00000220: d52a 903e 54ad 083d f695 1a3f f729 5ebe
00000230: 4c3f 233f 1b8d b5bd 122b 28be c0a5 203d
00000240: 561e 05be 3abe aebe b1d9 98bd 2f38 563e
00000250: 191b 803d 2514 43bf 9f30 5bbf c77c 51bb
00000260: 65b2 063f 00ba 8e3e 5f73 3a3e 3349 843e
00000270: 13e1 343f 6163 2e3f 503f 90be af33 a3be
00000280: a8a8 aebe e0eb 023f fb42 2e3f 9282 663f
00000290: 1dd6 1dbf ee21 37bf ad84 cfbe 2985 51bd
000002a0: 65fe 39be c352 13bf f9dd 8abe 77dd 3fbf
000002b0: 8be6 7d3f 3aad 063e b651 c1be 9c5e 14bf
000002c0: 84d7 45bf 3013 0bbd 3410 103f c8df c03d
000002d0: 7d06 38be 12c7 df3e 99c7 eb3e cd13 6bbf
000002e0: ed83 833f f327 c7be bdd5 543f cc90 7f3e
000002f0: 14c3 83be 4f6d 2abf df28 d53e 4b43 5e3e
00000300: 9ee3 05be 731a afbe 3683 9cbe 898e e3be
00000310: 2be3 19be c8d9 5fbf b3bd 3f3f 0529 113f
00000320: bfa8 c8be 2650 27bf 789e 9ebe 618a 6bbf
00000330: 4fee 4bbe 1f81 283f 2e96 f43e d56e 53bf
00000340: 9a75 97bd e553 a43d 6162 6f3f 1cdc 853d
00000350: 2abe eebc 44d4 15bf e5e0 233f 5d74 fabe
00000360: f4a0 a2bf 8838 223f eca4 b0bf 1018 1c3e
00000370: 4cbc e3be 2c67 31be 1980 ac3d 67d4 b73e
00000380: 9d24 5bbf b759 e63e 1c4d 823f df05 f43e
00000390: c2e7 dcbc 9ecc 373e 4e9d 95be 265c e3be
000003a0: 2c13 90be 5142 efbf b01d 0e3f 2a29 6d3d
000003b0: e619 163d ac29 ff3e 627c 73bd 4059 b1be
000003c0: f017 ebbd 6217 87be 233a 5e3d 5a5b a4be
000003d0: a090 3c3c aca4 dbbe cb36 2ebe d47c cb3d
000003e0: f3aa a3be e1a5 54be 6450 2fbe 6c92 e3bd
000003f0: 6b1b 1f3f 0ab4 e23e 82f7 8b3d cb21 c9be

0.bias f4 [150]
-0.14570798 -0.50822437 -0.08889947 -0.46527085 -0.35983896 0.19757831 0.20105748 0.12065228
-0.06082531 0.06936687 0.33789945 0.112195835 -0.18157922 0.13824241 -0.32507542 -0.5292545
-0.10877076 0.42558098 -0.11547103 -0.35854954 0.4322471 -0.20983177 0.039517235 -0.02462634
0.969626 -0.2879485 0.23193753 0.5328321 0.003940544 0.18538429 0.31790158 0.3646242
-0.2520233 0.024119888 -0.14303245 0.078295976 0.10852468 -0.16571991 0.37456444 0.10302215
-0.4021835 -0.09676439 -0.6461054 0.37150034 -0.07923864 -0.2576485 -0.41671973 0.40100294
0.50976497 -0.052381434 -0.11982096 0.5904621 0.4598636 -0.024126997 -0.3903396 0.04318234
0.2711791 -0.108161956 0.14542365 -0.42064068 0.14298327 0.29766414 -0.3213999 0.8868427
-0.099988066 -0.36279595 -0.38162968 0.2702804 0.30023104 0.22595151 0.2815994 -0.14795081
-0.011053216 -0.13714074 0.17061898 -0.069532335 0.23245284 0.18249515 0.10929635 0.12730679
-0.13749927 0.43391064 0.04264108 -0.0062212297 -0.28646967 -0.39514202 -0.01564402 0.68921924
0.23641045 0.10756462 -0.17258576 -0.24100591 0.3175264 -0.10025175 -0.0006213784 0.50730324
0.08531876 -0.16598515 -0.4561097 0.1246196 0.008073379 0.6332245 -0.0056022983 -0.06399517
0.6342575 -0.07284217 -0.22562556 0.0093321325 -0.34745127 -0.1828559 0.49976653 0.25028715
-0.02573846 -0.46527082 -0.16617829 0.41295725 -0.18503968 -0.53765565 0.50197667 -0.5055418
-0.46994072 0.6113724 -0.29782823 -0.31001383 0.25727925 -0.23120877 0.0022694708 -0.09794264
-0.34957802 -0.0050428538 -0.4850848 -0.10541614 0.23175965 -0.11659183 -0.08861366 0.14521806
-0.17304015 0.11003881 -0.29286963 0.20447277 0.48364502 -0.3716501 0.24970713 0.3221587
-0.06907666 0.26633012 0.616242 0.06441015 -0.10673847 0.351391
00000000: 7934 15be fe1a 02bf ed10 b6bd fb37 eebe
00000010: d03c b8be f851 4a3e 03e2 4d3e 8b18 f73d
00000020: f623 79bd 3810 8e3d 2801 ad3e eec6 e53d
00000030: e7ef 39be 6b8f 0d3e 4970 a6be 397d 07bf
00000040: 34c3 debd c0e5 d93e 137c ecbd ce93 b7be
00000050: 7e4f dd3e 24de 56be d3dc 213d 2ebd c9bc
00000060: 6939 783f fc6d 93be 0881 6d3e af67 083f
00000070: ae1f 813b 61d5 3d3e ffc3 a23e 06b0 ba3e
00000080: 3309 81be 1297 c53c 1977 12be a459 a03d
00000090: 3042 de3d 7bb2 29be e9c6 bf3e 47fd d23d
000000a0: ffea cdbe 692c c6bd 2a67 25bf 4b35 be3e
000000b0: de47 a2bd 81ea 83be 4a5c d5be 4250 cd3e
000000c0: f57f 023f ea8d 56bd b164 f5bd 8628 173f
000000d0: 3e73 eb3e fba5 c5bc 98da c7be f7df 303d
000000e0: fdd7 8a3e 0484 ddbd f0e9 143e 375e d7be
000000f0: 356a 123e 6f67 983e 878e a4be 2008 633f
00000100: 8bc6 ccbd 64c0 b9be f764 c3be 3162 8a3e
00000110: e2b7 993e d55f 673e cc2d 903e 6b80 17be
00000120: 8c18 35bc 9f6e 0cbe beb6 2e3e f866 8ebd
00000130: 1e08 6e3e 02e0 3a3e c4d6 df3d b65c 023e
00000140: 9ccc 0cbe 8929 de3e 6aa8 2e3d 75db cbbb
00000150: 27ac 92be 0e50 cabe e327 80bc ac70 303f
00000160: 9515 723e d74a dc3d 52ba 30be 41ca 76be
00000170: d292 a23e ca50 cdbd 00e4 22ba a0de 013f
00000180: 9abb ae3d 03f8 29be 3687 e9be 9038 ff3d
00000190: 3546 043c 001b 223f 7c93 b7bb e60f 83bd
000001a0: b35e 223f 472e 95bd 630a 67be cde5 183c
000001b0: 22e5 b1be 943e 3bbe 66e1 ff3e a325 803e
000001c0: 76d9 d2bc fa37 eebe a42a 2abe 226f d33e
000001d0: 0b7b 3dbe cda3 09bf 8b81 003f 306b 01bf
000001e0: 129c f0be e782 1c3f f17c 98be 22ba 9ebe
000001f0: 1bba 833e fec1 6cbe 67bb 143b 2796 c8bd
00000200: e4fb b2be 863e a5bb 095d f8be 6be4 d7bd
00000210: 6752 6d3e b3c7 eebd 147b b5bd 0bb4 143e
00000220: 7031 31be 075c e13d 02f3 95be 4f61 513e
00000230: 52a0 f73e ec48 bebe 3ab3 7f3e fcf1 a43e
00000240: 1078 8dbd 6c5c 883e 09c2 1d3f 78e9 833d
00000250: b399 dabd 85e9 b33e

2.weight f4 [100, 150]
0.023810253 -0.45005518 -0.34503993 0.05453877 0.53876424 -0.3783123 -0.095278844 0.50831
-0.8100456 -0.15584762 0.0011785646 0.5204287 -0.0038147946 -0.11619022 -0.007899538 -0.21638006
0.78934133 -0.13451034 0.120031394 -0.09847545 0.34397653 1.5832535 -0.114724755 -0.23156461
-0.30365726 -0.3327482 -0.14087516 -0.09051648 -0.1815809 0.05959216 0.45981866 -0.16139065
-0.0997288 -0.5049559 0.10701917 -0.24158163 0.36006626 -0.9347023 0.44278827 -0.027356507
-0.14392175 0.34161472 0.66360426 0.13322437 -0.12571576 0.06373377 -0.15286769 0.14409947
-0.74349236 0.10276887 -0.036305428 -0.942832 -0.34287575 -0.4091453 0.09368925 -0.23984644
-0.9735094 -0.02905827 -0.13013954 -0.20260155 0.09109727 -0.030563954 -0.052684695 -0.9334915
0.24092782 -0.012213116 -0.04575904 -0.28716037 0.3645647 0.3700802 -0.20376423 -0.081632085
0.43037954 -0.27021497 -0.16861516 0.53454536 0.19359265 -0.102290705 -0.13524882 -0.055254154
-0.06855219 -0.4903812 -0.5429381 -0.51326734 -0.0075360844 -0.23526861 -0.60368115 0.6931637
0.44964865 -0.20292342 -0.87181187 -0.1935363 0.2193019 0.25464046 0.060047224 -0.076430105
-0.16889185 -1.5518531 -0.22152635 -0.04394413 0.040157363 -0.60874075 -0.5717903 0.20031255
0.5528423 -0.09220893 0.32924393 -0.61509037 -0.8322658 0.05639661 0.3160676 -0.016174562
0.5719317 0.015642658 -0.2719445 0.22475003 0.39372906 0.29937857 -0.4893639 -0.07255466
-0.19001004 0.112813935 -0.13139269 0.008592913 0.66154224 -0.19319302 0.23375535 -0.21606018
0.041553684 -0.21865533 -0.28498548 0.24462643 -0.38254854 0.49811238 0.046832025 -1.1948588
-0.09100318 -0.11359216 -0.1509225 0.38119134 0.029873367 -0.0766167 -0.14940555 -0.5897597
-0.16441648 0.12826167 -0.016671497 0.07886929 0.32182512 -0.5565797 -0.4818019 -0.97909063
-0.8856205 0.12524053 0.113204375 -0.62856066 0.26535308 -1.8110198 -1.7803608 0.04126627
-0.6905047 -0.14543751 -2.7190716 0.4216407 -0.019304153 0.38052088 0.38712984 -2.9471607
0.280486 0.44061044 -0.25359902 0.1895961 -0.1262007 -1.6994377 -1.247303 -0.45639732
-1.3385121 -0.60564655 -0.5130968 -0.64384127 -2.3439665 -2.4181175 -2.4191642 0.33282745
0.06875785 -0.02201834 -1.7504462 -0.6260318 -0.6807593 -0.2851375 0.41157165 -0.47152817
-0.86705375 -0.37075064 0.3096204 -0.006724 0.27617046 0.8471452 -0.40058872 -0.07006175
0.053043425 -0.88054514 -0.95477206 -0.19731262 -0.7363237 -1.5986714 0.2704562 -0.06956375
-0.2616833 -2.3500497 0.12568879 -0.6218544 0.039682306 0.22239536 0.5992015 0.27469808
0.036135808 0.16075835 0.40580475 -1.4493328 -0.7117919 -0.060584895 -1.8451245 -0.47886094
0.25388816 -0.37846655 0.024338655 -0.6455021 0.59229785 -0.07452639 -0.14553633 -2.0299475
0.49682313 -0.4581512 -0.16423182 0.28966242 -0.75463134 -0.83984435 -1.731683 0.07261307
0.11177605 -1.7699661 -0.8009169 -2.7629046 0.05483125 -2.1078196 0.42005122 0.25777918
-0.08315608 -0.04554153 -0.042780623 -0.43098977 -0.75355214 -0.040726386 -1.5191904 -2.0228064
00000000: b80d c33c a26d e6be 13a9 b0be 0c64 5f3d
00000010: 74ec 093f 26b2 c1be 8e21 c3bd 9b20 023f
00000020: 265f 4fbf 8596 1fbe 117a 9a3a d13a 053f
00000030: a201 7abb 23f5 edbd 106d 01bc bc92 5dbe
00000040: 4612 4a3f 14bd 09be 05d3 f53d 7fad c9bd
00000050: b11d b03e 0da8 ca3f d0f4 eabd 461f 6dbe
00000060: f778 9bbe f95d aabe 9441 10be b460 b9bd
00000070: 58f0 39be e916 743d 5a6d eb3e 9743 25be
00000080: 9d3e ccbd ca44 01bf de2c db3d 2d61 77be
00000090: 9b5a b83e a648 6fbf 25b5 e23e c11a e0bc
000000a0: 3960 13be 20e8 ae3e f8e1 293f f86b 083e
000000b0: a2bb 00be da86 823d 5989 1cbe d08e 133e
000000c0: 8455 3ebf 7c78 d23d 00b5 14bd 705d 71bf
000000d0: 698d afbe 7e7b d1be 26e0 bf3d 4e9a 75be
000000e0: e937 79bf 9c0b eebc 4d43 05be c876 4fbe
000000f0: 3591 ba3d 4261 fabc e8cb 57bd 4df9 6ebf
00000100: c8b5 763e 8519 48bc d56d 3bbd af06 93be
00000110: 39a8 ba3e 277b bd3e 92a7 50be b92e a7bd
00000120: b55a dc3e 9e59 8abe 74a9 2cbe f7d7 083f
00000130: 273d 463e ca7d d1bd ab7e 0abe 2e52 62bd
00000140: 1765 8cbd 3f13 fbbe fefd 0abf 7d65 03bf
00000150: 42f1 f6bb 41ea 70be d98a 1abf 2d73 313f
00000160: 5938 e63e 28cb 4fbe 102f 5fbf 612e 46be
00000170: ad90 603e 3c60 823e 14f4 753d 6387 9cbd
00000180: fcf1 2cbe 1fa3 c6bf ced7 62be c3fe 33bd
00000190: 0c7c 243d 6fd6 1bbf d960 12bf bc1e 4d3e
000001a0: 1387 0d3f 09d8 bcbd a992 a83e 9076 1dbf
000001b0: 5f0f 55bf 2200 673d 9dd3 a13e 8480 84bc
000001c0: 1e6a 123f 0825 803c 4f3c 8bbe df24 663e
000001d0: db96 c93e 2648 993e e88d fabe 8a97 94bd
000001e0: fe91 42be fe0a e73d ce8b 06be 4ac9 0c3c
000001f0: d55a 293f 64d4 45be 905d 6f3e e13e 5dbe
00000200: 3234 2a3d 2fe7 5fbe 9ee9 91be 5a7f 7a3e
00000210: 67dd c3be 9608 ff3e f0d2 3f3d 22f1 98bf
00000220: e05f babd 02a3 e8bd 6e8b 1abe 832b c33e
00000230: feb8 f43c 37e9 9cbd c5fd 18be 7efa 16bf
00000240: cb5c 28be 0757 033e aa92 88bc 3986 a13d
00000250: 43c6 a43e 027c 0ebf bdae f6be afa5 7abf
00000260: 06b8 62bf 0e3f 003e b2d7 e73d 5ae9 20bf
00000270: 5cdc 873e 7fcf e7bf dde2 e3bf d206 293d
00000280: ebc4 30bf 92ed 14be 4505 2ec0 4ae1 d73e
00000290: be23 9ebc a2d3 c23e e235 c63e 489e 3cc0
000002a0: dc9b 8f3e b197 e13e bbd7 81be 7b25 423e
000002b0: c23a 01be 2d87 d9bf a0a7 9fbf e9ac e9be
000002c0: 5d54 abbf a70b 1bbf 505a 03bf c8d2 24bf
000002d0: 8c03 16c0 70c2 1ac0 96d3 1ac0 5c68 aa3e
000002e0: ead0 8c3d ce5f b4bc 9f0e e0bf 9f43 20bf
000002f0: 3e46 2ebf 8bfd 91be 85b9 d23e 246c f1be
00000300: 3cf7 5dbf 07d3 bdbe 9186 9e3e 0055 dcbb
00000310: 3766 8d3e 82de 583f f719 cdbe 897c 8fbd
00000320: 1044 593d 686b 61bf f16b 74bf 520c 4abe
00000330: b67f 3cbf 44a1 ccbf 3c79 8a3e 7077 8ebd
00000340: 5afb 85be 3767 16c0 90b4 003e da31 1fbf
00000350: ea89 223d 9cbb 633e 4565 193f 3aa5 8c3e
00000360: 2403 143d d69d 243e a4c5 cf3e bd83 b9bf
00000370: fe37 36bf de27 78bd 0a2d ecbf 432d f5be
00000380: a1fd 813e 5ec6 c1be dc61 c73c a03f 25bf
00000390: d5a0 173f 4ba1 98bd 7a07 15be a9ea 01c0
000003a0: 9a5f fe3e cb92 eabe 632c 28be a24e 943e
000003b0: 852f 41bf 0a00 57bf caa7 ddbf 29b6 943d
000003c0: d7ea e43d 408e e2bf e408 4dbf 6ed3 30c0
000003d0: bc96 603d 84e6 06c0 f410 d73e a2fb 833e
000003e0: bc4d aabd c189 3abd bc3a 2fbd b1aa dcbe
000003f0: cbe8 40bf b6d0 26bd d574 c2bf a975 01c0

2.bias f4 [100]
-0.2928301 0.10640408 -0.021263635 0.10774916 0.41424143 -0.119669095 -0.080044694 -0.13449347
0.23512043 -0.041961607 0.053656757 0.0072064674 0.2592491 0.11094104 -0.010292842 -0.25449538
0.097313575 0.033789255 -0.04148393 -0.09329765 0.0146368 0.05519049 -0.2476163 -0.10587509
-0.10248231 -0.1217081 -0.035984237 -0.053441633 -0.07178386 -0.19970915 0.025621094 0.23410034
0.045962583 -0.015540185 -0.09028802 -0.041077327 -0.06402114 -0.019101942 -0.12120627 -0.021444583
-0.11179978 -0.13123997 0.32533425 -0.53345793 0.43560043 -0.047945786 0.4170245 0.10673922
0.008135289 0.053247757 0.23450969 -0.11652852 -0.28176874 0.13307963 -0.04003333 0.15786737
0.19245738 0.29598725 -0.1310649 -0.037181612 -0.0977875 -0.11718731 -0.018792586 -0.18644279
-0.032102063 0.046227492 0.078749634 0.2601276 -0.017750328 -0.12401089 -0.11901752 -0.11083409
0.016744312 -0.106127426 -0.20341818 -0.24173492 -0.16532287 -0.101953946 0.18388304 0.09907981
0.22221886 0.048345555 -0.35302028 0.016657826 -0.041588776 -0.13850664 0.19504796 0.032510605
0.3677666 -0.10024068 -0.016461441 -0.08580451 -0.24582142 0.17283739 -0.13000797 -0.11353373
-0.13320027 0.07732781 0.015805075 -0.08796459
00000000: d4ed 95be 62ea d93d 1331 aebc 97ab dc3d
00000010: 7417 d43e 1215 f5bd 79ee a3bd a8b8 09be
00000020: 69c3 703e efdf 2bbd 30c7 5b3d 3b24 ec3b
00000030: 4cbc 843e 0e35 e33d 4fa3 28bc 384d 82be
00000040: 574c c73d 9a66 0a3d 0eeb 29bd d712 bfbd
00000050: 30cf 6f3c 6c0f 623d 218f 7dbe 0ad5 d8bd
00000060: 3fe2 d1bd 1942 f9bd 3564 13bd 9de5 5abd
00000070: 6b03 93bd 8e80 4cbe 54e3 d13c 00b8 6f3e
00000080: 4343 3c3d 439c 7ebc ede8 b8bd b340 28bd
00000090: 841d 83bd ad7b 9cbc fe3a f8bd 8dac afbc
000000a0: 48f7 e4bd c563 06be 3692 a63e b390 08bf
000000b0: 0507 df3e cd62 44bd 3c84 d53e 189a da3d
000000c0: e049 053c 521a 5a3d 4f23 703e 81a6 eebd
000000d0: fe43 90be 0746 083e fdf9 23bd fca7 213e
000000e0: 8c13 453e a48b 973e e135 06be bf4b 18bd
000000f0: d044 c8bd e6ff efbd e9f2 99bc dcea 3ebe
00000100: 747d 03bd 0a59 3d3d 7d47 a13d 722f 853e
00000110: 2369 91bc 6cf9 fdbd 75bf f3bd fcfc e2bd
00000120: 5e2b 893c 5659 d9bd db4c 50be 5c89 77be
00000130: 664a 29be 3bcd d0bd d64b 3c3e 5bea ca3d
00000140: 578d 633e fd05 463d 13bf b4be fe75 883c
00000150: fe58 2abd afd4 0dbe a7ba 473e d729 053d
00000160: e74b bc3e fc4a cdbd 25da 86bc 46ba afbd
00000170: 9cb8 7bbe 49fc 303e cf20 05be 5f84 e8bd
00000180: a765 08be 0b5e 9e3d a579 813c c726 b4bd

4.weight f4 [4, 100]
0.52557176 -0.01877467 -0.09222995 -0.42872244 0.048263237 -0.023164015 -0.04665655 0.02462497
1.7590933 -0.048134048 1.3915942 -0.007930762 0.20047188 -0.042612024 -0.09769978 -0.2225708
0.012505232 -0.13337511 -0.10138582 -0.07943998 -0.31944603 0.88293266 0.56607854 -0.08404405
1.302166 -0.5535673 -0.0253513 0.02135271 -0.01865344 0.26117554 0.021966798 1.8985466
1.6954757 -0.43627137 -0.38890764 -0.092982024 0.052930187 -0.14422207 0.029029272 -0.19205026
-0.3159579 0.0073022367 0.04423529 0.28826642 -0.2878346 -0.043840017 0.9403467 0.8993043
1.8328334 -0.93408024 0.17259763 -0.033821072 -0.5818888 0.35101476 0.035378553 0.18449678
1.6922703 0.36016914 1.0733149 1.5364535 1.3474536 -0.13311578 -0.045523543 0.33015293
0.9222086 -0.018884595 0.04810064 -0.06827185 -0.062410682 -0.05912582 -0.019362323 -0.10033828
-0.060154386 0.04495129 0.1991344 -0.20573461 -0.051845115 -0.045547377 -0.011720416 -0.14948982
0.6059845 0.27543402 -0.27148008 0.030601902 0.78114605 -0.024321392 0.20572236 0.4110692
0.89991343 -0.14445332 0.98296404 -0.0164027 -0.20077413 0.40405706 -0.08904753 -0.0934538
-0.08510132 1.1134197 -0.13994882 -0.034027584 -0.26698306 0.11068021 0.017526414 -0.4383253
0.9323369 -0.124936536 -0.050221406 -0.0661974 -0.7896278 0.13958412 0.1732977 0.034721598
0.8049534 0.5719335 -0.018918922 -0.8982141 0.016367696 0.876241 -0.04665447 0.012569834
2.0159411 0.57850677 -0.057412047 -0.03646113 0.14117496 -0.5085572 -0.038694914 0.03190784
0.010406466 0.22657849 0.8920758 0.9602874 -0.61471915 0.6981763 1.9378656 0.021124376
0.031928334 0.032317013 -0.01331006 1.1833535 0.24673252 -0.01715419 -0.13792406 0.11102322
0.71426785 -0.0653493 -1.4571447 -0.99933934 0.23898229 0.503802 0.9175729 0.04925181
-0.2913205 0.29074264 0.033924665 0.7465291 0.3130446 0.66163254 1.8490463 0.053471822
-0.06599282 0.03500094 0.0020471828 -1.0079737 -0.2250937 -0.22945717 0.7617742 1.2015648
-0.022412807 -0.023199055 -0.15438493 -0.04419634 -0.124702945 -0.04182881 0.42051455 -0.002358263
0.11953709 -0.037580848 0.5531313 0.08835885 1.2676145 0.063005485 0.072480574 -0.031633705
-0.31645468 -0.069948375 0.7632714 0.99096894 0.022033617 0.15961751 0.36106616 -0.00890331
0.33528545 0.734913 -0.29940706 0.028864225 0.0027014308 1.4258755 -0.049349397 0.028325135
-0.056741197 -0.57406086 0.0520232 -0.7704309 1.0662298 0.0065839323 -0.03911262 0.08657267
0.87335104 -0.021313313 0.98230636 -0.089957766 0.41065884 -0.27859882 -0.023122566 -0.4273553
-0.16800448 -0.7446907 -0.006850006 -0.13470398 0.6170327 -0.04656673 -0.6331806 -0.027341595
-0.49265972 -0.6002432 -0.02336554 -0.1447832 -0.102066286 -0.1067031 0.67530686 0.29795325
-0.2097251 0.09002249 -0.8530952 0.0074821017 0.004473972 0.030187337 -0.0575055 0.4457255
1.4544833 -0.09101914 -0.26692557 0.58372474 0.075757824 0.038613696 0.44382885 0.2222801
-0.6175563 -0.46128482 0.30768582 -0.12849468 0.3644831 0.5197018 -0.061198957 0.80722415
00000000: df8b 063f 56cd 99bc 0ee3 bcbd 8281 dbbe
00000010: acaf 453d 76c2 bdbc f01a 3fbd 4eba c93c
00000020: f829 e13f 3528 45bd c21f b23f 07f0 01bc
00000030: 8048 4d3e f289 2ebd d216 c8bd 9ae9 63be
00000040: bfe2 4c3c 7c93 08be 5ea3 cfbd 6eb1 a2bd
00000050: 6e8e a3be e007 623f 86ea 103f 491f acbd
00000060: 60ad a63f 96b6 0dbf 88ad cfbc e1eb ae3c
00000070: 19cf 98bc cdb8 853e b7f3 b33c 9303 f33f
00000080: 5905 d93f f65e dfbe e71e c7be 5c6d bebd
00000090: 53cd 583d f3ae 13be ccce ed3c d3a8 44be
000000a0: 3cc5 a1be 9a47 ef3b 1030 353d a897 933e
000000b0: 0f5f 93be 9791 33bd 90ba 703f ce38 663f
000000c0: 499a ea3f e21f 6fbf 6fbd 303e f787 0abd
000000d0: aaf6 14bf 35b8 b33e 1ae9 103d b9ec 3c3e
000000e0: 509c d83f 1768 b83e 6262 893f 82aa c43f
000000f0: 5c79 ac3f 814f 08be e576 3abd ce09 a93e
00000100: dd15 6c3f deb3 9abc 2d05 453d 1dd2 8bbd
00000110: 58a2 7fbd ea2d 72bd bc9d 9ebc 287e cdbd
00000120: 7264 76bd d81e 383d e3e9 4b3e 18ac 52be
00000130: 8b5b 54bd e38f 3abd fd06 40bc dc13 19be
00000140: cd21 1b3f b005 8d3e 70ff 8abe d7b0 fa3c
00000150: 30f9 473f a83d c7bc e2a8 523e aa77 d23e
00000160: ba60 663f 92eb 13be 88a3 7b3f f55e 86bc
00000170: bc97 4dbe 91e0 ce3e 8d5e b6bd b564 bfbd
00000180: 9a49 aebd 8984 8e3f be4e 0fbe 8260 0bbd
00000190: 01b2 88be 4eac e23d 8e93 8f3c 2c6c e0be
000001a0: a2ad 6e3f bade ffbd f6b4 4dbd 8192 87bd
000001b0: 0c25 4abf 24ef 0e3e f474 313e 3c38 0e3d
000001c0: 6d11 4e3f 3c6a 123f dbfb 9abc 5cf1 65bf
000001d0: 8c15 863c 5551 603f c218 3fbd b4f1 4d3c
000001e0: 2e05 0140 0519 143f e528 6bbd 4458 15bd
000001f0: 2b90 103e ce30 02bf 8f7e 1ebd ccb1 023d
00000200: e27f 2a3c 3104 683e 145f 643f 65d5 753f
00000210: 3c5e 1dbf afbb 323f fb0b f83f 070d ad3c
00000220: 49c7 023d d85e 043d 7012 5abc 2178 973f
00000230: 73a7 7c3e f286 8cbc f73b 0dbe 2460 e33d
00000240: 42da 363f dbd5 85bd b883 babf b4d4 7fbf
00000250: c6b7 743e 2bf9 003f 0fe6 6a3f 44bc 493d
00000260: f627 95be 38dc 943e 97f4 0a3d 881c 3f3f
00000270: 6247 a03e c060 293f 8dad ec3f 4505 5b3d
00000280: 3e27 87bd 255d 0f3d 072a 063b 4805 81bf
00000290: f77e 66be d2f6 6abe a203 433f e0cc 993f
000002a0: 109b b7bc f20b bebc 1517 1ebe 3907 35bd
000002b0: 4264 ffbd b054 2bbd af4d d73e 168d 1abb
000002c0: ddcf f43d 60ee 19bd 039a 0d3f 7cf5 b43d
000002d0: 3141 a23f 0509 813d b270 943d 5892 01bd
000002e0: 5906 a2be 1841 8fbd c165 433f 24b0 7d3f
000002f0: d87f b43c c672 233e aadd b83e 30df 11bc
00000300: 89aa ab3e 4223 3c3f e24b 99be ab74 ec3c
00000310: 7d0a 313b 1783 b63f 9822 4abd 1d0a e83c
00000320: 7569 68bd a7f5 12bf 4716 553d f63a 45bf
00000330: 387a 883f 07be d73b 8e34 20bd 034d b13d
00000340: ef93 5f3f 4299 aebc 6e78 7b3f c73b b8bd
00000350: e041 d23e 81a4 8ebe 896b bdbc 50ce dabe
00000360: 5e09 2cbe 0da4 3ebf 0476 e0bb d7ef 09be
00000370: dbf5 1d3f c1bc 3ebd 2018 22bf 7bfb dfbc
00000380: e53d fcbe 8aa9 19bf 1769 bfbc 0c42 14be
00000390: 2108 d1bd 2887 dabd e9e0 2c3f 548d 983e
000003a0: 2dc2 56be b65d b83d 7264 5abf 6b2c f53b
000003b0: 669a 923b 6f4b f73c e38a 6bbd 2236 e43e
000003c0: 822c ba3f 3e68 babd 78aa 88be fc6e 153f
000003d0: eb26 9b3d 6529 1e3d 893d e33e 659d 633e
000003e0: 2b18 1ebf 862d ecbe ff88 9d3e 1c94 03be
000003f0: 879d ba3e 2d0b 053f c2ab 7abd 3ea6 4e3f

4.bias f4 [4]
0.22289985 0.35334 0.1362562 0.50840193
00000000: dc3f 643e fbe8 b43e bf86 0b3e a126 023f
