logs/target_params_A_200_onehot.pt (torch, 6383 bytes, 6 tensors)

0.weight f4 [24, 12]
-2.5619967 0.65063804 -6.2462726 -1.1125678 -1.8496888 -0.7885384 -0.27241462 0.7204587
1.1819284 2.4215748 -7.970706 3.8967133 -2.4692214 2.273327 0.089488804 0.020082803
2.2529607 -1.1591814 0.5712059 -2.1083946 2.310107 0.062002372 -0.9743476 0.60071087
-5.7463455 1.8142002 -1.6767693 1.180484 -3.8122556 -1.8996106 -3.6731193 -0.8472438
1.9115206 -2.5311089 -8.930939 -0.4791071 -2.001806 3.0114775 -0.49541366 0.43703195
-0.49008203 0.31947097 1.6457511 -2.805197 1.6200918 -3.198441 1.4387081 4.7899156
-1.5021198 0.10302038 0.028683005 0.29425392 0.009484133 0.9137809 0.30145177 0.39989278
-14.355179 -0.27624774 -0.21858715 0.1343308 1.2835363 -4.699457 -0.4137097 0.14135858
-0.15324403 1.5792485 0.049767736 1.3971983 -0.5899604 -0.0627481 1.3342181 0.0034564876
-2.0973716 -0.17764743 -0.74288803 -0.19758439 1.158227 -0.47471663 0.43594086 2.2043405
-2.8091636 1.4565268 2.8318055 -3.6556523 2.1521983 -2.2849557 -1.5766617 2.1746812
-2.9145439 1.1857929 -0.40450817 0.8289151 -1.0411118 1.2072158 1.0699625 -1.3839246
0.2430385 -0.72045696 -0.5071853 0.45751876 1.2111052 1.6840912 0.6475089 1.0734435
6.286648 -1.3796786 2.6108892 0.1420034 -0.69963944 -1.8274357 1.2557079 0.14905572
-1.2021091 0.12086599 -0.55941594 -3.3615031 4.044316 -5.7359114 0.4388141 -1.6724964
-0.18420653 -0.29123732 -0.3615237 -0.121544234 -0.2809054 -0.42567736 -0.34831166 -0.24745715
0.1123673 -0.13436338 0.008399427 -0.07594508 -0.98721766 3.8554778 0.5818871 0.55614346
0.24423686 2.184906 0.1845746 0.53751796 4.50312 0.63770825 -0.6839554 0.5976547
-3.9680862 -2.8185036 -0.3221037 0.8400694 -0.40142682 1.778586 -1.4232509 -1.1782066
4.420535 -3.5588477 2.0434163 -10.534034 2.0963147 1.7377046 0.66539156 0.5268223
-0.32364762 -0.21590841 -1.2221878 -1.6723163 -3.7203608 1.6918429 -0.6545929 2.364813
-0.33072385 -7.235277 2.0448902 0.00926489 -2.007129 -1.7770586 -6.6066017 -0.007730531
1.0085508 -3.6338081 -0.82039565 -4.6449823 -1.7835828 0.12290063 0.3336573 1.351059
-2.0254447 2.941703 -0.673862 1.7895912 0.965918 -2.019904 -4.8487124 0.42598766
-0.7465957 1.9689002 -2.0148866 2.4475965 -2.8073616 -0.06816153 0.7071802 -2.199771
-0.54634607 4.865595 3.3196826 4.206677 2.2656252 -0.036713704 0.08419677 0.29192522
0.46332672 0.339121 0.4249783 -0.19313148 6.4591355 -0.60296875 -5.3526316 -1.9830148
-1.641684 -3.1472363 1.2023752 1.6100485 1.0931222 0.08746598 -0.5107132 -2.214073
2.0280595 0.97875535 -1.7467556 -2.3485217 -1.8948232 -7.153821 -0.34743845 -0.22992364
-2.0961215 -2.599041 0.995041 1.722116 1.1447948 -1.4165622 -11.8110485 5.280113
-4.129056 -3.650302 0.52826047 1.001411 -1.8562658 -0.6047484 -1.4418037 -0.1117135
4.3797946 0.3368176 1.9242356 3.118161 1.528779 -1.4469811 1.3144499 1.4475988
00000000: c1f7 23c0 3790 263f 77e1 c7c0 9f68 8ebf
00000010: 9ac2 ecbf a7dd 49bf ee79 8bbe fb6f 383f
00000020: 6e49 973f 15fb 1a40 0610 ffc0 c063 7940
00000030: b907 1ec0 317e 1140 e845 b73d b184 a43c
00000040: 8230 1040 0e60 94bf 8d3a 123f f0ef 06c0
00000050: cbd8 1340 33f6 7d3d d86e 79bf 30c8 193f
00000060: 10e2 b7c0 b637 e83f 60a0 d6bf 1a1a 973f
00000070: fffb 73c0 7126 f3bf 6314 6bc0 f8e4 58bf
00000080: b5ac f43f b0fd 21c0 20e5 0ec1 874d f5be
00000090: 971d 00c0 0cbc 4040 dca6 fdbe a7c2 df3e
000000a0: 08ec fabe b391 a33e f9a7 d23f 5988 33c0
000000b0: 2b5f cf3f 42b3 4cc0 9627 b83f fd46 9940
000000c0: 7645 c0bf 59fc d23d 9ff8 ea3c 73a8 963e
000000d0: 5663 1b3c 8ced 693f e357 9a3e bfbe cc3e
000000e0: d0ae 65c1 5870 8dbe 4fd5 5fbe 038e 093e
000000f0: eb4a a43f f461 96c0 c2d1 d3be 4ec0 103e
00000100: 01ec 1cbe d124 ca3f 41d9 4b3d 65d7 b23f
00000110: a507 17bf 1382 80bd a9c7 aa3f 3d86 623b
00000120: 563b 06c0 35e9 35be e92d 3ebf 9053 4abe
00000130: c840 943f 0f0e f3be a433 df3e ea13 0d40
00000140: 56c9 33c0 786f ba3f 4d3c 3540 35f6 69c0
00000150: 9ebd 0940 b73c 12c0 0dd0 c9bf fa2d 0b40
00000160: e387 3ac0 10c8 973f b21b cfbe c833 543f
00000170: 2743 85bf 0c86 9a3f 88f4 883f 7124 b1bf
00000180: 16df 783e de6f 38bf e5d6 01bf e63f ea3e
00000190: 7f05 9b3f 4d90 d73f 25c3 253f 9966 893f
000001a0: 382c c940 4f99 b0bf cf18 2740 5769 113e
000001b0: 921b 33bf 6ae9 e9bf 09bb a03f 10a2 183e
000001c0: b6de 99bf 9788 f73d e235 0fbf de22 57c0
000001d0: 096b 8140 968c b7c0 3eac e03e 5d14 d6bf
000001e0: a3a0 3cbe 0f1d 95be a219 b9be 2fec f8bd
000001f0: d5d2 8fbe 62f2 d9be e855 b2be 6865 7dbe
00000200: d420 e63d 8e96 09be c09d 093c 1889 9bbd
00000210: 4cba 7cbf 26c0 7640 8ef6 143f 6b5f 0e3f
00000220: 3a19 7a3e 80d5 0b40 2001 3d3e c79a 093f
00000230: 8f19 9040 d940 233f b317 2fbf e6ff 183f
00000240: 20f5 7dc0 5d62 34c0 c7ea a4be ca0e 573f
00000250: d187 cdbe b5a8 e33f 162d b6bf 79cf 96bf
00000260: 0675 8d40 29c4 63c0 55c7 0240 678b 28c1
00000270: 052a 0640 1b6d de3f 1a57 2a3f d4dd 063f
00000280: 24b5 a5be 1817 5dbe a670 9cbf 760e d6bf
00000290: 641a 6ec0 4f8e d83f 6693 27bf 1959 1740
000002a0: a354 a9be 6487 e7c0 7bdf 0240 c4cb 173c
000002b0: cd74 00c0 a876 e3bf 4869 d3c0 6550 fdbb
000002c0: 3118 813f 5090 68c0 7305 52bf b2a3 94c0
000002d0: 714c e4bf 53b3 fb3d 21d5 aa3e 80ef ac3f
000002e0: e3a0 01c0 dd44 3c40 3882 2cbf 5311 e53f
000002f0: 6746 773f 1b46 01c0 a728 9bc0 0e1b da3e
00000300: e520 3fbf ec04 fc3f e7f3 00c0 6ca5 1c40
00000310: d0ab 33c0 4698 8bbd c309 353f 0cc9 0cc0
00000320: 56dd 0bbf f4b2 9b40 ae75 5440 199d 8640
00000330: 0100 1140 1c61 16bd 5b6f ac3d 3977 953e
00000340: 2939 ed3e 45a1 ad3e c196 d93e 42c4 45be
00000350: 3db1 ce40 295c 1abf c248 abc0 6ed3 fdbf
00000360: b422 d2bf 526c 49c0 6ee7 993f 1216 ce3f
00000370: 6eeb 8b3f 5d21 b33d 1abe 02bf 5fb3 0dc0
00000380: bacb 0140 b68f 7a3f b095 dfbf 2e4e 16c0
00000390: 9189 f2bf 1aec e4c0 74e3 b1be 1a71 6bbe
000003a0: db26 06c0 b056 26c0 02bb 7e3f 4c6e dc3f
000003b0: a388 923f e951 b5bf 0efa 3cc1 b0f6 a840
000003c0: 3a21 84c0 8c9e 69c0 143c 073f 3c2e 803f
000003d0: 1e9a edbf cbd0 1abf 068d b8bf 0cca e4bd
000003e0: 4727 8c40 5b73 ac3e 5a4d f63f f38f 4740
000003f0: 08af c33f ad36 b9bf e53f a83f eb4a b93f

0.bias f4 [24]
1.1465592 1.8847737 0.4796343 0.35608107 8.797862 3.0543413 2.6131933 1.298245
-1.5019486 0.5753459 -0.49118492 -1.3534422 4.505673 2.047665 0.98719996 3.8832066
1.8884978 -3.1206055 4.8330503 0.086902045 2.1187522 -0.4172643 0.23168455 -0.022060415
00000000: 74c2 923f 4440 f13f a192 f53e 4250 b63e
00000010: 0bc4 0c41 547a 4340 8f3e 2740 e42c a63f
00000020: da3f c0bf de49 133f 977c fbbe 983d adbf
00000030: 792e 9040 f20c 0340 23b9 7c3f 7586 7840
00000040: 4cba f13f 00b8 47c0 59a8 9a40 b3f9 b13d
00000050: a399 0740 aba3 d5be b73e 6d3e 0bb8 b4bc

2.weight f4 [24, 24]
-0.0024593023 -0.08893002 0.08795902 -0.2560436 -0.027058475 -0.010034561 -0.06867609 0.071833834
-0.1353695 -0.07499128 0.02428013 -0.17207353 -0.3002004 -0.091140315 -0.24895275 -0.3113267
-0.049989443 -0.1622068 -0.03910868 -0.031091187 -0.03208482 0.02616116 -0.16833855 -0.10216993
5.6237273 -5.038909 3.5636938 -1.8325245 3.1335268 -2.0121353 -2.861131 -10.531048
1.4142756 1.8318154 -0.12708287 0.100875616 1.7476177 -8.132111 8.199245 -7.856353
0.2758788 0.9966901 1.4121635 2.2783165 -2.2110527 -2.946024 -5.7857018 -6.578895
-0.014983906 -0.05138002 0.14969382 -0.13090672 0.026624274 -0.17893285 -0.21713562 -0.21071385
-0.21814121 0.075849086 0.12765655 -0.20223446 -0.031369906 -0.1961132 -0.0029874342 -0.28509396
0.077314675 -0.14992261 0.115394264 -0.037826285 0.047161054 0.04521535 -0.04952554 0.045793857
-5.0154004 -6.044093 -1.9421353 0.7946252 -8.290395 -1.5430472 -3.1079023 2.089673
0.4497521 2.904272 -0.14064132 1.0484049 2.7591724 0.076047756 2.8922105 -2.7714632
-9.602852 2.085768 0.23828517 -0.28222474 7.067323 0.76615185 -8.004511 -1.059948
6.6985307 -2.3612175 1.66823 0.93659043 0.1452812 0.48336306 -2.9752872 -9.317453
0.8538237 1.4307063 -0.11120794 -3.3922377 1.1802274 -6.710327 2.3709216 -8.318903
2.3250887 2.3258655 3.4861133 0.8054116 -3.47933 -4.800865 -5.862207 -7.537482
-0.29191914 -0.20487009 -0.053878374 -0.08101035 -0.08572063 -0.13603872 -0.23633228 0.027329575
-0.3259507 0.039284255 0.11480954 0.065149136 -0.27712277 -0.095899865 0.0666321 -0.20348227
-0.06319878 -0.15576735 0.08271719 0.020041808 0.056721717 -0.17900041 -0.2217762 -0.53434914
-5.3393526 -1.798387 -1.5068139 -0.7033406 -2.960732 -1.6709751 -2.3934247 -4.9665933
-0.6107894 2.8745165 -0.06451973 0.95026046 0.32093692 -7.8901577 6.3767624 0.88683665
-9.727003 -0.5758469 -0.7505816 3.556104 5.659358 3.1298835 -5.9365144 -3.7024183
-5.7762084 -8.690861 -2.904281 0.25998288 -3.7101426 -0.9402963 -4.3505573 -3.8571281
-1.1316383 0.054851256 -0.20874977 0.59164774 0.3607741 -5.302459 -2.3672729 0.16758023
-7.9397187 -1.2952952 -3.521266 2.1064165 2.9944901 1.6019051 -7.474879 -2.5610485
-0.16022655 -0.2826591 -0.06314044 -0.28437632 -0.17139979 -0.069190405 -0.016030092 -0.034527574
-0.31832808 -0.108922526 -0.03154254 -0.15841368 -0.40283427 -0.15458445 -0.049674317 -0.047626015
-0.059330966 -0.40978163 -0.3622317 -0.14790417 -0.21340325 0.0020721399 0.019002168 -0.30356932
-5.703284 -6.915551 -3.2880175 1.3569396 -4.2158093 -0.5739036 -4.786558 -2.9252377
-1.0691687 1.4708551 -0.16935506 -0.68122244 1.2426748 -4.5212817 -1.9476031 -0.30171403
-9.49396 -1.3154491 -1.7565888 2.0211952 2.8644693 2.2231095 -8.612298 -3.0210156
6.7898383 -0.2373159 1.2706769 -0.09643114 3.1627543 -0.4954649 -2.6022453 -8.052864
0.45638064 -0.12146075 0.10852417 -2.6126587 3.0015953 -6.401813 1.2221159 -5.881676
00000000: 3f2c 21bb f120 b6bd dc23 b43d 2618 83be
00000010: bca9 ddbc 0068 24bc 0da6 8cbd 9e1d 933d
00000020: 4d9e 0abe 0795 99bd 20e7 c63c 0b34 30be
00000030: deb3 99be c6a7 babd 78ed 7ebe 3766 9fbe
00000040: bbc1 4cbd 8a19 26be 6c30 20bd f2b2 febc
00000050: 5f6b 03bd ee4f d63c f160 2cbe 783e d1bd
00000060: 93f5 b340 be3e a1c0 8f13 6440 2a90 eabf
00000070: b48b 4840 d3c6 00c0 c51c 37c0 2c7f 28c1
00000080: fc06 b53f ed78 ea3f 0322 02be e097 ce3d
00000090: f0b1 df3f 201d 02c1 1c30 0341 3e67 fbc0
000000a0: fc3f 8d3e 1527 7f3f c6c1 b43f f0cf 1140
000000b0: e381 0dc0 a88b 3cc0 7824 b9c0 4f86 d2c0
000000c0: 0f7f 75bc db73 52bd 5649 193e 690c 06be
000000d0: 261b da3c 2c3a 37be cd58 5ebe 5fc5 57be
000000e0: 6960 5fbe c456 9b3d 66b8 023e 8d16 4fbe
000000f0: bb7d 00bd e6d1 48be d4c8 43bb d6f7 91be
00000100: 2857 9e3d 5085 19be d453 ec3d bcef 1abd
00000110: f32b 413d bb33 393d 4bdb 4abd 5792 3b3d
00000120: 297e a0c0 3669 c1c0 e497 f8bf 8f6c 4b3f
00000130: 75a5 04c1 9282 c5bf dfe7 46c0 34bd 0540
00000140: e845 e63e 98df 3940 4704 10be 2232 863f
00000150: 4896 3040 edbe 9b3d fa19 3940 a75f 31c0
00000160: 48a5 19c1 397d 0540 0701 743e c37f 90be
00000170: 8327 e240 8722 443f 7a12 00c1 60ac 87bf
00000180: 5d5a d640 301e 17c0 9088 d53f 64c4 6f3f
00000190: 98c4 143e 5d7b f73e 1b6b 3ec0 4a14 15c1
000001a0: 3194 5a3f 6221 b73f fdc0 e3bd 6c1a 59c0
000001b0: b111 973f 00bb d6c0 2ebd 1740 3a1a 05c1
000001c0: 41ce 1440 fbda 1440 7b1c 5f40 742f 4e3f
000001d0: 58ad 5ec0 b0a0 99c0 3397 bbc0 0d33 f1c0
000001e0: 6d76 95be 77c9 51be 92af 5cbd c1e8 a5bd
000001f0: 4c8e afbd bc4d 0bbe 1701 72be 46e2 df3c
00000200: 03e3 a6be 87e8 203d 4421 eb3d e96c 853d
00000210: 09e3 8dbe 2667 c4bd 6976 883d a85d 50be
00000220: 5d6e 81bd 7a81 1fbe a167 a93d b82e a43c
00000230: 0855 683d e24b 37be 4d19 63be 1bcb 08bf
00000240: fadb aac0 8c31 e6bf 47df c0bf 210e 34bf
00000250: a27c 3dc0 83e2 d5bf df2d 19c0 55ee 9ec0
00000260: b25c 1cbf 14f8 3740 ec22 84bd 4544 733f
00000270: d851 a43e 2c7c fcc0 700e cc40 ba07 633f
00000280: cea1 1bc1 b46a 13bf 1e26 40bf 3597 6340
00000290: 7619 b540 0350 4840 edf7 bdc0 6cf4 6cc0
000002a0: b3d6 b8c0 c40d 0bc1 bddf 39c0 7a1c 853e
000002b0: fa72 6dc0 42b7 70bf c437 8bc0 30db 76c0
000002c0: 86d9 90bf b6ab 603d 80c2 55be 3a76 173f
000002d0: 62b7 b83e bead a9c0 6681 17c0 279a 2b3e
000002e0: 2d12 fec0 3ccc a5bf 6c5c 61c0 87cf 0640
000002f0: baa5 3f40 3a0b cd3f 3532 efc0 38e8 23c0
00000300: 6e12 24be b2b8 90be c64f 81bd c699 91be
00000310: 6d83 2fbe b3b3 8dbd 8a51 83bc c96c 0dbd
00000320: e6fb a2be c612 dfbd c032 01bd 3237 22be
00000330: 4b40 cebe 634b 1ebe 4c77 4bbd 7f13 43bd
00000340: 0705 73bd e6ce d1be 6f76 b9be 3174 17be
00000350: 6286 5abe bdcc 073b 6faa 9b3c 706d 9bbe
00000360: 4d81 b6c0 324c ddc0 e16e 52c0 32b0 ad3f
00000370: e9e7 86c0 59eb 12bf 7c2b 99c0 1837 3bc0
00000380: 85da 88bf fb44 bc3f 6a6b 2dbe 9864 2ebf
00000390: f80f 9f3f 57ae 90c0 0f4b f9bf 437a 9abe
000003a0: 43e7 17c1 a360 a8bf e7d7 e0bf 435b 0140
000003b0: 7753 3740 6d47 0e40 f9cb 09c1 5258 41c0
000003c0: 5b46 d940 f002 73be 8aa5 a23f b17d c5bd
000003d0: 916a 4a40 93ad fdbe 308b 26c0 88d8 00c1
000003e0: b9aa e93e 6ac0 f8bd ec41 de3d cd35 27c0
000003f0: 231a 4040 a7db ccc0 4b6e 9c3f b136 bcc0

2.bias f4 [24]
-0.018549325 -0.40231624 -0.07987927 -3.7212098 -0.07638275 -0.20335032 -0.7215537 -2.9809847
-0.25293538 -2.4759402 -0.0059829303 0.67941856 1.068253 -3.1802278 -1.4150932 -1.252465
3.445385 5.143274 -0.20271666 -1.7099965 -0.7046282 3.329531 -4.515731 -3.7397876
00000000: c1f4 97bc 65fc cdbe be97 a3bd 4d28 6ec0
00000010: 8f6e 9cbd 113b 50be beb7 38bf 74c8 3ec0
00000020: bf80 81be ce75 1ec0 750c c4bb 60ee 2d3f
00000030: 84bc 883f da88 4bc0 c621 b5bf c650 a0bf
00000040: 3081 5c40 b395 a440 f594 4fbe 2ae1 dabf
00000050: 8462 34bf 0917 5540 de80 90c0 ae58 6fc0

4.weight f4 [4, 24]
-0.061929736 7.0692625 0.15065598 1.3737906 5.753417 0.0021377206 -2.8476908 1.702006
-0.22783084 4.236344 3.7103221 -1.3901469 -0.2535813 1.9268105 4.9628353 3.8802912
0.8523212 7.4201493 -0.047592197 3.6721618 -2.8318853 -2.7523603 3.3665872 9.032051
-0.09851427 5.865792 0.009390053 5.11812 7.1908417 -0.02304865 5.90192 7.241036
-0.22171232 6.391103 0.51190585 0.30070007 4.8420496 1.6013587 6.3975515 5.30207
-0.026103577 -0.785706 0.12739854 4.737075 1.1484576 -2.9720879 0.6246978 -0.4044433
0.058640316 -1.6561826 0.014055432 1.8932451 3.5021381 -0.05959416 -5.649341 0.90126795
0.21349609 -0.19875823 5.4514437 7.131204 -0.71601075 0.7923444 5.2498183 3.769214
4.411076 2.1617799 -0.038227037 -4.207283 6.408932 -2.623374 5.616302 5.8872814
-0.059678156 5.9500422 -0.044150192 -4.5560265 6.095679 0.08599597 -13.001791 -4.1453037
0.118692756 -6.961912 7.1420856 12.386528 0.033617675 2.9957578 10.253881 6.1861377
3.2143364 0.7461021 -0.032825503 -2.1543684 2.0009763 -6.2125134 8.9138365 5.1755
00000000: 09aa 7dbd 6637 e240 9045 1a3e 5fd8 af3f
00000010: fe1b b840 0019 0c3b 9140 36c0 55db d93f
00000020: 7d4c 69be 2190 8740 eb75 6d40 55f0 b1bf
00000030: 68d5 81be baa1 f63f 8ccf 9e40 b156 7840
00000040: b931 5a3f dd71 ed40 09f0 42bd b304 6b40
00000050: 9c3d 35c0 ac26 30c0 2a76 5740 4883 1041
00000060: d9c1 c9bd 91b4 bb40 bdd8 193c a4c7 a340
00000070: 601b e640 86d0 bcbc 87dc bc40 91b6 e740
00000080: 8e08 63be ea83 cc40 430c 033f 5cf5 993e
00000090: 12f2 9a40 52f9 cc3f beb8 cc40 8faa a940
000000a0: 2bd7 d5bc 0724 49bf c374 023e 1e96 9740
000000b0: a900 933f b036 3ec0 32ec 1f3f 3113 cfbe
000000c0: d430 703d cbfd d3bf c148 663c db55 f23f
000000d0: 0823 6040 0219 74bd 67c7 b4c0 7fb9 663f
000000e0: b89e 5a3e 4787 4bbe 3a72 ae40 d332 e440
000000f0: 7b4c 37bf 15d7 4a3f 83fe a740 cd3a 7140
00000100: 8927 8d40 9a5a 0a40 f493 1cbd 10a2 86c0
00000110: f915 cd40 5ce5 27c0 bfb8 b340 9c64 bc40
00000120: 1571 74bd bf66 be40 d5d6 34bd f8ca 91c0
00000130: cd0f c340 a81e b03d 5607 50c1 54a6 84c0
00000140: 3015 f33d fcc7 dec0 f78b e440 382f 4641
00000150: b0b2 093d 7fba 3f40 e60f 2441 d7f4 c540
00000160: b0b7 4d40 8c00 3f3f 0974 06bd 2ce1 09c0
00000170: ff0f 0040 e9cc c6c0 139f 0e41 b29d a540

4.bias f4 [4]
0.42157447 6.7966447 1.7815764 -1.9794756
00000000: 9cd8 d73e 1d7e d940 b20a e43f 755f fdbf
