logs/target_params_A_25_onehot.pt (torch, 6375 bytes, 6 tensors)

0.weight f4 [24, 12]
00000000: dc9e 1540 988c d43f 7c8a ebbe 94f7 433f
00000010: 2d3b 2a3f 3315 48be b6fe a63e d7d6 953d
00000020: 197f 8040 67df f5be ab13 3a3f 454c 553f
00000030: c724 afc0 d39f e6bf ca77 9a3e a21d 0a3f
00000040: cee0 98be 0eb0 013f a314 d03e a239 a13c
00000050: ab61 74c0 53b3 693f b9df 31c0 6236 55bf
00000060: 91fd 8abe 2680 d9be 100b 1bbd 3ac4 3cbe
00000070: 0456 92bd 5939 5bbe c1a4 21bf a4ff 2c3d
00000080: 5f4a 4bbe 2bd2 e2bc 2fdd e5be 6d05 e6bd
00000090: 387a 95bf 7f9d 28c0 855f f03f 3fb5 84bf
000000a0: b773 90bd 5e09 87bf d9af 833d 4641 a6bd
000000b0: f021 ba3f 3398 06c0 2163 44c0 c341 9e3f
000000c0: 0737 313f 69a8 20bf 2b3d 10bf 9264 c53f
000000d0: 94ab 42bf 2d36 ee3d 323c 9abd 8594 c93f
000000e0: 98a8 2c3e 0fdf 0bc0 45cb b4be 7a1d 0140
000000f0: 78ce 55bd 3203 77be 6f1c 653d 8983 08be
00000100: 23fe 31be d5ae 68be 463d b1bd e366 d6bc
00000110: 709f f8bc 665d 7ebe b8d0 92be 095c c1ba
00000120: f22a febe 796d f9bf 412e 5c3f 25ad 533d
00000130: 270b 9d3e 4f13 9f3f e498 4d3f 889a a53f
00000140: b551 a73f 76b1 0440 605a fabe 1816 093b
00000150: bf42 f03f bc98 d6bd f1d2 ba3f 0dbd 8abd
00000160: 60c4 cc3e 202b 62be 648f dfbe 6129 ee3e
00000170: ae46 4740 9e1c 633f 1844 36be ab69 c23f
00000180: 7572 253f 89b9 d2bf defa 8c3f 3c63 9c3d
00000190: 8693 b23e ef33 8c3e 3b52 943f 3883 843f
000001a0: 2341 f43f 8a0d fd3f 1311 4bc0 7bac 093e
000001b0: 5c77 89c0 d1f7 bd3e 24a0 e23e fa63 983e
000001c0: 2dfe e6bd e577 babf de71 433d 5267 3bbf
000001d0: fc9f 8abc 6e64 e7bf 14ee 83c0 98e2 e8be
000001e0: 196e b33d 6cc0 2bbe d24c 6abe e2dc 3fbd
000001f0: c428 0ebe 4d31 18bc 9e07 55be 6772 ba3c
00000200: 00f7 3e3e 3dae fbbd 7fd3 1f3e be0b 063c
00000210: 8da6 03bf 4d5a 3bbf 1c5a 243e 79b1 1b3f
00000220: f37b 263f 8dcd 193f e5b7 1f3f e2fe e53e
00000230: 4c93 0c40 8fab ba3f 2099 debe 3433 ce3e
00000240: c323 083e c5a4 9cbe 0163 a9be 0ed1 afbe
00000250: 15b1 a6be ef2b 9abe 9235 723d f156 29be
00000260: ed6c 21be 78be 3f3d 7a95 2d3e d6f4 cebd
00000270: af00 8fbf e83d 13bf eca9 333f dd9b 2d3f
00000280: 0cec 8f3f bc43 943e 376f b53f 9349 73bc
00000290: ba49 7cc0 3a1d 793d 7264 8d3f 2732 f63e
000002a0: 145c de3e 1bce 75bd fb97 92bd 2ef9 91bf
000002b0: b679 943f 66db 223f 2aa4 d33f 77da 89be
000002c0: 3e5f 03c0 ac8d 8dbf c658 babf 03d3 cbbe
000002d0: 022d 273e 5094 bf3d 6172 26bf e146 ae3f
000002e0: 0aea 9c3f ad5c ae3e 6a3c 21bf 6751 bbbd
000002f0: e8b4 5bc0 98c6 4e3f 93b2 04be 9df6 6c3e
00000300: 98a5 cc3c 5b7a 763f a3f8 ccbf 08b8 e73f
00000310: c23d 45bf cb09 683f d3e5 533f 3b30 093f
00000320: f849 1840 46c1 f6be 0f2b f6bf bcb2 083f
00000330: 9bb9 9a3f d8d8 cb3f 6fec 113f 5f2a 97bf
00000340: e813 963f 9222 80bb 51e2 6cbe 04ad fabe
00000350: e770 46c0 ed60 833e c66a fe3f 0020 67bf
00000360: aee0 5b3e 0f53 4e40 b574 61bf 5283 aabf
00000370: 3f90 363f f288 0040 2eb9 933f 6d1d babe
00000380: 6ef6 e43d 0169 a33f 806a 1340 ddbd 75bd
00000390: 68d6 da3d d888 43bd e061 ad3d ffb2 0cbe
000003a0: a733 05be 9033 a7bc 989f 63be 3cc5 83be
000003b0: 7dc3 72be 4002 a0bc 6e0c c7bd 80df 09bc
000003c0: 02cb e13f 341f 1140 90c4 2fbf a4f2 68be
000003d0: 9c55 403f 2ee3 aa3f fa85 193f 80aa 34bf
000003e0: db63 b2bd 76d8 57bf ca58 35be c3a7 89bf
000003f0: a5aa 47bf 0c58 2a3f ae2d 61bf 2ea1 0140
2.337821 1.6605406 -0.46004093 0.7654965 0.66496545 -0.19539337 0.32616204 0.07316368
4.015515 -0.48022005 0.7268626 0.83319503 -5.4732394 -1.8017524 0.30169517 0.53951466
-0.29859012 0.50659263 0.40640745 0.019680802 -3.8184612 0.9128925 -2.77928 -0.83286107
-0.2714658 -0.42480582 -0.037852347 -0.1843423 -0.071453124 -0.21408595 -0.6314202 0.042235985
-0.19852589 -0.027688107 -0.44895312 -0.11231504 -1.1677923 -2.6346128 1.877915 -1.0367812
-0.07053321 -1.0549734 0.06430025 -0.08117919 1.4541607 -2.1030395 -3.0685503 1.2363819
0.6922459 -0.62756974 -0.56343335 1.5421317 -0.7604306 0.11631427 -0.075310126 1.574845
0.16861188 -2.1854894 -0.35311332 2.017424 -0.052198857 -0.24122313 0.05593532 -0.13331427
-0.17382102 -0.22722943 -0.08654265 -0.026172107 -0.030349463 -0.24840316 -0.28674865 -0.001475216
-0.4964214 -1.9486533 0.8600808 0.051678795 0.3067257 1.2427768 0.8031142 1.2937784
1.307181 2.0733314 -0.48897076 0.002091771 1.8770369 -0.104783505 1.4595624 -0.0677434
0.39993572 -0.22086763 -0.43664086 0.46515945 3.113689 0.8871554 -0.17799413 1.5188497
0.6462777 -1.6462871 1.1014059 0.07636115 0.34878176 0.27383372 1.1587595 1.0352545
1.9082378 1.9769757 -3.1729171 0.13444702 -4.29582 0.3710313 0.44262803 0.29763776
-0.11278949 -1.4567839 0.047716014 -0.7320453 -0.01692199 -1.8077524 -4.1228123 -0.45485377
0.08761234 -0.16772622 -0.22880867 -0.04684151 -0.13882738 -0.009289098 -0.20803687 0.02275963
0.1864891 -0.12289093 0.15608023 0.0081815105 -0.5142601 -0.73184663 0.16049999 0.60817677
0.6503288 0.6007927 0.62389976 0.44921023 2.1964903 1.4583606 -0.434762 0.4027344
0.13294892 -0.3059446 -0.33083346 -0.34339184 -0.32556978 -0.30111644 0.05913312 -0.16537072
-0.15764208 0.046812505 0.16951552 -0.101052925 -1.1172084 -0.57516336 0.70181155 0.67815953
1.1243911 0.28957927 1.4174565 -0.014849084 -3.942 0.06081889 1.1046278 0.48085138
0.43429625 -0.06001101 -0.07157894 -1.1404169 1.1599643 0.63616025 1.6534474 -0.26924488
-2.0526881 -1.105886 -1.4558342 -0.39809427 0.16325763 0.0935446 -0.6501828 1.361538
1.2258923 0.3405508 -0.6298281 -0.09146386 -3.4329166 0.8077178 -0.12958746 0.2314095
0.024981305 0.9628045 -1.6013378 1.8103037 -0.7704736 0.9063994 0.8277256 0.5358922
2.3795147 -0.4819433 -1.923189 0.53397727 1.2087892 1.592555 0.57001394 -1.1809806
1.1724825 -0.003910371 -0.23133208 -0.48960125 -3.100641 0.25659886 1.9876335 -0.90283203
0.21472427 3.2238195 -0.88068706 -1.3321326 0.7131385 2.0083585 1.1540887 -0.36350575
0.11179815 1.276642 2.3033752 -0.05999552 0.10685426 -0.047737926 0.08465934 -0.13740157
-0.13007985 -0.02041033 -0.22228849 -0.25736415 -0.23707385 -0.019532323 -0.09719168 -0.008415103
1.7640078 2.2675295 -0.68659306 -0.2274881 0.7513063 1.335058 0.59970057 -0.7057266
-0.08710452 -0.8431467 -0.17709652 -1.0754322 -0.7799476 0.665406 -0.87960327 2.0254626

0.bias f4 [24]
00000000: 6338 07c0 3c76 2540 3002 9f3d c255 cd3e
00000010: 5bb0 86bf b644 90be 32d1 bc3f 54f3 ac3e
00000020: cd29 473f 0d24 fa3f 24b3 84be 9046 d73e
00000030: aa13 233e de60 c63f c014 21bf 4166 0c3f
00000040: b64a cebd db84 14bf fd39 423e 081a 46be
00000050: e393 97bf f070 b33e 011c b13e 81ad 9fbe
-2.1128166 2.5853415 0.07764089 0.4010449 -1.052257 -0.28177422 1.4751341 0.33779395
0.7779816 1.9542252 -0.25917923 0.42046022 0.1592547 1.5498312 -0.62922287 0.5484353
-0.10072844 -0.5801522 0.18967433 -0.19345868 -1.1842006 0.35047102 0.34591678 -0.3118706

2.weight f4 [24, 24]
00000000: c5e3 ccbe 027f c43f 9e09 4b3e 86e5 69bf
00000010: 317d 693f 6079 f7bd 6fa9 9fbe 74e0 323f
00000020: 327a 8f3e 1943 1840 6109 ba3d fcd9 71be
00000030: 76c0 343e c908 ca3e e6b1 473f 3ff0 333f
00000040: 9393 df3e 172f 61be fcb5 2d3e de21 2b3e
00000050: 33cf b43e 7524 943f 314f acbe 69ab 27be
00000060: b81c ed3e 7bf0 14c0 22c1 19be 1257 9b3f
00000070: c513 52be a849 a1bd 2299 223e b504 e7bd
00000080: d015 183e 4def 15c0 56a7 b13d 9817 8e3f
00000090: 455f 34be 6592 103f 2b2b 0cbf 6804 083f
000000a0: 99ee c03e 7cad 093e fc17 163f 009b 293e
000000b0: 51c6 243e d2e9 cdbe 40f9 c2be 5dc7 ad3f
000000c0: 6d37 a93f a32c 66bf 145b f1bd 7ded c43f
000000d0: 2ca6 d1bf b921 84bd cdc7 573f 8a7c 603e
000000e0: 64d2 e03e 6767 9cbe 45e9 ac3d 751c 2f3f
000000f0: fd6f 19be 0321 61c0 02cc 16c0 d914 9cc0
00000100: 19f3 a03f 480a 03c0 2eb3 613e 50c7 81bc
00000110: 4a5f b93d 1114 013f 6632 ce3f f27e 8fc0
00000120: f182 493f 0bd6 eb3f 5628 cbbe 428c 84bf
00000130: 50ea 02bf b270 92bd a4d2 c6be c1d5 0b3f
00000140: b4c4 65be b69a c43f 74a4 d93d 7c04 553e
00000150: 6bd6 9abd 3477 723e 3085 19bf b45f ea3e
00000160: 5308 a93e ae9c 13bf c23a 2f3f d840 423d
00000170: ee34 ee3e b922 b7be aaf2 8abe fd9c c93f
00000180: d185 483f 9997 3fbf 331f c43c db43 1d40
00000190: 5673 bac0 1759 cebd 584b b73f 0f03 ea3f
000001a0: 613d a93f ee0b 17be 99c3 90be e0ae 523f
000001b0: 51c5 36bd 5001 6dbf 2258 58c0 a93e 83c0
000001c0: 3b87 3fc0 3d9a 6bc0 f9d7 b0c0 b8dd 02bd
000001d0: 1281 8ec0 97c0 5cc0 0ff6 1dc0 135d bbc0
000001e0: ee30 373f 9b31 1940 4b76 6ebe 8f90 ae3f
000001f0: 90f6 d9be 0eba 22be 95f3 6d3f b968 d43e
00000200: 9054 0b3f 2e6a 01bf 2e53 83bd 1a91 443f
00000210: 486f edbc f761 cbbe 27b2 47bf ec8f 00c0
00000220: a709 7b3f eab2 f7be 5d0b 11be 34c2 1c3d
00000230: f037 893e df3e 4c3f bf61 033f 1937 b8bf
00000240: 6139 d23d c976 ecbd 0fa2 c5bd d88b b03c
00000250: 33c3 8c3d 5850 cebc c429 d8bd 5a32 86be
00000260: e5e8 45be fa81 72be 7aac 103e 557f 983d
00000270: efe5 a53b a69a fdbd 7263 053e 68f9 1fbd
00000280: 4bba c7bd 9403 f4bc fa3e a4bd c8a6 cd3c
00000290: cfa0 2bbe b04c 30be 2529 df3d 94f6 323e
000002a0: 2c82 b13e b158 06c0 6098 b7be 5315 653f
000002b0: db6f 0b3e 9071 063e 4615 203f 49ed 8a3e
000002c0: fd21 833f 4399 29be 4e5a 9d3e 82eb 0e3f
000002d0: 79d5 a83d b103 fcbe c2e3 76bd f2a1 3fbd
000002e0: 32c3 92be 3e47 af3d 03e4 9cbe a589 edbd
000002f0: 7f62 75be 6b0c 21bf 3678 06bf d951 273f
00000300: fece b1c0 ec9d 9640 6320 d93e b174 ec3f
00000310: 0407 1dc0 6559 9cbd 7f8d a33f 73d9 afbf
00000320: 0256 103f 3a09 2440 f96b 7dbe b1b3 853e
00000330: 71e4 86bc f184 2940 4132 a5bf c647 db3f
00000340: de7e dc3d 60b4 b9bf eabd 2ebf cce8 a93d
00000350: aefb e9bf 8ada 803f 16ff 183f 9cbf 55bf
00000360: a803 5c3e 7cc9 77bd e788 25be 095e 0740
00000370: ea8c c0c0 a66a 263b c6a3 a53f 6c3b c33f
00000380: 7c78 833f 9816 bd3e 338a 95bd 5386 653f
00000390: bfd6 743e 6f4a 13be 91b6 5fc0 1678 3cc0
000003a0: b7e3 45c0 39aa 8dc0 1aa0 97c0 3ae2 193e
000003b0: 36ce 50c0 f5b7 87c0 657c 3ec0 b2a4 d3c0
000003c0: 8131 39c0 c7f0 9140 2388 243f 6105 f53f
000003d0: 43cc e7bf 5c87 ac3d e397 483f 2331 cebf
000003e0: 05b2 6bbe 99bc 6040 ce66 91bd d560 083e
000003f0: e8e5 2ebe 6ffe 0240 67e5 c9bf 2fd3 be3f
-0.40017524 1.535126 0.19827887 -0.9136585 0.9120665 -0.12083697 -0.31183955 0.6987374
0.28022915 2.3790953 0.0908382 -0.2361831 0.17651543 0.39459828 0.78005826 0.7028846
0.43667278 -0.2199062 0.16963953 0.16712138 0.3531433 1.1573626 -0.33654168 -0.16373982
0.46310973 -2.3271778 -0.1501508 1.2135947 -0.20515354 -0.07875377 0.15878728 -0.11280195
0.14852071 -2.3427308 0.08674495 1.110095 -0.17614467 0.5647338 -0.5475337 0.53131723
0.37682036 0.13445085 0.5863035 0.16563034 0.16091277 -0.40217453 -0.38080788 1.3576466
1.322004 -0.8991186 -0.1178495 1.5384976 -1.6378837 -0.064517446 0.84289247 0.21922508
0.43910515 -0.3054764 0.0844293 0.68402797 -0.14984126 -3.5176399 -2.3562016 -4.877545
1.2574188 -2.0475025 0.22041008 -0.01584211 0.09051378 0.50421244 1.610913 -4.4842463
0.78715426 1.8424696 -0.3967921 -1.0355303 -0.5113878 -0.07150401 -0.3883258 0.5462304
-0.22438318 1.5359714 0.1062707 0.20802492 -0.07560428 0.23678285 -0.59968853 0.4577614
0.33014163 -0.5766095 0.6844903 0.04742512 0.46524757 -0.3576868 -0.27138263 1.5751034
0.7832919 -0.74840695 0.023940658 2.4572666 -5.826579 -0.10075586 1.4319868 1.8282183
1.3221856 -0.14750645 -0.2827423 0.8229809 -0.04462177 -0.9258013 -3.3803792 -4.101399
-2.9926288 -3.681289 -5.526364 -0.03194973 -4.4532557 -3.4492548 -2.4681432 -5.8551116
0.71559036 2.3936527 -0.23287313 1.3637866 -0.42570925 -0.15891287 0.929498 0.41486147
0.5442591 -0.5055264 -0.0641235 0.7678391 -0.028983727 -0.3972318 -0.78006214 -2.0087843
0.98061603 -0.48378688 -0.14164491 0.038271144 0.2680049 0.79783434 0.51321024 -1.4391814
0.102648504 -0.11546094 -0.09650051 0.021551058 0.06873169 -0.025184795 -0.10554841 -0.2621029
-0.19327123 -0.23682395 0.14128295 0.07446162 0.0050628106 -0.123830125 0.13026217 -0.03905621
-0.097523294 -0.029786862 -0.08019824 0.025103942 -0.16760562 -0.17216754 0.108965196 0.17476875
0.34669626 -2.0991633 -0.3585844 0.89485663 0.13616888 0.13129258 0.6253246 0.2713416
1.0244747 -0.16562371 0.3073296 0.55828106 0.08243842 -0.49221566 -0.0602758 -0.046785302
-0.28664547 0.0855851 -0.3064271 -0.11598519 -0.23963355 -0.62909573 -0.5252718 0.65359265
-5.5565176 4.7067776 0.42407522 1.8473111 -2.4535532 -0.07634238 1.2777556 -1.3738235
0.5638124 2.5630631 -0.2474822 0.26113656 -0.016466351 2.648739 -1.2905961 1.7131279
0.107663855 -1.4508171 -0.68258536 0.082963556 -1.8279932 1.0066693 0.5976423 -0.834955
0.2148577 -0.060494885 -0.16165505 2.1151145 -6.0172014 0.0025393157 1.2940605 1.5252509
1.0271144 0.369313 -0.0730175 0.8965809 0.23910044 -0.14383863 -3.495518 -2.9448295
-3.0920236 -4.427029 -4.7382936 0.15027705 -3.262586 -4.2412057 -2.9763424 -6.6138544
-2.8936465 4.560642 0.6427023 1.9142267 -1.8109211 0.08424255 0.7835676 -1.6108745
-0.23017128 3.511511 -0.070996866 0.13318188 -0.1707989 2.0467794 -1.5773133 1.4908198

2.bias f4 [24]
00000000: e0cd f03e e0f3 a9bf 3895 69be 7765 9e3f
00000010: 1bbd 5b3f eae8 583f a409 f8bd 98b0 b2bf
00000020: d228 1840 3ba9 5a3f 6f49 fb3f cfd9 5e3f
00000030: 9681 91bf 714d e03f 5a65 b9bd 9c27 2b3f
00000040: 08e3 09bf 926d 36be b60e 553f d5e4 04c0
00000050: 9e8d cebf bea2 c1bf f7f0 55be 6800 513f
0.4703207 -1.327755 -0.22810829 1.2374715 0.8583543 0.847304 -0.12111214 -1.3960142
2.3774915 0.85414475 1.9631785 0.870511 -1.1367671 1.7523633 -0.090525344 0.66857314
-0.5386205 -0.17815235 0.8322557 -2.0764668 -1.6136968 -1.512779 -0.20892702 0.81641245

4.weight f4 [4, 24]
00000000: f482 a03f a820 fabf 6826 9a3f 37ee ff3e
00000010: 72db bdbf 8b34 fa3e a67a 723d 2c4c f0bf
00000020: f051 a740 897b 4c3f 5bef 9640 3b37 8e3f
00000030: 0c60 773d 5143 883f d440 2d3e a9b1 2d40
00000040: 9970 bc3e bd34 88bc 5f2e 173f 7838 eebf
00000050: 46f8 803f 80c6 463f 1056 8d3c 4126 91bb
00000060: 68ec 0bbf 8c74 2abe 9bff 3e40 f8e4 31bd
00000070: d384 7540 7fe7 973f 18d1 46bd 4cc6 ae3e
00000080: 2bb5 f03f b216 6b40 2407 9e3f d9aa dfbf
00000090: 1570 ccbf 6228 533f 406a 713d 82b4 1740
000000a0: 3240 df3c 7cf3 2ebe d92a 6440 4d1c c53e
000000b0: 0e4a 8bbc 3777 50bf 00d2 6b3d aa65 7340
000000c0: 63ce a33d ee0f 6cbe fe22 e63f e2d4 5dbf
000000d0: 1548 ccbf 9f5c 793d b1f4 71be 8b9c a83d
000000e0: c1dd 1a40 c810 71bf 38da 01c0 18fb 143f
000000f0: 9296 5c40 6335 24be 40ea 79bc 8be2 2240
00000100: fff4 9abe be49 093e ac0a 0ebf 418c 043f
00000110: 97d0 2240 d88d 4640 b49f edbd bf7b 07bf
00000120: e37b 3bbf 82d7 083f 3f70 3a40 8d26 d13e
00000130: cd57 6240 82a8 743f 9842 cf3d afd1 3bbf
00000140: c92d b4bf 0a3a 4840 eab0 b4bf 8317 c6be
00000150: 95b7 2bc0 56cb 753f acf5 883d 3791 d93f
00000160: 6c1b d2bf 8848 2fbe 09a2 4240 0141 9dbe
00000170: efd2 263f ab9e 37bf 0cd2 2cbd b20a 2a40
1.2539964 -1.9541216 1.2042971 0.4998643 -1.4832594 0.48868212 0.059198998 -1.8773246
5.228752 0.79876 4.716718 1.1110605 0.06039433 1.0645543 0.16919261 2.7139685
0.36804655 -0.01662671 0.5905513 -1.8610983 1.0075767 0.77646637 0.017252952 -0.004429609
-0.546576 -0.16646022 2.984351 -0.043431252 3.836232 1.1867522 -0.04853925 0.34135664
1.8805288 3.6732602 1.2345929 -1.7474014 -1.5971705 0.82483494 0.05893922 2.3703923
0.02725229 -0.1708507 3.5651152 0.38498154 -0.017003085 -0.8143191 0.05757332 3.80308
0.079983495 -0.23052952 1.7979429 -0.8665296 -1.5959498 0.060879346 -0.23628499 0.08232983
2.4197848 -0.9416623 -2.028944 0.5819564 3.44669 -0.1603599 -0.015253603 2.545077
-0.30265042 0.13407037 -0.55485034 0.5177651 2.5439813 3.1024075 -0.116027266 -0.52923197
-0.7323591 0.5345384 2.913101 0.40849724 3.536609 0.9556962 0.101201236 -0.73366827
-1.4076473 3.1285424 -1.411649 -0.38689813 -2.68308 0.9601339 0.06687483 1.6997441
-1.6414618 -0.17117512 3.0411398 -0.30713657 0.6516561 -0.71726483 -0.042192504 2.6569028

4.bias f4 [4]
00000000: 3e54 f23f a218 0c3f f10d e0be 504f 203f
1.8931959 0.54725087 -0.43760636 0.6262102
