logs/target_params_A_325_onehot.pt (torch, 6383 bytes, 6 tensors)

0.weight f4 [24, 12]
000000 f0 e4 57 c0 b8 3a 84 3e c1 48 e9 c0 09 97 52 c0
       -3.3733482 0.2582605 -7.290131 -3.2904685
000010 3f 9f 0d c0 4a 19 05 bf 87 da 05 bf 0d 3c 71 3f
       -2.2128446 -0.51991713 -0.5228657 0.94232255
000020 6f 06 84 3f 8d 54 12 40 f7 2f 04 c1 b0 f8 68 40
       1.0314463 2.2864106 -8.26171 3.6401787
000030 25 76 50 c0 76 db 9e 3f 17 09 6b be 67 9b c9 3e
       -3.257211 1.2410724 -0.22952686 0.39376375
000040 5c 89 15 40 27 db 22 bf 45 b7 a5 3d 69 85 71 bf
       2.3365088 -0.6361565 0.080915965 -0.9434419
000050 2d be 53 40 95 ca 78 bf 7b a4 6e bf ed 5c cb be
       3.3084824 -0.97184116 -0.9321973 -0.39719334
000060 10 e2 b7 c0 91 8c d9 3f 23 f1 fc bf 58 78 7f 3f
       -5.7463455 1.6996022 -1.9761089 0.99793005
000070 5c b8 89 c0 de 3f ec bf 8d 86 67 c0 aa 00 75 bf
       -4.303755 -1.8456991 -3.6175873 -0.9570414
000080 b5 ac f4 3f b0 fd 21 c0 20 e5 0e c1 87 4d f5 be
       1.9115206 -2.5311089 -8.930939 -0.4791071
000090 d6 9b 26 c0 1a b3 20 40 21 ce 8e bf 1c 9c 06 3e
       -2.6032615 2.5109315 -1.1156656 0.13145489
0000a0 4e 1d 89 be 95 ab d6 be e2 86 cc 3f 9e a0 09 c0
       -0.2678017 -0.41927782 1.5978663 -2.1504283
0000b0 7a 99 1d 40 4d 46 07 c0 83 f7 b2 3f 22 be 71 40
       2.4624925 -2.1136658 1.3981785 3.7772298
0000c0 84 d9 c7 bf 07 54 a1 3e d4 87 5a bc 41 d6 96 3d
       -1.5613256 0.3150942 -0.013338048 0.073650844
0000d0 97 59 12 3e 6c e2 58 3f 86 5e d4 3e 1b a1 eb 3e
       0.14291988 0.8472049 0.41478366 0.4602135
0000e0 db da 58 c1 d9 ae 54 be 0e 31 24 bf 7e 34 a7 3e
       -13.5534315 -0.20769824 -0.6413735 0.32657236
0000f0 37 1d 47 3f 4a 57 95 c0 8d e4 08 bf a8 1c 06 bf
       0.77778953 -4.6669054 -0.5347374 -0.52387476
000100 a0 c9 02 be d1 7f b3 3f c9 c4 21 3f e1 39 15 3f
       -0.12772226 1.4023381 0.63190895 0.5829144
000110 ed ac 14 3e d9 af 4f 3e e8 88 b7 3f 15 b6 9b bf
       0.14519091 0.20281924 1.4338655 -1.2164942
000120 b7 ae 03 c0 b9 52 9f 3e ae c5 a3 be 95 70 a3 be
       -2.0575387 0.311178 -0.31986755 -0.3192183
000130 87 8b b7 3f 72 c2 0b bf 59 1d 87 bc cc 3a 07 40
       1.4339455 -0.54593575 -0.016493486 2.1129637
000140 0f 3f 32 c0 33 47 05 40 f6 d3 27 40 31 85 7a c0
       -2.7850988 2.0824707 2.622312 -3.9143794
000150 a2 a8 1a 40 15 54 ea bf 43 f4 2a be 54 63 90 3d
       2.4165425 -1.830691 -0.16694741 0.07050195
000160 11 c2 63 c0 9f f9 4d 3e d3 44 92 be 36 e6 c5 3f
       -3.5587199 0.20114754 -0.28568134 1.546088
000170 e3 81 e3 be 1d 25 60 3f 10 c6 85 40 f4 ee 38 bf
       -0.44435033 0.8755663 4.1804276 -0.72239614
000180 c4 27 78 be be 1b 31 bf fb 33 84 be 8b 99 c5 3d
       -0.2423392 -0.69182956 -0.25820908 0.096484266
000190 40 1b a3 3f 4d e2 8c 3f a4 33 72 3f 4c 09 4e 3f
       1.2742691 1.1006562 0.9461005 0.80482936
0001a0 ac ea d2 40 1c 6f 29 bf 8a 1f 27 40 2d 1b 04 40
       6.5911465 -0.66185164 2.6113 2.0641587
0001b0 f0 6e c2 3e 6d 19 57 c0 da ec c5 3f 3f 4c 1c bf
       0.37975264 -3.3609269 1.5462906 -0.6105384
0001c0 94 87 3f c0 b3 7f d0 be 6f 6a c7 bf e1 5b 45 c0
       -2.99265 -0.40722427 -1.5579356 -3.0837328
0001d0 21 3b 98 40 05 d3 da c0 f6 6d 65 bf a0 a2 43 c0
       4.757218 -6.838259 -0.8962091 -3.0568008
0001e0 a3 a0 3c be 0f 1d 95 be a2 19 b9 be 2f ec f8 bd
       -0.18420653 -0.29123732 -0.3615237 -0.121544234
0001f0 d5 d2 8f be 62 f2 d9 be e8 55 b2 be 68 65 7d be
       -0.2809054 -0.42567736 -0.34831166 -0.24745715
000200 d4 20 e6 3d 8e 96 09 be c0 9d 09 3c 18 89 9b bd
       0.1123673 -0.13436338 0.008399427 -0.07594508
000210 62 ad 29 bf 1a 9a 8b 40 77 03 d7 3d 56 06 01 bc
       -0.66280186 4.362561 0.10498708 -0.007875046
000220 24 bd f5 3e c0 92 04 40 96 da 54 3f 61 ec d3 3e
       0.47995865 2.071457 0.83146036 0.4139128
000230 07 08 80 40 e7 64 42 3f a5 6f f6 bf 63 28 fe be
       4.00098 0.75935215 -1.9252821 -0.49640188
000240 9d 52 1b c0 da 13 08 c0 3c 0b 6d 3e e7 57 fb 3e
       -2.4269173 -2.1262116 0.23148817 0.49090502
000250 c6 7f fb bf 38 89 93 3f 9f cb 6c bf 62 75 a6 be
       -1.9648368 1.1526251 -0.924982 -0.3251143
000260 18 69 71 40 96 20 1b c0 83 f6 db 3e 20 a1 1a c1
       3.7720394 -2.423864 0.4296151 -9.664337
000270 90 56 f1 3f e7 a2 1d 40 be b6 08 be 0f 72 ac 3e
       1.8854542 2.4630678 -0.1335096 0.3368077
000280 fc 22 00 3e 1c 12 c5 be 4a d9 9c bf 9f e4 28 c0
       0.12513345 -0.3849038 -1.2253811 -2.638954
000290 a8 4e 44 c0 ff e1 98 3f f6 66 38 be e9 f0 9d 3f
       -3.0673008 1.1943969 -0.18008026 1.2339145
0002a0 28 82 bd bf 64 87 e7 c0 9c eb ce 3f 49 ee a1 bf
       -1.4805346 -7.235277 1.6165652 -1.2650844
0002b0 04 88 4e be 45 11 6f c0 10 ef f4 c0 f5 41 b0 bf
       -0.20169073 -3.735429 -7.6541824 -1.3770128
0002c0 c2 0f b0 3f bd db f2 bf ca e5 64 c0 b2 a3 94 c0
       1.3754809 -1.8973309 -3.5765252 -4.6449823
0002d0 2c 66 24 c0 a7 e2 48 3f e4 0d ed 3d 1e e9 f8 3e
       -2.568736 0.78470844 0.11574915 0.48615354
0002e0 e8 6d 1d c0 cd 61 67 40 be 65 59 bf f1 1e 8b 3f
       -2.4598331 3.6153443 -0.8492087 1.0868818
0002f0 65 54 d9 3f 0d 5f 92 bf f8 93 6b c0 43 e5 44 40
       1.697888 -1.1435257 -3.6809063 3.076493
000300 4a af ef be f6 cd 0e 40 97 10 b6 bf 9c 56 ef 3f
       -0.46813422 2.2313209 -1.4223813 1.8698306
000310 ca 73 3e c0 52 2f 3e bf 0b 39 e6 3e 09 5e 18 c0
       -2.9758172 -0.74290955 0.44965395 -2.3807395
000320 52 a7 3c 3e fe a4 9f 40 4f c1 9e 40 a6 48 01 40
       0.18423203 4.9888906 4.9610972 2.020059
000330 47 49 14 40 46 02 4b bf 04 6e 92 be 0b af 0a 3e
       2.3169725 -0.79300344 -0.2859956 0.13543336
000340 02 9d 81 3f d0 02 d6 3e 53 bf e7 3e 77 f5 87 bd
       1.012604 0.4179902 0.45263156 -0.066386156
000350 c7 57 c7 40 90 27 1a 3e d2 3c ba c0 db cb 6e bf
       6.229465 0.15054154 -5.8199244 -0.9327981
000360 95 66 12 c0 d1 c6 da bf 4e 26 68 3e 99 8e 9e 3d
       -2.287511 -1.7091924 0.22670862 0.07742042
000370 29 52 6c 3f f6 7f e1 3e 05 e3 97 be 98 42 c9 bf
       0.92312866 0.4404294 -0.2966539 -1.5723448
000380 c4 dc de 3f 36 02 25 3e 7d 9c 25 bf b0 f7 67 c0
       1.7411122 0.16114125 -0.6469191 -3.6244926
000390 58 a9 52 bf c9 d1 0b c1 0c 31 fb 3d 1e 9b 59 bf
       -0.8228965 -8.738717 0.12265214 -0.85002315
0003a0 f4 78 2a c0 cf e1 f3 bf 86 3e 39 3e 76 7f b0 3f
       -2.6636324 -1.9053286 0.18090257 1.3788898
0003b0 11 b0 08 40 08 93 22 bf c0 2e 49 c1 9a a8 b6 40
       2.1357462 -0.635056 -12.573914 5.7080812
0003c0 9a 4a a2 c0 81 e5 b4 c0 43 f5 71 3f c2 4f fb bf
       -5.0716066 -5.6530156 0.94514865 -1.9633715
0003d0 ff df 14 c0 24 d4 85 bd 99 f5 28 bf 1e 02 ee be
       -2.3261716 -0.06534603 -0.6599975 -0.4648599
0003e0 9f b8 80 40 ea 85 28 3f 5e ac b1 3f dc 29 ba 40
       4.0225368 0.65829337 1.3880727 5.81761
0003f0 96 48 e6 3f 2b 31 33 c0 a0 f6 89 3f 05 e4 fc 3f
       1.7990901 -2.799876 1.0778389 1.9757086

0.bias f4 [24]
000000 ec 86 7d 3f 2f 6c 31 40 3f 0d ae 3e 9a 66 f2 3f
       0.99034 2.772228 0.3399448 1.8937562
000010 ce c5 16 41 a0 c3 94 40 ca 78 38 40 fd dc 9a 3e
       9.423292 4.64888 2.8823724 0.30246726
000020 fc 2b 9d bf 21 cc 57 3f 97 7c fb be 3c 7e a7 bf
       -1.2279048 0.8429585 -0.49118492 -1.3085399
000030 5a 85 c1 40 56 af 24 40 59 a9 c0 3f e6 4b 5e 40
       6.0475283 2.5732017 1.5051681 3.4733825
000040 17 80 43 40 fb 2f 54 c0 2f 5c cd 40 8e be 78 3f
       3.054693 -3.3154285 6.417503 0.97165763
000050 fc 60 02 40 68 90 a6 bd 14 f2 4c ba e4 9c ec 3e
       2.0371695 -0.08133012 -0.0007818055 0.46213448

2.weight f4 [24, 24]
000000 3f 2c 21 bb f1 20 b6 bd dc 23 b4 3d 26 18 83 be
       -0.0024593023 -0.08893002 0.08795902 -0.2560436
000010 bc a9 dd bc 00 68 24 bc 0d a6 8c bd 9e 1d 93 3d
       -0.027058475 -0.010034561 -0.06867609 0.071833834
000020 4d 9e 0a be 07 95 99 bd 20 e7 c6 3c 0b 34 30 be
       -0.1353695 -0.07499128 0.02428013 -0.17207353
000030 de b3 99 be c6 a7 ba bd 78 ed 7e be 37 66 9f be
       -0.3002004 -0.091140315 -0.24895275 -0.3113267
000040 bb c1 4c bd 8a 19 26 be 6c 30 20 bd f2 b2 fe bc
       -0.049989443 -0.1622068 -0.03910868 -0.031091187
000050 5f 6b 03 bd ee 4f d6 3c f1 60 2c be 78 3e d1 bd
       -0.03208482 0.02616116 -0.16833855 -0.10216993
000060 dd 3f c7 40 2b cb 09 c0 8f 13 64 40 6a 35 b4 bf
       6.226546 -2.1530254 3.5636938 -1.4078801
000070 69 b1 dd be c9 bd 56 c0 b0 9c e6 bf df 30 28 c1
       -0.43299416 -3.3553336 -1.8016567 -10.511931
000080 28 12 d2 3f ed 78 ea 3f 03 22 02 be 41 ba 48 3f
       1.6411791 1.8318154 -0.12708287 0.784092
000090 3c ab ae 3e 5e 45 d6 c0 f7 da d7 40 af 12 15 c1
       0.34115016 -6.6959677 6.745479 -9.317061
0000a0 7b 46 7f be 38 d0 68 bf d8 51 ab bd c3 ae 2f 40
       -0.2492923 -0.90942717 -0.0836522 2.7450416
0000b0 28 2a 3a c0 22 f3 a9 c0 78 24 b9 c0 3c 51 1f c1
       -2.908823 -5.3109293 -5.7857018 -9.957333
0000c0 0f 7f 75 bc db 73 52 bd 56 49 19 3e 69 0c 06 be
       -0.014983906 -0.05138002 0.14969382 -0.13090672
0000d0 26 1b da 3c 2c 3a 37 be cd 58 5e be 5f c5 57 be
       0.026624274 -0.17893285 -0.21713562 -0.21071385
0000e0 69 60 5f be c4 56 9b 3d 66 b8 02 3e 8d 16 4f be
       -0.21814121 0.075849086 0.12765655 -0.20223446
0000f0 bb 7d 00 bd e6 d1 48 be d4 c8 43 bb d6 f7 91 be
       -0.031369906 -0.1961132 -0.0029874342 -0.28509396
000100 28 57 9e 3d 50 85 19 be d4 53 ec 3d bc ef 1a bd
       0.077314675 -0.14992261 0.115394264 -0.037826285
000110 f3 2b 41 3d bb 33 39 3d 4b db 4a bd 57 92 3b 3d
       0.047161054 0.04521535 -0.04952554 0.045793857
000120 29 7e a0 c0 02 d0 d8 c0 e4 97 f8 bf 4c d3 70 3f
       -5.0154004 -6.7753916 -1.9421353 0.94072413
000130 b7 46 1f c1 15 05 13 bf d4 b5 ff bf b5 c2 df 3f
       -9.954764 -0.5742963 -1.9977365 1.7481295
000140 6e 96 9e 3d da f2 8c 40 47 04 10 be cc e9 ca 3e
       0.07743536 4.404645 -0.14064132 0.39631498
000150 3d 03 20 40 d3 8c aa 3f 4b 51 2b 40 af df 29 c0
       2.5001976 1.3324226 2.6768367 -2.6542776
000160 fe 49 3d c1 01 27 19 40 94 01 f2 bf cb c0 ab bf
       -11.8305645 2.3930056 -1.8906732 -1.3418211
000170 0d 9c f9 40 a7 de d7 be 63 9c 34 c1 eb 36 d4 bf
       7.800299 -0.42162058 -11.28818 -1.657926
000180 b7 2b b2 40 a8 68 f5 bf 90 88 d5 3f 97 f3 c0 bf
       5.5678363 -1.9172564 1.66823 -1.5074338
000190 cd e6 c2 3f 3b a5 ab 3e 35 0c 27 c0 f0 58 36 c1
       1.5226685 0.33524498 -2.61012 -11.396713
0001a0 da 34 bf 3f 0c 4d 88 3f fd c0 e3 bd 36 ed 34 c0
       1.4938004 1.0648513 -0.11120794 -2.8269782
0001b0 64 a4 4b 40 d9 45 b0 c0 f4 53 9c 3e eb e4 10 c1
       3.1819086 -5.5085263 0.305328 -9.055888
0001c0 69 15 03 40 b5 1e 56 40 3f 50 37 40 ac 9a 53 40
       2.0481818 3.3456242 2.8642728 3.3063154
0001d0 b2 4e 86 c0 16 8f 48 c0 33 97 bb c0 29 48 03 c1
       -4.1971064 -3.1337333 -5.862207 -8.205117
0001e0 6d 76 95 be 77 c9 51 be 92 af 5c bd c1 e8 a5 bd
       -0.29191914 -0.20487009 -0.053878374 -0.08101035
0001f0 4c 8e af bd bc 4d 0b be 17 01 72 be 46 e2 df 3c
       -0.08572063 -0.13603872 -0.23633228 0.027329575
000200 03 e3 a6 be 87 e8 20 3d 44 21 eb 3d e9 6c 85 3d
       -0.3259507 0.039284255 0.11480954 0.065149136
000210 09 e3 8d be 26 67 c4 bd 69 76 88 3d a8 5d 50 be
       -0.27712277 -0.095899865 0.0666321 -0.20348227
000220 5d 6e 81 bd 7a 81 1f be a1 67 a9 3d b8 2e a4 3c
       -0.06319878 -0.15576735 0.08271719 0.020041808
000230 08 55 68 3d e2 4b 37 be 4d 19 63 be 1b cb 08 bf
       0.056721717 -0.17900041 -0.2217762 -0.53434914
000240 2c ce a1 c0 e9 56 f1 bf 47 df c0 bf 8c 50 99 be
       -5.0564175 -1.8854648 -1.5068139 -0.29944265
000250 95 9b 40 c0 f2 ab 29 c0 9a b1 62 c0 36 95 0d c1
       -3.009496 -2.6511197 -3.54209 -8.848928
000260 c6 23 a2 bf 5b fb b4 40 ec 22 84 bd 5b 9a 02 3f
       -1.2667167 5.655683 -0.06451973 0.5101678
000270 ea 7f dc 3f 0f 2e e8 c0 fe e2 ca 40 ee c5 58 3f
       1.7226536 -7.2556224 6.340209 0.84677017
000280 fd 22 18 c1 ac 80 a1 bf 65 28 85 bf 6c eb 49 40
       -9.508542 -1.2617393 -1.0402952 3.154994
000290 4f ec 98 40 5b 68 48 40 0f 47 1a c1 35 43 b7 c0
       4.7788463 3.1313694 -9.642348 -5.726954
0002a0 b3 d6 b8 c0 c4 0d 0b c1 bd df 39 c0 cc 26 31 3a
       -5.7762084 -8.690861 -2.904281 0.00067577953
0002b0 fa 72 6d c0 4f 7c 84 bf c4 37 8b c0 83 9b 7d c0
       -3.7101426 -1.0350436 -4.3505573 -3.9626167
0002c0 0b de a1 bf 0d bd 1c be 80 c2 55 be e2 51 03 3f
       -1.2645887 -0.15306492 -0.20874977 0.5129682
0002d0 62 b7 b8 3e 38 fe af c0 66 81 17 c0 00 8c 1b 3e
       0.3607741 -5.4997826 -2.3672729 0.15190125
0002e0 55 ae 01 c1 02 a7 ba bf 4c 61 64 c0 e9 8e fc 3f
       -8.105062 -1.4582217 -3.5684385 1.9731113
0002f0 35 53 39 40 35 5f a5 3f 35 32 ef c0 38 e8 23 c0
       2.8957036 1.291968 -7.474879 -2.5610485
000300 6e 12 24 be b2 b8 90 be c6 4f 81 bd c6 99 91 be
       -0.16022655 -0.2826591 -0.06314044 -0.28437632
000310 6d 83 2f be b3 b3 8d bd 8a 51 83 bc c9 6c 0d bd
       -0.17139979 -0.069190405 -0.016030092 -0.034527574
000320 e6 fb a2 be c6 12 df bd c0 32 01 bd 32 37 22 be
       -0.31832808 -0.108922526 -0.03154254 -0.15841368
000330 4b 40 ce be 63 4b 1e be 4c 77 4b bd 7f 13 43 bd
       -0.40283427 -0.15458445 -0.049674317 -0.047626015
000340 07 05 73 bd e6 ce d1 be 6f 76 b9 be 31 74 17 be
       -0.059330966 -0.40978163 -0.3622317 -0.14790417
000350 62 86 5a be bd cc 07 3b 6f aa 9b 3c 70 6d 9b be
       -0.21340325 0.0020721399 0.019002168 -0.30356932
000360 4d 81 b6 c0 e2 91 dd c0 e1 6e 52 c0 bf a9 3d 3f
       -5.703284 -6.924058 -3.2880175 0.74087137
000370 e9 e7 86 c0 90 3a 5b bf 7c 2b 99 c0 39 f2 42 c0
       -4.2158093 -0.85636234 -4.786558 -3.046034
000380 6b 85 c2 bf f5 e8 38 3f 6a 6b 2d be 32 d0 90 bf
       -1.5196966 0.72230464 -0.16935506 -1.1313536
000390 f8 0f 9f 3f a3 84 9d c0 0f 4b f9 bf bb 97 c7 be
       1.2426748 -4.922441 -1.9476031 -0.3898295
0003a0 f8 e7 1f c1 ef 55 e6 bf 29 7b f3 bf 02 97 d3 3f
       -9.994133 -1.7994975 -1.902196 1.6530459
0003b0 80 2f 21 40 52 61 c0 3f f9 cb 09 c1 52 58 41 c0
       2.5185242 1.50297 -8.612298 -3.0210156
0003c0 af 5f a3 40 cf bc 27 be 8a a5 a2 3f de 05 c0 bf
       5.10543 -0.16380619 1.2706769 -1.500179
0003d0 c7 29 4e 40 68 b3 06 bf fc 06 2c c0 db f8 88 c0
       3.2213 -0.526175 -2.6879263 -4.280378
0003e0 46 77 c9 3e e9 15 e2 3d ec 41 de 3d 85 f2 3a c0
       0.3934881 0.11039335 0.10852417 -2.9210522
0003f0 cd ac 8a 40 83 df 7b c0 a5 60 84 c0 d2 8e 92 c0
       4.333594 -3.935517 -4.1367974 -4.579934

2.bias f4 [24]
000000 c1 f4 97 bc f1 82 0b bf be 97 a3 bd 62 be ca c0
       -0.018549325 -0.54496676 -0.07987927 -6.33574
000010 43 b5 4a 3f 11 3b 50 be d0 86 6d bf 38 f5 49 c0
       0.79182833 -0.20335032 -0.9278383 -3.155592
000020 bf 80 81 be 24 1b 41 c0 08 0b 05 3d 43 55 94 3c
       -0.25293538 -3.0172815 0.032481223 0.018107062
000030 f0 e0 c4 3e 45 39 72 c0 a5 42 f2 bf 12 53 51 bf
       0.38452864 -3.7847455 -1.8926588 -0.8176738
000040 67 2e 8f 40 ed b1 a4 40 f5 94 4f be 15 fc 3c c0
       4.4744143 5.1467195 -0.20271666 -2.9528859
000050 50 c8 05 bf 2c 01 42 40 a3 01 87 c0 ef d3 86 c0
       -0.5225878 3.0313215 -4.21895 -4.213371

4.weight f4 [4, 24]
000000 09 aa 7d bd 6d 7b 07 41 90 45 1a 3e 94 00 40 40
       -0.061929736 8.467633 0.15065598 3.0000353
000010 57 30 56 bd 00 19 0c 3b d2 8c 94 c0 1a 20 c5 3f
       -0.052292194 0.0021377206 -4.64219 1.5400422
000020 7d 4c 69 be c3 af 79 40 9e 94 c3 40 f4 3d 78 3f
       -0.22783084 3.9013526 6.1118917 0.9696953
000030 6d 25 b8 bd 14 07 f0 be 9f 49 dc 40 44 a5 91 40
       -0.089915134 -0.468804 6.883987 4.551424
000040 ed a0 73 3f 6c 80 f9 40 09 f0 42 bd 54 e0 55 40
       0.9516743 7.7969265 -0.047592197 3.341817
000050 8c 08 a9 c0 87 26 91 c0 a0 a7 c7 3f 04 f1 d7 40
       -5.2822933 -4.535953 1.559803 6.748171
000060 d9 c1 c9 bd 3c 80 f3 40 bd d8 19 3c 11 67 29 40
       -0.09851427 7.6094036 0.009390053 2.6469157
000070 9b 6d c0 40 86 d0 bc bc 20 80 01 41 91 b6 e7 40
       6.0133796 -0.02304865 8.0937805 7.241036
000080 8e 08 63 be ea 83 cc 40 75 8b d1 bf 1e f1 60 40
       -0.22171232 6.391103 -1.6370684 3.5147166
000090 00 97 b4 40 a7 d7 11 40 5d 23 46 41 94 63 92 40
       5.6434326 2.2787874 12.383634 4.5746555
0000a0 8b b0 e7 bf b8 8e ac 3f c3 74 02 3e 29 31 1b 41
       -1.8100752 1.3481054 0.12739854 9.699502
0000b0 2c 34 5b 3f 04 8b 01 c0 8e 8c 8d 40 76 75 8f c0
       0.8562648 -2.0241098 4.4234076 -4.4830885
0000c0 d4 30 70 3d 07 b9 54 c0 c1 48 66 3c de 6c f1 bf
       0.058640316 -3.3237932 0.014055432 -1.8861349
0000d0 fe 37 9b 3f 02 19 74 bd 31 5d e5 bf 7f b9 66 3f
       1.2126462 -0.05959416 -1.7919065 0.90126795
0000e0 b8 9e 5a 3e 47 87 4b be a1 9f 6c 40 32 56 02 41
       0.21349609 -0.19875823 3.697243 8.146044
0000f0 4f 5b 28 bf 72 df 63 3f 9a 95 61 40 83 f2 68 40
       -0.65764326 0.89012825 3.524756 3.6398017
000100 c8 df 91 40 e8 6c 0b 40 f4 93 1c bd 44 7f c7 3e
       4.558567 2.178522 -0.038227037 0.38964283
000110 cb 51 aa 40 45 6d 30 c0 8d ff aa 40 94 b3 bf 40
       5.3224845 -2.7566693 5.343695 5.990671
000120 15 71 74 bd f1 c2 dc 40 d5 d6 34 bd 51 3f 0c c1
       -0.059678156 6.8987966 -0.044150192 -8.765458
000130 19 32 cc 40 a8 1e b0 3d e5 04 6e c1 54 a6 84 c0
       6.3811154 0.08599597 -14.876195 -4.1453037
000140 30 15 f3 3d fc c7 de c0 db 81 b5 40 3d 0a 42 41
       0.118692756 -6.961912 5.6721015 12.1275
000150 b6 1c ae 3f 35 b7 23 40 61 8e 80 40 f7 15 ce 40
       1.3602512 2.558057 4.01738 6.4401813
000160 f0 dd 3b 40 0d 99 0d bf 09 74 06 bd f6 a0 ae c0
       2.935421 -0.5531166 -0.032825503 -5.4571486
000170 df 71 39 40 c4 7c d2 c0 c6 d6 85 40 40 5c ca 40
       2.8975751 -6.57773 4.1824675 6.323761

4.bias f4 [4]
000000 f4 08 f9 3f 0a 47 a2 40 c8 03 61 40 5c 44 6b bf
       1.9455857 5.0711718 3.5158558 -0.91901183
