logs/target_params_A_225_onehot.pt (torch, 6383 bytes, 6 tensors)

0.weight f4 [24, 12]
0	0xc010ee0d	-2.2645295
1	0x3f275a72	0.65372384
2	0xc0c43537	-6.131496
3	0xbfc23832	-1.51734
4	0xbfe6c0f8	-1.8027639
5	0xbf544c1e	-0.82928646
6	0xbebc3a19	-0.36763075
7	0x3f211d25	0.62935096
8	0x3fa13b6c	1.2596259
9	0x4016b5a0	2.3548355
10	0xc0ff1006	-7.970706
11	0x4081fff0	4.0624924
12	0xc028a26e	-2.634914
13	0x40114f37	2.27046
14	0x3c16bb56	0.009199938
15	0xbd81169b	-0.0630314
16	0x401d2088	2.4551105
17	0xbf687545	-0.9080394
18	0x3e78a6ee	0.24282429
19	0xbfd66cff	-1.6752013
20	0x4020a846	2.5102706
21	0xbf1717a0	-0.59020424
22	0xbfdbe936	-1.7180545
23	0x3f38e4f0	0.7222433
24	0xc0b7e210	-5.7463455
25	0x3fe837b6	1.8142002
26	0xbfd6a060	-1.6767693
27	0x3f971a1a	1.180484
28	0xc073fbff	-3.8122556
29	0xbff32671	-1.8996106
30	0xc06b1463	-3.6731193
31	0xbf58e4f8	-0.8472438
32	0x3ff4acb5	1.9115206
33	0xc021fdb0	-2.5311089
34	0xc10ee520	-8.930939
35	0xbef54d87	-0.4791071
36	0xc014f6bb	-2.3275592
37	0x403fa377	2.994352
38	0xbf39af6a	-0.72533286
39	0x3efbbfb0	0.49169683
40	0xbf06d987	-0.5267567
41	0xbd0a2950	-0.033730805
42	0x3fd02e2c	1.626409
43	0xc0199a59	-2.4000456
44	0x3feea7fe	1.8645017
45	0xc068597b	-3.6304615
46	0x3fd7853a	1.6837533
47	0x408685bc	4.203825
48	0xbfca1d58	-1.5790205
49	0xbd0945a2	-0.033513673
50	0xbd38b1cf	-0.045091446
51	0x3e6d5487	0.23176776
52	0x3cb2906d	0.021797383
53	0x3f6ca3ec	0.92437625
54	0x3e9a8852	0.3018213
55	0x3f09c1aa	0.5381113
56	0xc16595fb	-14.349116
57	0xbe0dc020	-0.13842821
58	0xbe698a86	-0.22806749
59	0x3ea0d2a3	0.31410703
60	0x3f8d8f95	1.1059443
61	0xc08cd181	-4.400574
62	0xbf078e48	-0.5295148
63	0xbcfe424f	-0.031037478
64	0xbdbb88a1	-0.09156919
65	0x3fe64013	1.7988304
66	0x3e158f4a	0.14605442
67	0x3f77a1fb	0.9673154
68	0xbf051b5c	-0.5199487
69	0xbe18b0b3	-0.14911155
70	0x3fa56697	1.2921933
71	0xbf699d4e	-0.9125565
72	0xbff92351	-1.9463903
73	0xbe353e6d	-0.17699595
74	0xbf27c6b1	-0.65537554
75	0xbeb39bac	-0.35079706
76	0x3fa6c106	1.3027656
77	0xbefcb330	-0.4935546
78	0x3ea6790e	0.32514232
79	0x4006ae02	2.1043706
80	0xc038195f	-2.8765485
81	0x3ff61698	1.9225645
82	0x403eb56a	2.9798226
83	0xc08fb9a7	-4.4914126
84	0x400f5355	2.2394612
85	0xc03922e2	-2.892754
86	0xbf905fd9	-1.127925
87	0x3fbb190d	1.461702
88	0xc04935da	-3.1439118
89	0x3f5ddf0a	0.86668456
90	0xbe27e61f	-0.16396378
91	0x3f5066b6	0.81406724
92	0xbf0b9994	-0.54531217
93	0x3f92e76a	1.1476872
94	0x403c9829	2.946787
95	0xbfdfc4cd	-1.7481934
96	0x3dba30cb	0.09091338
97	0xbf4fb99a	-0.8114258
98	0xbf0026aa	-0.50058997
99	0xbd6ba7eb	-0.057533186
100	0x3f8e38de	1.1111104
101	0x3fd07fbb	1.628898
102	0x3f2813d7	0.65655273
103	0x3f77d10e	0.9680337
104	0x40d25ce8	6.573841
105	0xbf9ef55d	-1.2418629
106	0x40507dac	3.2576704
107	0x3ee094ee	0.43863624
108	0xbf2f5143	-0.6848337
109	0xbfd7b9ae	-1.685354
110	0x3f96d7e6	1.1784637
111	0x3d7722a2	0.060335763
112	0xc0098f93	-2.149388
113	0x3ee2e5a1	0.44315818
114	0xbf6c36b9	-0.92271
115	0xc06770da	-3.616263
116	0x40875416	4.2290144
117	0xc0bf973f	-5.9872127
118	0xbe4c6a27	-0.19962369
119	0xbf9e4002	-1.2363284
120	0xbe3ca0a3	-0.18420653
121	0xbe951d0f	-0.29123732
122	0xbeb919a2	-0.3615237
123	0xbdf8ec2f	-0.121544234
124	0xbe8fd2d5	-0.2809054
125	0xbed9f262	-0.42567736
126	0xbeb255e8	-0.34831166
127	0xbe7d6568	-0.24745715
128	0x3de620d4	0.1123673
129	0xbe09968e	-0.13436338
130	0x3c099dc0	0.008399427
131	0xbd9b8918	-0.07594508
132	0xbf75a638	-0.95956755
133	0x407a8b68	3.9147587
134	0x3ead0ad2	0.33797318
135	0x3f0ffe02	0.5624696
136	0x3ee5780b	0.44818148
137	0x400535aa	2.0814004
138	0x3ec3c69a	0.38237458
139	0x3f1544f4	0.5830834
140	0x40902cba	4.50546
141	0x3f80f454	1.0074563
142	0xbfbeb252	-1.4898169
143	0x3f130caa	0.574412
144	0xc07bbd0d	-3.9334137
145	0xc0201858	-2.5014858
146	0xbec087ff	-0.37603757
147	0x3f545497	0.82941574
148	0xbf7b4285	-0.98148376
149	0x3fdfeb70	1.7493725
150	0xbfb634cc	-1.4234862
151	0xbf50827a	-0.8144909
152	0x4084b717	4.14735
153	0xc02f2e4b	-2.7372005
154	0x3f930b95	1.148791
155	0xc128a6a6	-10.540686
156	0x4002f450	2.0461617
157	0x4003a299	2.0567992
158	0x3f0b9262	0.5452024
159	0x3e26f253	0.16303377
160	0xbdffc8df	-0.12489485
161	0xbe1a87cf	-0.1509087
162	0xbfa49720	-1.285862
163	0xc0069066	-2.1025634
164	0xc05d3e3f	-3.4569242
165	0x3fc99ab8	1.5750341
166	0xbf0a5a91	-0.54044443
167	0x40099e9d	2.150306
168	0xbf1c7e98	-0.61130667
169	0xc0e78764	-7.235277
170	0x400d73f8	2.2102032
171	0xbf4b5473	-0.79425734
172	0xbfb98ba4	-1.449574
173	0xc00a25d7	-2.1585596
174	0xc0d36948	-6.6066017
175	0xbe324582	-0.17409328
176	0x3f877e3e	1.0585401
177	0xc0689050	-3.6338081
178	0xbf6b312c	-0.91871905
179	0xc094a3b2	-4.6449823
180	0xbff9f4ed	-1.952787
181	0x3c797058	0.015224539
182	0x3e084684	0.1330815
183	0x3f6e9112	0.9319011
184	0xc0074c54	-2.1140337
185	0x405e7408	3.475832
186	0xbf7f1438	-0.99640226
187	0x3ff5ca49	1.9202358
188	0x3f7491d5	0.9553502
189	0xbfa09026	-1.2543991
190	0xc0a6d411	-5.213387
191	0xbe38780b	-0.18014543
192	0xbf2cb065	-0.67456657
193	0x400b6f7a	2.178679
194	0xbfce9f71	-1.6142408
195	0x400c4d0a	2.192202
196	0xc03db7ba	-2.9643388
197	0xbeec9240	-0.4620533
198	0x3f3100ff	0.69142145
199	0xc00ceecc	-2.202075
200	0xbf2b23ab	-0.668513
201	0x40a4ac3c	5.1460247
202	0x40685256	3.6300254
203	0x4063bbcc	3.5583372
204	0x401513de	2.3293376
205	0xbe811bc2	-0.2521649
206	0xbe6355bf	-0.22200678
207	0x3ea1d1a3	0.31605253
208	0x3f0c5291	0.54813486
209	0x3ecf8026	0.40527457
210	0x3ee4abf4	0.4466244
211	0xbe29c560	-0.16579199
212	0x40cbee27	6.3728213
213	0xbf036485	-0.51325256
214	0xc0b710a4	-5.7207813
215	0xbffdda7f	-1.9832305
216	0xc0074b2f	-2.1139638
217	0xc0266160	-2.5996933
218	0x3f4ae337	0.7925295
219	0x3f501eef	0.812972
220	0x3f8e7108	1.1128244
221	0x3d030ed7	0.031996574
222	0xbecea985	-0.40363708
223	0xbfe83ec5	-1.8144156
224	0x3ffbfe40	1.9686966
225	0x3f84e76f	1.0383128
226	0xbf94cce5	-1.1625029
227	0xc069a3ea	-3.6506295
228	0xbff848b4	-1.9397187
229	0xc0ea2d15	-7.318003
230	0xbeac6852	-0.3367334
231	0xbdaf7bf9	-0.08568568
232	0xc00fae1c	-2.2450018
233	0xc01e9a8d	-2.478183
234	0x3f5c2505	0.8599399
235	0x3fe21641	1.7663041
236	0x3f9c6fbf	1.2221602
237	0xbfaa550e	-1.3307207
238	0xc13cfa0e	-11.8110485
239	0x40a6d23a	5.2131624
240	0xc08f0c49	-4.4702497
241	0xc08c775b	-4.3895698
242	0x3f462caf	0.7741193
243	0x3e9ac449	0.3022788
244	0xbfecbd79	-1.8495322
245	0xbe980246	-0.29689234
246	0xbfb9d924	-1.4519391
247	0x3c383b5e	0.011244623
248	0x407ae85d	3.9204323
249	0x3ee9e546	0.45682734
250	0x3fde6fa4	1.737782
251	0x408d147b	4.40875
252	0x3fe4716a	1.7847111
253	0xbfc1f338	-1.515235
254	0x3f98ec3c	1.1947093
255	0x3fe044a3	1.7520946

0.bias f4 [24]
0	0x3f89c07d	1.0761868
1	0x3ffbfdf1	1.9686872
2	0x3ef592a1	0.4796343
3	0x3f36ed02	0.71455395
4	0x411012ec	9.00462
5	0x405ed2b1	3.4816096
6	0x4024bf80	2.5741882
7	0x3f8385c1	1.0275193
8	0xbfaaf9af	-1.3357447
9	0x3f00d535	0.5032533
10	0xbefb7c97	-0.49118492
11	0xbf90c4b8	-1.1310034
12	0x40a15b5e	5.042403
13	0x40003d2e	2.003734
14	0x3f623b62	0.8837186
15	0x406aadfa	3.6668687
16	0x40085bbc	2.130599
17	0xc043ecea	-3.061335
18	0x40ae5fe2	5.4492044
19	0x3f1c0b5c	0.60954833
20	0x3fe0fc34	1.7576966
21	0xbf132515	-0.5747846
22	0x3ea2293b	0.3167208
23	0xbab10ba2	-0.0013507495

2.weight f4 [24, 24]
0	0xbb212c3f	-0.0024593023
1	0xbdb620f1	-0.08893002
2	0x3db423dc	0.08795902
3	0xbe831826	-0.2560436
4	0xbcdda9bc	-0.027058475
5	0xbc246800	-0.010034561
6	0xbd8ca60d	-0.06867609
7	0x3d931d9e	0.071833834
8	0xbe0a9e4d	-0.1353695
9	0xbd999507	-0.07499128
10	0x3cc6e720	0.02428013
11	0xbe30340b	-0.17207353
12	0xbe99b3de	-0.3002004
13	0xbdbaa7c6	-0.091140315
14	0xbe7eed78	-0.24895275
15	0xbe9f6637	-0.3113267
16	0xbd4cc1bb	-0.049989443
17	0xbe26198a	-0.1622068
18	0xbd20306c	-0.03910868
19	0xbcfeb2f2	-0.031091187
20	0xbd036b5f	-0.03208482
21	0x3cd64fee	0.02616116
22	0xbe2c60f1	-0.16833855
23	0xbdd13e78	-0.10216993
24	0x40c1ccc2	6.056245
25	0xc0865ef6	-4.199092
26	0x4064138f	3.5636938
27	0xbfe37a79	-1.7771751
28	0x40291b10	2.6422768
29	0xbfcf4edd	-1.6195942
30	0xc04fe89a	-3.2485719
31	0xc1338893	-11.220843
32	0x3fd37711	1.6520711
33	0x3fea78ed	1.8318154
34	0xbe022203	-0.12708287
35	0xbe55824d	-0.20850487
36	0x3fdfb1f0	1.7476177
37	0xc0e55af7	-7.167354
38	0x4103301c	8.199245
39	0xc10be028	-8.742226
40	0xbdb6990b	-0.089159094
41	0x3ec70b15	0.38875642
42	0x3f8b82ea	1.0899327
43	0x402c464f	2.6917913
44	0xc01c65bf	-2.44371
45	0xc09e7d05	-4.952761
46	0xc0b92478	-5.7857018
47	0xc0c61e56	-6.191203
48	0xbc757f0f	-0.014983906
49	0xbd5273db	-0.05138002
50	0x3e194956	0.14969382
51	0xbe060c69	-0.13090672
52	0x3cda1b26	0.026624274
53	0xbe373a2c	-0.17893285
54	0xbe5e58cd	-0.21713562
55	0xbe57c55f	-0.21071385
56	0xbe5f6069	-0.21814121
57	0x3d9b56c4	0.075849086
58	0x3e02b866	0.12765655
59	0xbe4f168d	-0.20223446
60	0xbd007dbb	-0.031369906
61	0xbe48d1e6	-0.1961132
62	0xbb43c8d4	-0.0029874342
63	0xbe91f7d6	-0.28509396
64	0x3d9e5728	0.077314675
65	0xbe198550	-0.14992261
66	0x3dec53d4	0.115394264
67	0xbd1aefbc	-0.037826285
68	0x3d412bf3	0.047161054
69	0x3d3933bb	0.04521535
70	0xbd4adb4b	-0.04952554
71	0x3d3b9257	0.045793857
72	0xc0a07e29	-5.0154004
73	0xc0ca15be	-6.315154
74	0xbff897e4	-1.9421353
75	0x3f90a723	1.1301006
76	0xc10be7c0	-8.74408
77	0xbfe296e8	-1.7702303
78	0xc0161e93	-2.345616
79	0x40243200	2.5655518
80	0x3ec9c99d	0.3941163
81	0x406f964e	3.7435489
82	0xbe100447	-0.14064132
83	0x3f87a6de	1.0597799
84	0x3ffa1370	1.9537182
85	0x3e5949fc	0.21219629
86	0x402d6782	2.7094426
87	0xc01eceb4	-2.4813662
88	0xc120b658	-10.0445175
89	0x40084660	2.1292953
90	0xbf05a392	-0.52202713
91	0xbe7b0d07	-0.24516688
92	0x40d93b63	6.7884994
93	0xbe9b89b5	-0.303785
94	0xc11e8ef2	-9.909899
95	0xbf2d17af	-0.67614263
96	0x40d92d70	6.7867966
97	0xc018af80	-2.3857117
98	0x3fd58890	1.66823
99	0xbf961c04	-1.17273
100	0x3e14c498	0.1452812
101	0x3f374aec	0.71598697
102	0xc04c5319	-3.1925719
103	0xc128f05e	-10.558683
104	0x3fb2c016	1.396487
105	0x3ec94c3d	0.39315978
106	0xbde3c0fd	-0.11120794
107	0xc0429bec	-3.0407667
108	0x3ff76a25	1.9329268
109	0xc0ca5af5	-6.323603
110	0x3fe3523c	1.7759471
111	0xc111bb43	-9.108218
112	0x3ffd5cb9	1.9793922
113	0x402e27ec	2.7211866
114	0x4042ab13	3.0416915
115	0x3f3b6142	0.7319528
116	0xc05c8204	-3.4454355
117	0xc0ad0a6d	-5.4075227
118	0xc0bb9733	-5.862207
119	0xc10b9fd0	-8.726517
120	0xbe95766d	-0.29191914
121	0xbe51c977	-0.20487009
122	0xbd5caf92	-0.053878374
123	0xbda5e8c1	-0.08101035
124	0xbdaf8e4c	-0.08572063
125	0xbe0b4dbc	-0.13603872
126	0xbe720117	-0.23633228
127	0x3cdfe246	0.027329575
128	0xbea6e303	-0.3259507
129	0x3d20e887	0.039284255
130	0x3deb2144	0.11480954
131	0x3d856ce9	0.065149136
132	0xbe8de309	-0.27712277
133	0xbdc46726	-0.095899865
134	0x3d887669	0.0666321
135	0xbe505da8	-0.20348227
136	0xbd816e5d	-0.06319878
137	0xbe1f817a	-0.15576735
138	0x3da967a1	0.08271719
139	0x3ca42eb8	0.020041808
140	0x3d685508	0.056721717
141	0xbe374be2	-0.17900041
142	0xbe63194d	-0.2217762
143	0xbf08cb1b	-0.53434914
144	0xc0aae66a	-5.3406267
145	0xbfea46f5	-1.8302904
146	0xbfc0df47	-1.5068139
147	0xbe9349ed	-0.28767338
148	0xc05ba351	-3.431843
149	0xbfe22869	-1.7668582
150	0xc02f2642	-2.73671
151	0xc0d50325	-6.656634
152	0xbf31dc16	-0.6947645
153	0x4077b8e8	3.8706608
154	0xbd8422ec	-0.06451973
155	0x3f413cdf	0.75483507
156	0x3f79ae02	0.9753114
157	0xc0f7cbf4	-7.7436466
158	0x40d291ef	6.580314
159	0x3f6bc262	0.9209348
160	0xc12e9f4b	-10.91389
161	0xbf05131f	-0.519823
162	0xbf35c686	-0.7100605
163	0x40667e19	3.6014464
164	0x40a5761b	5.170667
165	0x40743fb7	3.8163888
166	0xc0e2f83f	-7.0928035
167	0xc083ab7d	-4.1146836
168	0xc0b8d6b3	-5.7762084
169	0xc10b0dc4	-8.690861
170	0xc039dfbd	-2.904281
171	0x3e3d81b1	0.18506505
172	0xc06d72fa	-3.7101426
173	0xbf79372f	-0.9734983
174	0xc08b37c4	-4.3505573
175	0xc07751d7	-3.86437
176	0xbf94f6eb	-1.1637853
177	0x3d60abb6	0.054851256
178	0xbe55c280	-0.20874977
179	0x3f12e00e	0.5737313
180	0x3eb8b762	0.3607741
181	0xc0ac13a1	-5.377396
182	0xc0178166	-2.3672729
183	0x3e1b8c00	0.15190125
184	0xc0fe122d	-7.9397187
185	0xbfab615a	-1.3389084
186	0xc0615c6c	-3.521266
187	0x4004a20a	2.07239
188	0x403fa5ba	2.9944901
189	0x3fc3b1fc	1.5288692
190	0xc0ef3235	-7.474879
191	0xc023e838	-2.5610485
192	0xbe24126e	-0.16022655
193	0xbe90b8b2	-0.2826591
194	0xbd814fc6	-0.06314044
195	0xbe9199c6	-0.28437632
196	0xbe2f836d	-0.17139979
197	0xbd8db3b3	-0.069190405
198	0xbc83518a	-0.016030092
199	0xbd0d6cc9	-0.034527574
200	0xbea2fbe6	-0.31832808
201	0xbddf12c6	-0.108922526
202	0xbd0132c0	-0.03154254
203	0xbe223732	-0.15841368
204	0xbece404b	-0.40283427
205	0xbe1e4b63	-0.15458445
206	0xbd4b774c	-0.049674317
207	0xbd43137f	-0.047626015
208	0xbd730507	-0.059330966
209	0xbed1cee6	-0.40978163
210	0xbeb9766f	-0.3622317
211	0xbe177431	-0.14790417
212	0xbe5a8662	-0.21340325
213	0x3b07ccbd	0.0020721399
214	0x3c9baa6f	0.019002168
215	0xbe9b6d70	-0.30356932
216	0xc0b6814d	-5.703284
217	0xc0dd4ed7	-6.915874
218	0xc0526ee1	-3.2880175
219	0x3f935b97	1.1512326
220	0xc086e7e9	-4.2158093
221	0xbf3790e1	-0.7170544
222	0xc0992b7c	-4.786558
223	0xc03f4fd1	-2.9892466
224	0xbf9e364c	-1.236032
225	0x3fbc3364	1.4703183
226	0xbe2d6b6a	-0.16935506
227	0xbf564d88	-0.83712053
228	0x3f9f0ff8	1.2426748
229	0xc0932a06	-4.59888
230	0xbff94b0f	-1.9476031
231	0xbec797bb	-0.3898295
232	0xc11886c5	-9.532903
233	0xbfbf89b7	-1.4963902
234	0xbfe0e3b8	-1.7569494
235	0x3fef8c07	1.8714608
236	0x40375377	2.8644693
237	0x40002a22	2.0025716
238	0xc109cbf9	-8.612298
239	0xc0415852	-3.0210156
240	0x40c156ee	6.0418615
241	0xbe7023bb	-0.2345113
242	0x3fa2a58a	1.2706769
243	0xbf4752d9	-0.7786079
244	0x4044a782	3.0727239
245	0xbe9b68d7	-0.30353424
246	0xc01710a8	-2.3603916
247	0xc0c6d68a	-6.213689
248	0x3ee95cc1	0.45578578
249	0x3e3cf7fb	0.18453972
250	0x3dde41ec	0.10852417
251	0xc035e916	-2.8423514
252	0x404d1b8e	3.2048068
253	0xc0a840a6	-5.2578917
254	0xbf41d985	-0.75722533
255	0xc0ee3db1	-7.4450307

2.bias f4 [24]
0	0xbc97f4c1	-0.018549325
1	0xbe6c2f6b	-0.23064964
2	0xbda397be	-0.07987927
3	0xc0909897	-4.5186267
4	0x3ea30d62	0.31846148
5	0xbe503b11	-0.20335032
6	0xbf1fe107	-0.6245274
7	0xc0419be2	-3.0251393
8	0xbe8180bf	-0.25293538
9	0xc02af320	-2.6710892
10	0x3daf6d16	0.08565728
11	0x3f53d4f0	0.8274679
12	0x3f5807c8	0.84386873
13	0xc064fe15	-3.578008
14	0xbfc6cb55	-1.5530802
15	0xbf7ae28e	-0.98001945
16	0x40701cc0	3.7517548
17	0x40a3e616	5.1218367
18	0xbe4f94f5	-0.20271666
19	0xc00b63c7	-2.177965
20	0xbeef3853	-0.4672266
21	0x40504ca5	3.254678
22	0xc0904030	-4.5078354
23	0xc0828027	-4.0781436

4.weight f4 [4, 24]
0	0xbd7daa09	-0.061929736
1	0x40df6401	6.9809575
2	0x3e1a4590	0.15065598
3	0x4002d28f	2.0441015
4	0x408ccfee	4.400382
5	0x3b0c1900	0.0021377206
6	0xc0347850	-2.8198433
7	0x3fd28200	1.6445923
8	0xbe694c7d	-0.22783084
9	0x40816f94	4.0448704
10	0x40aa677b	5.325132
11	0xbe86cf2a	-0.2632993
12	0xbe053d8e	-0.13011762
13	0x3e9d2e3e	0.30699342
14	0x40a2b4be	5.0845633
15	0x40824dbb	4.0719886
16	0x3f851938	1.0398321
17	0x40f5cd57	7.681316
18	0xbd42f009	-0.047592197
19	0x40846d47	4.1383395
20	0xc086de74	-4.214655
21	0xc03f57e9	-2.9897406
22	0x4046de1c	3.1073065
23	0x41052a6b	8.322856
24	0xbdc9c1d9	-0.09851427
25	0x40c63065	6.1934075
26	0x3c19d8bd	0.009390053
27	0x409e2233	4.9416747
28	0x40eee380	7.465271
29	0xbcbcd086	-0.02304865
30	0x40ec8acc	7.391943
31	0x40e7b691	7.241036
32	0xbe63088e	-0.22171232
33	0x40cc83ea	6.391103
34	0xbe42caf6	-0.19022736
35	0x3e4adcca	0.19810787
36	0x409ced8d	4.903998
37	0x400c11a5	2.188577
38	0x4128add7	10.542441
39	0x40a4acbc	5.1460857
40	0x3db6fec1	0.08935309
41	0xbf5ba98f	-0.858056
42	0x3e0274c3	0.12739854
43	0x40ac2387	5.379337
44	0x3fba5783	1.4557956
45	0xc02ede6a	-2.732325
46	0x4042ea4c	3.0455503
47	0xbfa8cd5f	-1.3187674
48	0x3d7030d4	0.058640316
49	0xbfce9803	-1.614014
50	0x3c6648c1	0.014055432
51	0x3f04f569	0.51936966
52	0x4025e94b	2.592364
53	0xbd741902	-0.05959416
54	0xc0597ccd	-3.3982422
55	0x3f66b97f	0.90126795
56	0x3e5a9eb8	0.21349609
57	0xbe4b8747	-0.19875823
58	0x40aca0da	5.394635
59	0x411d05b7	9.813895
60	0xbf28741d	-0.65802175
61	0x3f114f37	0.567615
62	0x409f4bce	4.9780035
63	0x40777cd1	3.8669932
64	0x4091c8c2	4.5557566
65	0x4015b67c	2.339263
66	0xbd1c93f4	-0.038227037
67	0xc086a210	-4.207283
68	0x40cda3f6	6.426265
69	0xbff84fc1	-1.9399339
70	0x40a8f7a5	5.28023
71	0x40bc05ee	5.875724
72	0xbd747115	-0.059678156
73	0x40c8e61b	6.278089
74	0xbd34d6d5	-0.044150192
75	0xc09fc3d7	-4.992656
76	0x40e27461	7.0767064
77	0x3db01ea8	0.08599597
78	0xc15b6e06	-13.714361
79	0xc084a654	-4.1453037
80	0x3df31530	0.118692756
81	0xc0dec7fc	-6.961912
82	0x40dd1c71	6.909722
83	0x414a5740	12.646301
84	0x3e6405fd	0.2226791
85	0x402842f6	2.629087
86	0x40d515ef	6.6589274
87	0x40c7d886	6.245181
88	0x40610567	3.5159547
89	0x3d977c34	0.07396737
90	0xbd067409	-0.032825503
91	0xc00270dc	-2.0381384
92	0x3fe7eef7	1.8119801
93	0xc0c5d8f7	-6.182735
94	0x40eea10a	7.457158
95	0x40a82f13	5.2557464

4.bias f4 [4]
0	0x3f929edb	1.1454729
1	0x40bb7b83	5.858827
2	0x4020d305	2.5128796
3	0xbfad882c	-1.3557181
