logs/target_params_B_2000.pt (torch, 6271 bytes, 6 tensors)

0.weight f4 [24, 12]
000000 de 6d 6c bc 5a c0 61 bd 35 81 f1 39 4f 22 81 bd
       -0.014430491 -0.05511508 0.0004606337 -0.06305372
000010 aa 58 f2 3c 08 a3 90 bc bb b0 2b bd 2e 22 ff bc
       0.029583294 -0.017655864 -0.04191659 -0.031144228
000020 d2 8f 1e 3e d7 b6 8c be 7f c3 92 be e2 8d b3 bd
       0.1548455 -0.27483246 -0.28664777 -0.087672964
000030 37 4f 96 be 5e 7d 8e be 11 39 7d 3a d0 4f 8b be
       -0.2935731 -0.27830023 0.00096596876 -0.2720933
000040 ab 44 de bc 67 6b 8e be 68 8b a8 be 6e b3 af be
       -0.027132353 -0.27816316 -0.3291886 -0.3431658
000050 c4 59 d7 3d 46 64 3a 3e 4c 35 81 3e b4 3c 83 3d
       0.10515168 0.18202314 0.25235975 0.064080626
000060 59 1d 2a bd 81 ed ac 3b ad df 5d 3c b9 4f e5 bd
       -0.041531894 0.005277336 0.013542098 -0.111968465
000070 9f 5d 82 bc e4 e3 a4 be 02 41 9a bc ba 1d 7f be
       -0.015913783 -0.32205117 -0.018829826 -0.24913684
000080 48 24 df 3d 22 a9 06 be 3c a5 fe bd 88 b3 f1 bd
       0.10895592 -0.13150457 -0.1243386 -0.11801821
000090 0b bf 7a be d6 1d e1 bd 74 03 b7 3b 29 0d f0 be
       -0.2448694 -0.10992019 0.0055851284 -0.4688504
0000a0 42 ef 26 be 5c 09 3f be af 5f 9b bd 99 3c e9 bd
       -0.16302207 -0.18655914 -0.075866096 -0.11388511
0000b0 10 31 fc bc b4 dd ad bd 4c d1 99 3d 52 54 d6 bd
       -0.030785114 -0.08489552 0.07510623 -0.104653016
0000c0 6e bd 06 bf aa 8c 1a bf b3 51 65 3d 4c a7 47 be
       -0.52632797 -0.60370886 0.055986118 -0.19497412
0000d0 2b af 0e be a4 c5 2c be 6c 21 6a bd 2b ca 97 be
       -0.13934009 -0.16872269 -0.05716078 -0.2964643
0000e0 01 50 06 be 06 cb 87 be 64 9a 33 be f4 55 e3 bd
       -0.13116457 -0.26522082 -0.17539364 -0.11100379
0000f0 2a 5d aa bc 0e 28 83 be 6a 11 a0 3b af 4a e2 be
       -0.020796377 -0.25616497 0.0048848884 -0.44197604
000100 ee bc f4 ba 69 88 e8 bd a6 b7 ab bc e7 64 09 bf
       -0.0018672028 -0.11354143 -0.020961594 -0.5366959
000110 0c b7 72 3e e2 2d 9e bd 12 32 41 3e a6 93 56 be
       0.2370264 -0.07723595 0.18866757 -0.20954761
000120 0c b9 36 bd 2b ab e1 ba 2a 02 86 be 2a ab 91 be
       -0.04461007 -0.001721715 -0.26173526 -0.284509
000130 5f 05 d3 bc ae 4f 6a be 70 37 01 bd 5d 2f 12 be
       -0.025759397 -0.22881958 -0.03154701 -0.1427588
000140 46 68 84 3e ac 55 23 3e 92 e7 41 3e 32 33 4a be
       0.25860804 0.1595065 0.18935993 -0.19746092
000150 5c 72 a1 be 30 06 58 be 98 1b b6 3d e8 6e b2 be
       -0.31532562 -0.2109611 0.08891982 -0.3485024
000160 a9 6d 4b bd 66 bc 71 be d4 57 cd bd 91 d8 96 be
       -0.049665127 -0.23607025 -0.100265175 -0.29462102
000170 b2 03 8e be a0 73 61 3e 35 bf 50 be 54 90 5a 3e
       -0.27737194 0.22016764 -0.2038544 0.2134412
000180 c2 13 fe bc b2 f2 0e bd 68 d4 1c bd 82 c2 3e bd
       -0.03101528 -0.03489942 -0.038288504 -0.046572216
000190 55 4d 22 bd 9a 47 0e bd 1a 9f 0a bd 9a cf 38 bd
       -0.03962453 -0.034736253 -0.033843137 -0.04511986
0001a0 00 3c 35 ba 31 bc 59 be 63 41 0f be d0 67 ec bc
       -0.0006913543 -0.21263196 -0.13989787 -0.028858095
0001b0 2e 3e b2 3a 11 94 f5 3a 0f da ea 3a 6b 76 7b 3a
       0.0013598853 0.0018736144 0.001791777 0.0009592536
0001c0 ae 3d 46 3b 64 56 35 3a 38 ad 15 3b 02 a4 fa 3a
       0.0030249166 0.0006917475 0.0022838842 0.0019122364
0001d0 a0 f7 19 bd a6 e0 33 3e d8 a7 08 3e a2 a8 c2 bd
       -0.03758967 0.17566165 0.13345277 -0.095048204
0001e0 19 48 3f be db 84 ce bd e6 4a 5f 3d 7a 21 fd bd
       -0.18679847 -0.10083934 0.054514788 -0.12359901
0001f0 c9 05 59 be 47 78 25 be eb 3a 80 bc 3f 0b 0e be
       -0.21193613 -0.16159163 -0.015653094 -0.13871478
000200 f8 e4 19 bd 94 39 fe 3d 80 4d f5 3b 3a 76 37 be
       -0.037571877 0.12413326 0.0074860454 -0.17916194
000210 e5 dd 60 be 59 6b 38 be 40 be b8 3b 08 8a c7 be
       -0.21959646 -0.180097 0.005637914 -0.38972497
000220 5f 9d 91 be 77 26 8d be 09 68 ae 39 2f c3 ff bd
       -0.28440377 -0.2756841 0.00033265378 -0.124884
000230 82 82 34 be 97 ea 21 be e5 a6 8d be 60 dd 2d 3d
       -0.1762791 -0.15812145 -0.27666393 0.042447448
000240 69 d0 bc be 94 f2 1b be 8b 04 87 3d 06 4b b2 be
       -0.36877754 -0.15229255 0.065926634 -0.34822863
000250 99 1f 99 be 74 73 4f be cc b1 05 be 35 6d de be
       -0.2990692 -0.20258886 -0.13056105 -0.43442693
000260 20 85 5f 3c 95 22 51 be b4 4a 82 3e c0 a7 20 bc
       0.013642579 -0.20423348 0.2544762 -0.00980562
000270 49 8c ac be fe 89 48 bd de 69 96 3b ba e7 8e be
       -0.3370078 -0.048959725 0.004590257 -0.27911168
000280 94 89 e8 bd a6 49 9d be ad fd 54 bd ea 5b 97 be
       -0.11354366 -0.30720252 -0.051999737 -0.29562312
000290 e8 ac 28 3d 60 db 7b 3d 75 58 2d be c9 ad 1a be
       0.04118052 0.06148851 -0.16928275 -0.15105356
0002a0 1a ed e1 be 6b 64 df bd 10 8d bf bc 4b f5 9f be
       -0.44126207 -0.10907825 -0.023382694 -0.3124183
0002b0 1e 98 8d be 97 8b b3 be 23 6e ae be c4 62 0b be
       -0.2765512 -0.35067436 -0.34068403 -0.13611895
0002c0 c0 09 81 3d 58 8a 0a 3d 10 94 d3 bc 16 69 55 3e
       0.06300688 0.03382334 -0.025827438 0.20840868
0002d0 d6 77 da 3c c1 e8 a4 bb e7 8a ab bd 82 60 c4 bd
       0.02666847 -0.0050326292 -0.08376103 -0.0958872
0002e0 13 41 31 bd 9d af bb bd 5f 8c 60 bb 02 ee 5f bd
       -0.04327495 -0.09164355 -0.0034263355 -0.05467034
0002f0 4c e8 fd 3d 7c 25 31 bd 80 84 83 3d 26 02 35 3e
       0.12397823 -0.04324864 0.06421757 0.17676601
000300 7f 1b a2 be ae 1b 4f be d5 27 52 3d 6a 0a 66 be
       -0.31661603 -0.20225403 0.051307518 -0.2246491
000310 67 13 d6 bc cd ef 8a be ce 70 91 be 1a c4 e6 bd
       -0.026132299 -0.27136078 -0.28406376 -0.11267872
000320 08 e4 7c 3d 08 dd 6d be 88 79 3b 3e 9e 21 9e bd
       0.061740905 -0.23228848 0.18308079 -0.07721256
000330 d9 a5 a6 bd ae 39 46 be 3b 93 28 be 35 3e 67 be
       -0.08137102 -0.1935794 -0.16462414 -0.22582324
000340 04 96 2d be 21 54 42 be 0e 1a 8c 3c 11 e0 26 be
       -0.16951758 -0.18977405 0.017102268 -0.16296412
000350 f0 e0 46 be ff e5 82 be 80 32 43 3e 18 36 e6 3d
       -0.19421744 -0.25566098 0.19062233 0.11240786
000360 87 00 8c bd 44 f1 85 bd 65 e3 ff 3b f1 af 5c bd
       -0.06836038 -0.065401584 0.00780909 -0.05387873
000370 35 65 7e be 1f 98 b7 bd b8 99 51 be 6f 8c 82 be
       -0.24843295 -0.08964562 -0.20468795 -0.25497767
000380 08 5e ec 3d 59 99 84 be 1c e8 08 3e cf d4 32 be
       0.115413725 -0.25898245 0.13369793 -0.17463993
000390 c0 85 96 be d5 44 ae bd 83 b4 21 be e2 39 01 be
       -0.29398918 -0.085092224 -0.15791516 -0.12619737
0003a0 1a 04 0c 3d 33 f5 39 bd e5 a6 73 be 4a 81 9b bd
       0.0341836 -0.045399856 -0.23794134 -0.07593019
0003b0 98 11 82 bd 88 af fc 3d 8c ed 78 be 19 1e 29 be
       -0.06351012 0.123381674 -0.24309367 -0.16515388
0003c0 5c 22 32 bf 4e fc d7 bd 6b c5 28 3c f5 47 34 be
       -0.6958368 -0.1054617 0.010300974 -0.17605574
0003d0 2c 1a 07 3d 03 e6 7c be 97 ec af bd 6a 4a fc bd
       0.032983944 -0.24697118 -0.08590048 -0.12318881
0003e0 6c 22 0f 3e f9 c1 73 be 44 02 1a 3e 52 c1 25 3e
       0.13977975 -0.23804463 0.15039927 0.16187027
0003f0 fe aa 39 3b 52 dc a3 bd a4 57 4a be 71 0f 17 bd
       0.002833068 -0.08001007 -0.19759995 -0.03687996

0.bias f4 [24]
000000 bd 1b f5 bd cb 62 b0 bd b1 91 9a bd 18 da 97 bc
       -0.11968181 -0.08612593 -0.0754732 -0.018536612
000010 bc b4 7b be 72 a2 82 be 6d d0 7d bc 10 ef d5 be
       -0.24580663 -0.2551456 -0.015491587 -0.41783953
000020 4e 65 f3 b8 5c 14 25 3e 80 9d 4c be 66 99 a7 bd
       -0.000116060124 0.16121048 -0.19981956 -0.08183555
000030 23 cc 76 be d3 5c ff bd 40 61 14 bd 33 5d cc bd
       -0.2410131 -0.12468877 -0.036225557 -0.09978714
000040 ae 1c 50 be 6e 79 90 bd f2 47 e7 bc 80 9d 0c be
       -0.2032344 -0.07054411 -0.028232548 -0.13731956
000050 12 59 45 be ca 85 8d bc a0 23 3c be e3 d9 9b be
       -0.19272259 -0.01727571 -0.18372965 -0.30439672

2.weight f4 [24, 24]
000000 7e fe 79 bc 17 57 62 3d 4c f4 4b bd 8a 56 0e be
       -0.01525843 0.055258837 -0.049793527 -0.139002
000010 2c c5 9a 3d 9d 95 45 3d b0 ad 5a bd 38 f2 1e be
       0.07557139 0.048238385 -0.053388298 -0.15522087
000020 de ec 28 3e 04 41 fe 3d 8c a2 fd 3c 87 ae 89 3c
       0.16496608 0.124147445 0.030961297 0.016806854
000030 15 f9 40 3d be 5b 38 3e f7 70 48 be 30 84 9d bd
       0.047112543 0.18003747 -0.19574343 -0.076912284
000040 f2 d0 b6 3d 6d b5 e7 bd ff d7 11 3e 31 35 ab bd
       0.08926572 -0.11313901 0.14242552 -0.08359755
000050 cc f6 25 3d 08 36 07 3e a4 16 6f 3e 78 e8 67 3c
       0.040518567 0.13204205 0.2334848 0.014154546
000060 f6 97 19 bd 82 f8 29 3d 3b a6 17 bd d8 0b 20 be
       -0.037498437 0.04149676 -0.037023764 -0.15629518
000070 b1 3b 37 be ed 63 66 3c 63 24 7c 3d aa ec 89 be
       -0.17893864 0.01406191 0.06155814 -0.26938373
000080 fa 86 3b bb 6b c6 ca bc 03 c9 88 be 87 38 ec bd
       -0.0028614388 -0.024752816 -0.2671586 -0.11534219
000090 74 e1 d0 3d 1e 31 65 3c e7 39 1c 3e 60 29 aa 3d
       0.10199252 0.013988761 0.15256463 0.08308673
0000a0 10 bd f5 bd ce a8 7f 3d 82 c9 34 3e c8 7c 38 3e
       -0.119989514 0.062416844 0.17654994 0.1801635
0000b0 ae e4 29 3e 2d a3 17 bb 9c 79 28 3c 47 ee 2b be
       0.1659114 -0.0023138032 0.0102829 -0.16790114
0000c0 75 d8 44 3e ea e4 40 3e 4c e3 6a be 59 84 eb 3d
       0.19223197 0.18837324 -0.2293827 0.11499853
0000d0 bd 38 29 3e 77 65 74 3e 52 2e 09 3e 51 66 12 be
       0.1652555 0.23866831 0.13396576 -0.14296843
0000e0 e0 4c 6a bc ca fd d9 3d d5 6a 02 be 20 01 2d be
       -0.014300555 0.106441095 -0.12736066 -0.1689496
0000f0 24 ec 16 3e 7a 6c 85 be 9b 9b 22 3e 09 10 12 3e
       0.14738518 -0.26059324 0.15879671 0.1426393
000100 c0 74 88 3d b8 ba 32 bc 35 9d 41 3d f3 ae 54 bd
       0.06662893 -0.010908775 0.047269065 -0.051924657
000110 68 b5 33 3e c9 6f 56 3e ab 58 e2 bb 80 ca e6 3d
       0.1754967 0.2094108 -0.0069075427 0.112690926
000120 28 76 2f 3d 7e 89 aa bd fa 8b 9d bd e3 fd 8f 3d
       0.042837292 -0.08327006 -0.07692714 0.07030847
000130 fd ee 02 3e 94 d6 7d bd 24 9f 93 3d 45 9d 4f 3d
       0.1278648 -0.061972216 0.07208088 0.050687093
000140 85 78 5a 3d 9c a8 7e 3d f6 85 07 3d 5b b2 2c be
       0.053337593 0.062172517 0.03308674 -0.16864912
000150 b6 d8 c6 bc 05 14 01 3e 86 68 e4 3b 8c 22 c3 bd
       -0.024273258 0.12605293 0.006970468 -0.09528074
000160 96 00 14 be 10 9a 71 3e e7 de ee bc 21 07 4b bd
       -0.14453349 0.23593926 -0.029159022 -0.049567346
000170 55 5f b1 be 5a f7 12 3e f5 8e 96 be e6 7d 4a 3e
       -0.34643045 0.1435217 -0.29405943 0.19774589
000180 82 d4 d9 3d 90 d7 0c 3d c9 0c 8b 3a 14 50 54 3e
       0.10636236 0.034385264 0.0010608669 0.20733672
000190 ee 03 83 3e 36 06 27 bd 44 86 2e 3e e4 74 d4 3d
       0.25588936 -0.040777408 0.17043406 0.103738576
0001a0 01 ef 37 bc 02 89 3c bc 2b 7d 02 3c 27 99 df 3d
       -0.011226417 -0.011507275 0.007964413 0.10917883
0001b0 79 df 06 3e 1c de 15 3d 3f 56 b5 3a b3 7e f9 bd
       0.13171186 0.036588773 0.0013834907 -0.12182369
0001c0 82 42 67 3d 21 87 e0 3d 83 f9 26 3d f9 24 6d 3e
       0.05645991 0.10963274 0.040765297 0.23158635
0001d0 9c d1 3a 3d f7 29 aa 3d b7 65 33 3c cd 00 2b 3e
       0.045610055 0.083087854 0.010949544 0.16699524
0001e0 cd ba 1c bc ef 73 45 3d 3f 91 b3 bd 7b a1 05 bd
       -0.009566021 0.048206266 -0.08767938 -0.032624703
0001f0 57 62 3b 3e d2 da 77 3e d7 94 30 3d eb dc 35 be
       0.18299232 0.24204567 0.043110695 -0.17760055
000200 24 a3 10 3e 22 04 6f be 03 2c b0 bc 62 c8 99 be
       0.14124733 -0.2334142 -0.021505361 -0.30035692
000210 fa 4d c3 bb 30 6f ab bc 2c f6 06 3e 9c ca de 3d
       -0.0059602233 -0.020927042 0.13179845 0.108784884
000220 c1 bc 3f 3e 62 c5 14 bd a9 d4 81 3e de a6 95 bd
       0.18724348 -0.03632105 0.2535756 -0.07307218
000230 e7 62 69 bc d5 82 87 3c 42 3e b9 bd ec 17 c3 3d
       -0.014244772 0.016541878 -0.09045078 0.09526047
000240 98 ff 49 3d 85 14 0f b9 ff 51 95 bd 75 4f 42 be
       0.04931602 -0.00013645187 -0.0729103 -0.18975623
000250 d1 92 06 be e9 97 24 3e 7f d6 97 bc 36 9a 4a be
       -0.13141944 0.16073574 -0.018534897 -0.1978539
000260 b5 e6 05 3d 58 ae 4a be f0 cf 89 bd e4 8f 4c be
       0.032690722 -0.1979307 -0.06729114 -0.19976765
000270 7b b0 d6 bd 0f 0b c2 3c 2b 98 46 bd 73 20 d0 3b
       -0.1048288 0.023686914 -0.048484962 0.0063515245
000280 d1 47 1b 3e a0 28 32 3e b7 2c 13 be 39 d4 15 3e
       0.15164115 0.1739831 -0.14372526 0.14631738
000290 55 ab b9 3d 7d 2a 52 bd c5 35 33 be d0 54 12 bd
       0.09065882 -0.05131005 -0.1750098 -0.035725415
0002a0 df 2f 1d be 50 52 e6 bd be b7 32 3d ca e2 db 3c
       -0.15350293 -0.112461686 0.04363226 0.02684154
0002b0 c0 da 78 3d 03 49 0a 3e 3d 0d 16 bd 4c 99 ba bc
       0.06075549 0.13504414 -0.03663372 -0.022778176
0002c0 f8 ef e5 3d 7f 9f 63 3c 38 97 b0 3d 54 de ca bd
       0.11227411 0.013893007 0.08622593 -0.09905687
0002d0 db 86 04 3e ae 1a 9f 3b b1 46 fe bc 5b 98 32 be
       0.12942068 0.0048554754 -0.031039568 -0.17440931
0002e0 03 99 95 3d b5 1a 3f 3d 2b 22 4f bd 13 c9 e6 3d
       0.07304575 0.04665633 -0.050569694 0.112688206
0002f0 69 ff 70 bb a9 78 0d 3c 46 94 a9 bd 10 70 88 3e
       -0.003677333 0.008634725 -0.08280234 0.26647997
000300 68 6a d2 3c 4e c1 29 3d a5 91 93 3d 64 98 0e 3e
       0.025685504 0.041444115 0.07205514 0.1392532
000310 2d 91 8c 3d 59 7f bc 3d 0e 54 56 3e e5 44 2b 3e
       0.068636276 0.09203977 0.20930502 0.167255
000320 07 00 8b bc 20 3b f3 bd 12 91 9b bd 1f e2 26 be
       -0.016967786 -0.118765116 -0.07596029 -0.16297196
000330 0b aa f8 3d 16 0c e1 3c d2 bf ae 3d fc b8 a9 bc
       0.12141808 0.027471583 0.085326806 -0.02071809
000340 f7 2a 59 3d 76 26 59 3e 9d e9 92 3c ac 4b 66 bd
       0.05301949 0.21206078 0.017933661 -0.05622451
000350 eb 51 9b bb d4 82 1b 3c 29 95 23 3e 5d 53 9c 3d
       -0.00473999 0.009491641 0.15974869 0.07633088
000360 4a 02 82 3d a8 a4 1b 3e 0f f7 d7 bc 60 bc 3b 3d
       0.06348093 0.1519953 -0.026362924 0.045833945
000370 40 7f 06 3e ea 3b 7f 3e df 8e 1c bc 31 2a 86 be
       0.1313448 0.24925199 -0.0095555475 -0.26204064
000380 ba 76 db bc ba c0 d7 3b e3 44 51 be 29 80 b3 3d
       -0.026790012 0.006584254 -0.20436434 0.08764679
000390 52 9a 35 3e 5d 80 c3 be e5 a0 0d be fd 3d a3 3d
       0.1773465 -0.3818387 -0.13830908 0.07970808
0003a0 b8 1d f6 b9 06 22 7a 3d 2a ce 72 3e 67 79 e2 3d
       -0.0004694292 0.061067604 0.23711458 0.11058312
0003b0 ae bb 27 be 86 0b 2b be c6 dc 2f be 59 7f bd 3e
       -0.16380188 -0.16703615 -0.17174062 0.3701122
0003c0 ce b7 9d 3d 80 1e 8b 3e b8 16 5b 3d 99 2f 0d 3e
       0.077010736 0.27171707 0.053488463 0.13787688
0003d0 29 df c5 3d 6e ac 73 3d 8d 97 1e 3d 1a 61 09 bd
       0.09661705 0.059490614 0.03871875 -0.03353987
0003e0 22 c2 de bd da 28 85 3c f6 5e 76 be 90 3d e2 bd
       -0.10876872 0.016254831 -0.24059662 -0.11046898
0003f0 f0 11 f2 bd 73 0a b8 3b f4 4b 67 b9 3c c7 56 bd
       -0.118198276 0.00561648 -0.00022058171 -0.0524361

2.bias f4 [24]
000000 58 97 94 bd bc 0d 71 3e c4 31 82 bd 57 d7 fc bd
       -0.07255429 0.23540395 -0.06357148 -0.1234576
000010 7b 45 b2 ba 47 85 51 3e 32 b7 37 be 06 15 26 3f
       -0.0013601029 0.20460998 -0.17940977 0.6487583
000020 80 69 54 bb 54 a8 69 bc aa 47 47 bc 9d 14 d5 bd
       -0.0032411516 -0.014261324 -0.012163082 -0.10404322
000030 39 9f 62 3d f2 3b 86 bb 2e 8f d4 3d 58 ae 69 be
       0.055327628 -0.0040965015 0.10378872 -0.22820413
000040 8c 4a 19 be 09 c4 83 bb 94 46 13 3c 15 77 e3 bd
       -0.14969844 -0.004021172 0.008988995 -0.111066975
000050 fc 47 34 bd 26 db 92 3e f2 47 d7 3d 1a 0e e9 b9
       -0.044013962 0.28682822 0.10511769 -0.0004445173

4.weight f4 [4, 24]
000000 fe 8e 14 bc 6b 08 ba 3d 8b 1f 13 bc c8 32 62 bd
       -0.009067295 0.09083637 -0.008979688 -0.05522421
000010 c1 85 bf bc 33 48 18 be c6 2b a4 bd 9f 79 bb 3e
       -0.023379209 -0.14871292 -0.080161616 0.36616227
000020 1a 19 94 3c 8c 3a 8b 3b bc e8 0a 38 c5 f4 b2 3c
       0.018078376 0.0042489227 3.3118515e-05 0.02184523
000030 aa ce bd 3d 9a b9 35 3c 64 e1 79 3d c4 90 e1 bd
       0.09267934 0.011091614 0.061005965 -0.1101394
000040 74 da 9f 3d 8b 34 90 bc 8f 37 7e b9 89 97 9d 3c
       0.078053385 -0.01760318 -0.00024244025 0.019237297
000050 cd 0a 19 3c b4 4b 40 be 2e 98 17 3d 33 b2 f9 3b
       0.009340954 -0.18778878 0.037010364 0.00762012
000060 a2 09 04 3d 4a 6a ca bd c8 18 cb 3c 7f af 02 bc
       0.03223575 -0.09883554 0.02479209 -0.007976412
000070 f3 95 e0 3c ec c7 9b 3d de c8 62 3d ea 73 ef 3d
       0.027415251 0.076064914 0.055367343 0.11692031
000080 c6 8c 08 bc b8 a0 3b bc 5f a8 a9 3a 53 ba 2a 3d
       -0.008334344 -0.011451893 0.0012943855 0.0416816
000090 14 a8 11 bd 85 4d e4 3c 6f d6 64 3c c1 23 9d 3d
       -0.035560682 0.027868995 0.013967141 0.07672835
0000a0 2b 05 de 3d 2c 10 1d 3d 80 7a 8c b9 4f dc 9f bc
       0.108408295 0.0383455 -0.0002679415 -0.019514231
0000b0 53 6d 06 bd e9 ee ff bd 31 28 ec bd a5 a5 ae bb
       -0.032819103 -0.1249674 -0.115311034 -0.005329805
0000c0 da b1 ba bb a2 8c bf bd 20 ac 7e 3c 36 1a a9 3d
       -0.005697471 -0.093529955 0.0155439675 0.082569525
0000d0 08 5b 09 3c d1 cb a2 bd 6f 37 0c 3e 1e de e8 3b
       0.00838352 -0.07949031 0.13693021 0.0071065566
0000e0 65 00 3c b8 df 8a 02 bc f4 c6 fa bc 42 6c 37 3e
       -4.482306e-05 -0.00796768 -0.030612446 0.17912391
0000f0 09 fa 5e 3b ca 1e 10 3c 28 09 c7 bc e9 d7 c9 bd
       0.0034023544 0.008796403 -0.024296358 -0.09855635
000100 35 a2 b5 3d c9 0e 94 3d f2 9e f0 ba 09 be 2f 3d
       0.08868829 0.072293825 -0.0018357916 0.04290584
000110 2d dc 24 bd f9 4f 82 bd 45 de c6 3c 99 6c 75 3c
       -0.04024904 -0.0636291 0.024275908 0.014979505
000120 c3 1c 86 bb 14 05 2e be 8e 2c 18 bc 4e 4a e1 3b
       -0.004092784 -0.16994125 -0.009287966 0.006875313
000130 fa 55 40 bd f1 78 e8 bc 36 a9 03 be a1 bc 04 3d
       -0.046956994 -0.028377982 -0.12857518 0.032406453
000140 ed 40 79 bc db 3f 84 3b 48 cb 83 3b 1b 5d ea 3d
       -0.015213233 0.0040359325 0.0040220357 0.1144354
000150 88 fa 37 3c cc 94 dd 3c 5b d2 06 be ca c1 8d bd
       0.011229165 0.027048491 -0.13166182 -0.06921728
000160 64 14 b4 3c d8 51 a5 3d e2 7e 9b bb b8 60 d6 bc
       0.02198238 0.08072251 -0.00474535 -0.026169166
000170 68 d3 2f bd 64 0a 80 bd 69 6a 18 3d 3f cb 27 3c
       -0.042926222 -0.06251982 0.037210856 0.010241329

4.bias f4 [4]
000000 29 90 3c be 07 de 80 bc 0b 03 63 3d bf ea 62 3d
       -0.18414368 -0.01573087 0.055422824 0.055399653
