logs/target_params.pt (torch, 68935 bytes, 6 tensors)

0.weight f4 [150, 7]
00000000: 9271 2e3e a2b2 653e 860d 013e 39e3 803e
00000010: 9286 b2be 2efe 5d3e e7be aa3e 2c8f e9bd
00000020: e035 283c da5f 7e3e 50f9 923c a202 58be
00000030: 753d c03e 4bf1 a4be 8868 76bd cb2d a03e
00000040: c358 a2be 00f7 b7be 2eff 043e 591f 36be
00000050: be5e 87be a8ae 87bd 32f2 1f3e a72f 903e
00000060: cc72 a8bd 3353 b4be 2f02 52be 2270 87be
00000070: 782e 923d 001c 75ba 2033 9d3c 406e a3bd
00000080: ba45 383e 1eac 64be 329b 503e 2926 bf3e
00000090: dc1f 80be f0e4 93bd c8f6 febd 00f2 db3c
000000a0: b027 8dbc 455a a73e 3a90 a5be 34ba e93d
000000b0: 3850 f03d e8eb 0c3d 7339 aebe af35 64be
000000c0: 0550 1abe f113 bc3e 5b25 813e 123f bfbe
000000d0: 9bb8 883e ecf2 d6bd b30f 96be 03e0 b93e
000000e0: c53c 3ebe 501a dfbc 8f99 a5be 2bd4 b9be
000000f0: 0081 06bc ae25 43be 40da c63b 7b50 1abe
00000100: 7a52 a5be f0f2 28bd 0083 daba 0165 b83e
00000110: 339d 78be fb07 8b3e 400c 96bd 0cb7 b9be
00000120: d0e7 3cbd 9e4a 743e 6678 533e 8a93 66be
00000130: 80d1 1a3c 00fa 5ebd ff42 76be 9d88 b1be
00000140: a086 15bd ff8d ac3e 3053 e6bd a313 bf3e
00000150: 4275 383e 53bd 4cbe 7a17 94be a2da 003e
00000160: f7fd 17be c776 9abe 32fa 6d3e 462f 003e
00000170: f539 aabe 5014 03be 3e16 7ebe 5f49 bcbe
00000180: 8026 c6bc 4eeb 3d3e 8490 d1bd 1b5b a4be
00000190: 1378 a63e 404a 5ebd e30a 803e 6412 edbd
000001a0: 7a51 6fbe 549b 863d 748f d6bd 324a 05be
000001b0: f9a8 42be 96df 1cbe 4443 e4bd c2fc 103e
000001c0: 9579 09be b619 c1be 8baa b6be 92b9 6f3e
000001d0: c434 b7bd 3c8c bcbe 7733 a03e 23f7 ba3e
000001e0: 06d8 4e3e 1e74 85be 8223 713e eaae 53be
000001f0: 8c45 67be 1062 bcbc 06d0 303e 3068 42be
00000200: 0004 873c ae1f 7a3e d7a1 66be 9f1f 9dbe
00000210: 038f 3fbe fab0 773e e3a4 42be b8ca 42be
00000220: 8bdf b03e 20f3 23bd 5031 9e3c 00db 10bc
00000230: b499 e13d 5f38 c03e 057c a23e 6b7e 5fbe
00000240: 2ed9 153e f26a 253e c2d1 53be d279 11be
00000250: 5661 37be 7e85 6c3e 7299 9abe e94f 0bbe
00000260: 7f3d 9f3e 2909 a23e d816 68bd 1afa 753e
00000270: eefc 733e 04d5 2cbe aa7f 423e a084 9fbc
00000280: cc8a 9ebe 57d0 47be f8af 72be 5740 c03e
00000290: e806 5abd 9dc6 bdbe 7f53 4cbe 8071 e4bc
000002a0: 98f0 313d 58eb 4ebe 0fbd ba3e 701b ecbd
000002b0: bcdb c23d 3a76 88be 6404 fcbd 3338 57be
000002c0: c51f 1abe 1fb3 73be c05e 78bd 9578 a33e
000002d0: b67d 1f3e 892a 84be e0c5 eb3d cdc0 a03e
000002e0: ec00 8fbe 7a11 073e c0c4 b43c 00de 9cba
000002f0: 9a51 27be c0d1 8bbd cda6 9b3e c21d 523e
00000300: 26cd 5f3e a78d b33e edfc 05be dec7 653e
00000310: a8dc d2bd 06b0 503e afa0 973e 1705 973e
00000320: b84f 91be ed69 63be 5081 723d f74c 9b3e
00000330: 04ca e13d 682a a5be d674 263e 5635 8bbe
00000340: b0f1 80bd 2817 003d b0c0 b3bc 510e 46be
00000350: b649 753e 4c30 863d a6c7 89be 2a42 1f3e
00000360: f4dd 82be 06d1 14be 54e2 9bbe 68b5 93be
00000370: 67c9 ae3e 8821 a3be b6c5 163e 1794 26be
00000380: 4e04 1c3e 804e a2bb 3cd5 80bd af05 62be
00000390: 1303 98be c0b8 d7bb 1c3b 913d 9908 9d3e
000003a0: 7487 3dbe 3663 86be 57fa 9cbe 08e8 bd3d
000003b0: 4071 12bd 84c4 efbd d8ed de3d 1a4b 193e
000003c0: 2414 e03d 191c a9be 21a0 9e3e 689a 13be
000003d0: 3ea6 b1be d43e ca3d 0625 563e 5042 4d3d
000003e0: e4a3 05be 6b70 34be da91 683e ae66 263e
000003f0: d009 f63c 0532 9a3e f677 7b3e deb6 263e
0.17035511 0.22431424 0.12602815 0.25173357 -0.34868294 0.21678993 0.33348772 -0.11404261
0.010266751 0.24841252 0.017941147 -0.21094754 0.37546888 -0.32215342 -0.060158283 0.31284937
-0.31708345 -0.35930634 0.12987968 -0.17785396 -0.2643947 -0.0662511 0.15619734 0.28161356
-0.08225021 -0.35219726 -0.20508645 -0.26452738 0.071377695 -0.00093501806 0.019189417 -0.07980013
0.17995349 -0.22331282 0.20371702 0.373338 -0.25024307 -0.07221401 -0.124494135 0.026848793
-0.017230839 0.32686058 -0.323366 0.114124686 0.117340505 0.034404665 -0.34028205 -0.22286104
-0.15069588 0.36733964 0.25223812 -0.37352806 0.26703343 -0.104955524 -0.29308853 0.3630372
-0.18577869 -0.027234226 -0.32343718 -0.36294684 -0.008209467 -0.19057342 0.006068498 -0.15069763
-0.32289487 -0.04124731 -0.0016671121 0.3601456 -0.24278717 0.27154526 -0.07326555 -0.36272466
-0.04611951 0.23856589 0.20651397 -0.22517219 0.009449363 -0.054437637 -0.24048994 -0.3467454
-0.03650534 0.33702084 -0.112463355 0.3731967 0.1801348 -0.19994096 -0.2892416 0.12583402
-0.14842974 -0.30168745 0.23239973 0.12518033 -0.33247343 -0.12800717 -0.24813172 -0.36774728
-0.02418828 0.18546793 -0.10232642 -0.32100758 0.32513484 -0.05427003 0.25008306 -0.11575773
-0.23370925 0.06572595 -0.1047658 -0.13016585 -0.1900977 -0.15319666 -0.111456424 0.1415892
-0.13425286 -0.37714928 -0.3567699 0.23410633 -0.08945611 -0.3682574 0.31289265 0.36516675
0.20199594 -0.26065153 0.23548701 -0.20672193 -0.22585124 -0.022995979 0.17266855 -0.18985057
0.0164814 0.24426147 -0.22522675 -0.30688187 -0.18706898 0.24188605 -0.19008212 -0.19022644
0.3454555 -0.040026784 0.019310623 -0.008841276 0.11015645 0.37543008 0.31735244 -0.21825568
0.14633629 0.16154078 -0.20685485 -0.14206627 -0.17908224 0.23097798 -0.30195194 -0.13604702
0.31101605 0.31647614 -0.05666241 0.24021187 0.23826954 -0.16878134 0.18994012 -0.01947242
-0.3096527 -0.19513069 -0.23699939 0.37549087 -0.053229243 -0.37065592 -0.19953726 -0.027886152
0.04344234 -0.20206964 0.36472365 -0.11528671 0.09514567 -0.266527 -0.12305525 -0.21017532
-0.15051182 -0.23798798 -0.060637236 0.31927934 0.15575299 -0.25813702 0.11512351 0.31397095
-0.2793039 0.1319026 0.022066474 -0.0011968017 -0.16339722 -0.06827116 0.30400696 0.20519164
0.21855602 0.3506901 -0.13084765 0.22439525 -0.10295993 0.20379648 0.2961478 0.2949607
-0.28381133 -0.22208376 0.059205353 0.30332157 0.110248595 -0.32258916 0.16255507 -0.2718913
-0.06296098 0.031272084 -0.021942466 -0.19341399 0.239539 0.06552181 -0.26910132 0.15552583
-0.25559962 -0.14532861 -0.30446112 -0.2884934 0.34138033 -0.3186152 0.14723858 -0.1626743
0.15236017 -0.0049532056 -0.06290671 -0.2207248 -0.29689845 -0.006583303 0.07091352 0.30670622
-0.18508703 -0.26247567 -0.30659744 0.09272772 -0.035752535 -0.11707404 0.10885209 0.14970055
0.109413415 -0.3302925 0.30981544 -0.1441437 -0.34697145 0.09875265 0.20912561 0.05011207
-0.130508 -0.17621009 0.22711888 0.16250107 0.030033976 0.30116287 0.2455748 0.16280696

0.bias f4 [150]
00000000: 8459 993d 105d c83c d04f 6cbe 086e ea3d
00000010: 7f9d b6be 5566 0bbe 6022 c1bd beb1 88be
00000020: 89f0 95be 5682 87be 2d97 a63e 8d01 b03e
00000030: 4335 79be 439d 903e 1926 babe f46d 8e3d
00000040: d089 7b3d 88aa 23be 1a86 073e 50b8 f63d
00000050: fa1a 5ebe ee91 263e 09e3 aa3e a0b7 0c3c
00000060: 2cf4 bbbd ac7b e1bd be3f 143e 2190 9b3e
00000070: 0038 163c 5835 3cbd 1428 a6be 24ea dabd
00000080: 330c 99be 22db 783e 9c69 f0bd 414f 59be
00000090: c320 b13e f0d8 353d a03d bbbc 3118 973e
000000a0: 0e2e 133e 0040 a7b9 7672 b3be 24ef 993d
000000b0: 809f 273d 023f 423e 5f27 823e e84a 413d
000000c0: 8087 1d3b 4d08 8bbe 87a2 76be 4073 b0be
000000d0: 69be 893e e5e9 803e 0c25 a6bd 76c4 0d3e
000000e0: 9062 d2bd 705b f1bd 3356 aebe ab43 923e
000000f0: 0679 1d3e a48e dbbd 2a90 4a3e 4870 593d
00000100: e084 11bd 1543 b73e 0618 0c3e 9091 a5be
00000110: ffa5 a0be 5ef8 23be ce80 4b3e a044 183c
00000120: 90d2 3fbe 0e1d 673e e8a5 aabd 5853 65be
00000130: d46d a1be 7711 ba3e e90f 963e 94f4 f5bd
00000140: 2084 81be 15a1 a23e 71df a83e 86b3 77be
00000150: aadc 72be 4631 383e 3eb7 183e b10a a13e
00000160: 0028 fbba e1e8 8b3e 60ba db3d 2867 1bbe
00000170: 38bd 7abd 19e6 953e 4283 273e 2fa0 ad3e
00000180: b611 7d3e faf3 62be 7d9a 9f3e d39a 67be
00000190: c4b7 c2bd 88c4 5fbd 2260 053e 5e66 763e
000001a0: a2e1 693e cf44 a33e 51f2 883e 16b0 59be
000001b0: a15a 62be 5654 343e b07b e43c 7edc 6d3e
000001c0: 2d85 8d3e 8096 ed3b 976c bc3e 4ab4 b9be
000001d0: d0c2 82bc 3090 0bbd 8888 b63d a0d7 f9bc
000001e0: d171 6cbe 7dff b43e 98b3 cebd 9824 a1bd
000001f0: 0861 53be 100c 9e3d 6a59 74be 071f 803e
00000200: 8031 403c 200d 9cbd 6252 763e b2e4 6bbe
00000210: 9ba5 2abe 5f3e 943e 0d19 2bbe 7653 4bbe
00000220: 389f 4dbd 6291 7e3e 80c2 b53b 36b7 99be
00000230: 2951 b8be 37c8 943e d04c 9c3c 109b aa3d
00000240: 4814 203d 16cc 3f3e b016 02bd 363f 7b3e
00000250: 0027 a5bb 02b6 483e
0.07487777 0.024458438 -0.23077321 0.11446768 -0.35667035 -0.13613255 -0.09430385 -0.26698107
-0.29285076 -0.26466626 0.32537213 0.34376183 -0.24336724 0.2824498 -0.3635719 0.06954566
0.061410725 -0.15983021 0.1323475 0.120468736 -0.21689978 0.16266605 0.3337634 0.0085887015
-0.091774315 -0.11009917 0.1447744 0.303834 0.009168625 -0.04594931 -0.32452452 -0.1068919
-0.2989212 0.24302343 -0.117388934 -0.21221639 0.34595308 0.04439634 -0.022856534 0.29510644
0.14373037 -0.00031900406 -0.35048264 0.075163156 0.040923595 0.18969348 0.25420663 0.047190577
0.0024037063 -0.2715477 -0.24085437 -0.3446293 0.26903084 0.25178447 -0.08112535 0.13844475
-0.102727056 -0.117850184 -0.3405014 0.28567252 0.15378198 -0.10720566 0.19781557 0.053085595
-0.03552711 0.35793367 0.13681039 -0.32337618 -0.31376645 -0.16012713 0.19873354 0.009293705
-0.18732667 0.22569677 -0.08332425 -0.22395074 -0.31529105 0.3634145 0.29309013 -0.1200954
-0.25296116 0.3176352 0.32982972 -0.24189577 -0.23716989 0.17987546 0.14913651 0.3145347
-0.0019161701 0.2732611 0.107289076 -0.1517607 -0.06121561 0.29277113 0.16358665 0.33911273
0.24713787 -0.22163382 0.31172553 -0.22617655 -0.09507707 -0.054630786 0.13024953 0.24062487
0.22839978 0.31888434 0.26747373 -0.21258578 -0.22104885 0.17610297 0.02789101 0.23228642
0.27640668 0.007250607 0.36801597 -0.36270362 -0.015962034 -0.034073055 0.0891276 -0.030498326
-0.23090293 0.35351172 -0.100928485 -0.07868308 -0.20642483 0.077171445 -0.23862234 0.25023672
0.011730552 -0.07619691 0.24054864 -0.23036459 -0.16664736 0.28953835 -0.16708775 -0.19856057
-0.05020067 0.24860147 0.005546868 -0.3002259 -0.3599942 0.29059002 0.019079596 0.08330357
0.03908184 0.18730196 -0.031759918 0.24535832 -0.0050400496 0.1960068

2.weight f4 [100, 150]
00000000: e4a7 5e3d 9ee0 fdbc 48f5 bcbc e2bc 64bd
00000010: d0cb 423c 7867 1f3c 40a9 ac3a d8a7 31bc
00000020: 8a4e efbc 807d 5bbd d27a 9a3d 1460 6b3d
00000030: f6b6 8cbd a0a7 243b 0080 5c3c f278 9ebd
00000040: b0bb 123c d46a 61bd 00de f13c d22f 67bd
00000050: d443 6c3d 7e20 49bd cc91 0a3d 003b 4b3b
00000060: 1a87 a63d 1c5e 94bc b4d6 aa3c 18d8 7d3d
00000070: 2279 8d3d 3465 8bbd b24c 89bd f483 833d
00000080: f52d 09bd 00fd 88b9 5ae8 2c3d 514e 92bd
00000090: 4453 9e3c fa72 57bd 3ccc 453d 4011 01bc
000000a0: 9cdf b03c 7937 05bd eceb ea3c 909e 133d
000000b0: 2022 5d3d e23d bbbc 55cd a3bd 64c1 5fbd
000000c0: a0a0 5e3b 5ceb 5c3d cccc f13c a891 473c
000000d0: e080 7abc fa58 9e3d 3cd2 64bd 8a9a 3dbd
000000e0: f05a 373d 3ed2 d5bc 4026 0abb ac21 8cbd
000000f0: 8a5c e2bc ec9e 823d b65c 1f3d 9861 583d
00000100: 7818 693d 96b2 863d 6e4f 153d dae7 8a3d
00000110: e0b0 c93b d0ad 923d 4062 86bc 002b bebc
00000120: 800b 843b 5e13 a8bc 82c3 6abd a2fd 94bd
00000130: d80b 9abc debc 4dbd 0cbb 553d 71e9 45bd
00000140: 03a2 58bd e46f dabc 2839 373d a067 7f3b
00000150: 0094 e9b9 2714 34bd 7476 ad3c a4d5 133d
00000160: c850 f4bc 86cb a6bd 5034 483d 40bb 59bc
00000170: 8079 f93a fabd a23d 873b 97bd 6169 1fbd
00000180: 9a87 d4bc 40e5 d6bb 30a6 e5bb 6c5a 463d
00000190: 302e 783d ebbd 1fbd 1241 21bd 1025 593d
000001a0: ecc1 893c 50ed d13c b2d5 2bbd 9020 8bbc
000001b0: 0c62 8fbc d87a 723d 90c4 3fbc b67c 8d3d
000001c0: ec9f a73c 440e 923d 7072 c23b 90eb 45bc
000001d0: 67e7 8dbd 359a 06bd 48ba 6abd e440 003d
000001e0: b2d5 9f3d 14b0 9a3d 604e c8bb 92cf 043d
000001f0: cf9f 54bd f2aa 823d ca7d 4fbd 441c dcbc
00000200: c0a6 6a3b 584b 393c 8a0c 823d ca67 133d
00000210: d028 5a3c 84f9 fb3c 58aa b7bc a646 1c3d
00000220: b5b3 08bd d597 9dbd a424 5b3d 5028 cdbb
00000230: 5095 b63c 787f 88bc 10bd cfbb 145e 9bbc
00000240: fc46 4b3d e803 833d 8c4b f03c 3cb8 ee3c
00000250: cc08 a53d 6852 843c fa26 853d a95b 88bd
00000260: 90aa 5d3d b049 983b e0be 5c3c 700b 0f3d
00000270: d490 893c 8064 da3a d822 543d 045c a03c
00000280: 7087 9f3d 88de 9c3c 0a4f 2e3d 1066 94bd
00000290: 5c97 70bd beb2 f7bc 0013 18bb 6040 02bd
000002a0: 5269 953d 5883 563c 00ab e2bb a63a c4bc
000002b0: d466 24bd 8863 a63c 7cdb 913d 169c 023d
000002c0: 78cf e83c d83e 483d f097 893d 40d1 a33a
000002d0: e0d8 973d 64c0 643d e0a9 47bc 94ce bcbc
000002e0: f4c5 95bd b2c8 2e3d b555 52bd 38c2 5f3c
000002f0: c86a 053c 8656 843d f5dc 0fbd 20ec 8fbd
00000300: a6c8 4dbd a865 7d3d 0825 9cbd 0ee2 e2bc
00000310: f613 8b3d b46b a43c 3cbd 7ebd 0057 08bb
00000320: 38da 6a3d 20a9 c23b 2d56 8fbd 7f7f 28bd
00000330: 5649 923d 884c b43c 83a1 23bd f416 96bd
00000340: 1e91 a23d ded3 a13d 78c3 a0bc 540a 4bbd
00000350: d871 a33c c4e5 4a3d 008b 63ba 0161 86bd
00000360: 60f2 a43d 86af a8bc 90a2 6abd ea43 97bd
00000370: 043d c93c a81d e43c 4604 bcbc dbb1 97bd
00000380: 4010 2ebc 8a9b 8cbd 0a20 8d3d 50d6 6d3d
00000390: 716f 7cbd aad3 a2bd 708f a8bc d084 803c
000003a0: bc59 e03c 00c8 4c3b 7c31 913c 9f7f 33bd
000003b0: b443 f93c 78e2 8cbd 3415 523d 3281 92bd
000003c0: 20f7 883d 00e0 aaba 383c 643c 177d 9abd
000003d0: c21f f1bc 3d66 a0bd f4ed 6b3d c479 89bc
000003e0: 7ca3 293d 6cac 2d3d 6041 da3b c0a8 443b
000003f0: 2a01 873d 7096 debc 42a4 58bd a383 46bd
0.05435933 -0.030990895 -0.023066178 -0.055844195 0.011889413 0.009729259 0.0013172999 -0.01084324
-0.029212255 -0.053586483 0.07542957 0.057464674 -0.068708345 0.0025124326 0.013458252 -0.07737912
0.008955881 -0.05503352 0.029524803 -0.05644209 0.057681873 -0.049103253 0.03383045 0.0031010509
0.08131237 -0.018111281 0.020854332 0.06197366 0.0690787 -0.06806412 -0.067040816 0.064216524
-0.033491094 -0.0002612844 0.042213775 -0.07143844 0.019326814 -0.052599885 0.048290476 -0.007877648
0.021591 -0.032523606 0.02867695 0.03603989 0.053987622 -0.022856656 -0.07998148 -0.05462779
0.0033970252 0.053935394 0.0295166 0.012180723 -0.015289515 0.07731815 -0.055864558 -0.046289958
0.04476446 -0.026101228 -0.0021079928 -0.0684236 -0.027632017 0.06377968 0.038906775 0.052827448
0.0569081 0.06577031 0.036452703 0.067825034 0.0061551183 0.07162058 -0.016404271 -0.023213863
0.004029691 -0.020517047 -0.057315357 -0.07274939 -0.018804476 -0.050228946 0.052180335 -0.04831833
-0.05288888 -0.026664682 0.044732243 0.0038971677 -0.00044551492 -0.04396453 0.021174647 0.036092415
-0.029823676 -0.08144288 0.048878014 -0.013289273 0.0019033402 0.079463914 -0.07384401 -0.038918857
-0.025943566 -0.0065580904 -0.0070083365 0.048426077 0.060590923 -0.03899948 -0.039368697 0.05301386
0.016816102 0.025625855 -0.041951843 -0.0169833 -0.017502807 0.059199184 -0.011704579 0.06908552
0.020461999 0.07131627 0.005934052 -0.012080088 -0.06928902 -0.032861907 -0.057306558 0.031311885
0.07804431 0.075531155 -0.0061128587 0.032424517 -0.051910218 0.063802615 -0.05065707 -0.026868947
0.0035804957 0.011309467 0.06350048 0.035987653 0.0133153945 0.030758627 -0.022420093 0.038153313
-0.033374507 -0.07694975 0.05350174 -0.006260909 0.022287995 -0.016662344 -0.0063396767 -0.018965758
0.049628243 0.063972294 0.029332899 0.029140584 0.080583185 0.016152576 0.06501575 -0.06658108
0.05411774 0.004647456 0.0134732425 0.034923017 0.016792692 0.0016662031 0.051791042 0.019575126
0.077895045 0.01914908 0.042555846 -0.072460294 -0.058738098 -0.030236598 -0.0023204684 -0.031799674
0.07295479 0.013092838 -0.0069173574 -0.023953747 -0.040137127 0.020311132 0.071219414 0.031887136
0.028419241 0.048888057 0.06718433 0.0012498274 0.074144125 0.05584754 -0.012186497 -0.023047723
-0.07313147 0.042671867 -0.051351268 0.013657145 0.008143134 0.064618155 -0.03512283 -0.07027459
-0.05024018 0.061864525 -0.07624251 -0.027695682 0.067909166 0.020070888 -0.062192187 -0.002080381
0.057337016 0.0059405714 -0.069988586 -0.041137215 0.07142894 0.02200915 -0.03994895 -0.07328597
0.07937835 0.079017386 -0.019624457 -0.049570397 0.019951746 0.049535528 -0.00086800754 -0.06561471
0.08054042 -0.020591509 -0.057283938 -0.073860005 0.024565227 0.027846172 -0.022951256 -0.0740697
-0.0106239915 -0.06865604 0.068908766 0.058065712 -0.061629716 -0.07950528 -0.020576209 0.01568833
0.027386539 0.003124714 0.017723791 -0.04382288 0.030427791 -0.06879133 0.051289752 -0.07153548
0.0668776 -0.0013036728 0.013930373 -0.0754339 -0.029434089 -0.078320004 0.057599977 -0.016781695
0.041415676 0.042400762 0.0066606253 0.003000781 0.06592019 -0.027171344 -0.052891023 -0.048465382

2.bias f4 [100]
00000000: 8060 5a3b e3fe 5cbd df6e a5bd 6022 a3bc
00000010: 1be8 8cbd 9c2f 98bd 7e36 2dbd c456 ea3c
00000020: ff25 54bd 28bf 52bd b701 43bd b526 37bd
00000030: c244 05bd 186b 693d bc45 3e3d c04d e43c
00000040: 1a7a b6bc b864 3a3c 00a0 a0b7 8e4c d0bc
00000050: 2a4f 9abd 8080 7aba 30be de3c 86eb 85bd
00000060: 5c9d 543d a051 4c3d 7a6e 45bd 2c62 1b3d
00000070: 4093 3c3c 349b 8e3c 7022 40bc 16b7 4bbd
00000080: e2cb 6dbd 8064 df3b 24c0 563d 7201 813d
00000090: 8006 d03c 7eca 883d 16ce 06bd 000f 093a
000000a0: 8baa 39bd f923 10bd 8404 a23c 5c69 5c3d
000000b0: 427e 9e3d 6074 d1bb 580c 9abc 8eee 923d
000000c0: e0f8 d0bc 2e36 893d 58a6 e0bc e858 713c
000000d0: 48af 3bbc 6860 8fbc 4011 173b fadc 9bbd
000000e0: 5096 a23d 7cf2 41bd 94bf 6b3d b17c 70bd
000000f0: 7454 983d 04e5 4c3d 24be 013d 68d0 1c3d
00000100: 16fc 7ebd 006e babb 8c53 553d c84a 593c
00000110: cc9e 85bd 3875 573d 88bf 56bc 8416 373d
00000120: 142b 9a3c f2dd a53d 62fc 9a3d 5000 e53b
00000130: 7e0d f8bc 3442 743d 7a09 8ebd dca0 82bc
00000140: 6805 54bd 9029 75bd 0cc8 983c 00eb 7cbb
00000150: 2065 58bc 40b4 233d 344d 92bc 706e 3a3d
00000160: 6016 f2bb b3ef 4abd 9883 993d 0e88 38bd
00000170: c04c 373c b08f 753d c8ad 8a3c 6e22 e4bc
00000180: 34c5 a3bc a864 79bc d06e 3d3d 6c94 a5bd
0.0033321679 -0.053954016 -0.080777876 -0.019913852 -0.06880208 -0.07430956 -0.042288296 0.028605826
-0.05179405 -0.051451832 -0.047609057 -0.04471465 -0.032536276 0.0569869 0.046453223 0.027869105
-0.02227502 0.011376552 -1.9147992e-05 -0.02542713 -0.075346306 -0.0009555891 0.027190298 -0.06539063
0.051907882 0.04988253 -0.04820106 0.03793542 0.0115097165 0.017407991 -0.011726961 -0.04973515
-0.058055766 0.0068174005 0.052429333 0.06299104 0.025393724 0.06679247 -0.032911383 0.00052283704
-0.045328658 -0.035190556 0.019777544 0.053811416 0.077389255 -0.006392047 -0.018804714 0.07174407
-0.025509298 0.06699787 -0.027423069 0.01473067 -0.0114553645 -0.017502025 0.0023051053 -0.07610507
0.07938826 -0.04735039 0.05755575 -0.058712665 0.07437983 0.050023094 0.031675473 0.03828469
-0.062252127 -0.0056893826 0.05208163 0.013262458 -0.06524429 0.052602023 -0.013107188 0.044699207
0.01881937 0.08098973 0.075676695 0.0069885626 -0.030279871 0.05963345 -0.06935401 -0.015945844
-0.05176297 -0.05985409 0.018650077 -0.003859222 -0.013207704 0.03996682 -0.017859079 0.045515478
-0.007387921 -0.049545 0.07495803 -0.045051627 0.011187732 0.059951484 0.016928568 -0.027848449
-0.019991495 -0.015221752 0.046248257 -0.0808495

4.weight f4 [4, 100]
00000000: e325 b13d 29d5 c33d f94a 933d 7e44 703d
00000010: 9d41 c5bd 3095 e73b 8ae4 753d 72db c7bd
00000020: c841 c5bc 24b1 d43c 00d5 75bd b7c3 71bd
00000030: 2427 0ebd cac1 2fbd 39f8 813d c7aa 953d
00000040: a1b0 cb3d e4a8 16bd 27c5 23bd 008a b33b
00000050: f0eb cbbd 7789 afbd 4a4f bbbd 25f6 81bd
00000060: 1ab9 003d 9775 813d 20f8 a33b 555d a23d
00000070: a8fe c2bd 14a5 e4bc 8586 ccbd 60b6 c4bb
00000080: a8ac c3bd bed9 553d 0d2c bfbd c72f 5cbd
00000090: 00cb 4abd 0022 c73a ad2b 9ebd 62b0 713d
000000a0: 530d 6bbd c223 233d a4b2 de3c 2043 edbc
000000b0: c896 ac3c a006 7ebb 20b7 e63b 894e 8f3d
000000c0: aeb4 0f3d 01b5 b93d b3eb afbd 9c5d 81bd
000000d0: 2c9b f0bc ea01 6a3d b961 bd3d d0b1 82bb
000000e0: d2a1 653d 1095 5ebd dc7c 85bd ac01 f23c
000000f0: bd72 b23d d2d8 3a3d 057c 87bd ad06 86bd
00000100: f5cf c53d 034f a3bd aa1b 3e3d 9ec1 0e3d
00000110: 8cbe b43c 1038 393c b0ca 63bd 1394 c9bd
00000120: aa7f b9bd 9de0 61bd 4e35 323d f6c0 07bd
00000130: e8b5 78bc 005a 8abd 88f0 abbc 07a8 be3d
00000140: 58be 93bc dca5 f03c 60d5 023b b5c5 b23d
00000150: 3379 813d 5e30 5d3d f13c 833d 84b1 05bd
00000160: 7a64 5f3d 8721 bc3d 489b 853c 1772 7abd
00000170: 2db7 8f3d 375d 893d 63c3 953d 8064 bc3c
00000180: 60b3 a93c 8076 b93a 6787 26bd 6d3a 853d
00000190: 7a6d 16bd 508b 41bc 1de6 1fbd d612 613d
000001a0: 950a 8abd 9a0d 113d 12b0 4c3d 8cc1 b13c
000001b0: 08bd bc3c 3936 933d e3ea b13d af41 9a3d
000001c0: f752 b8bd 6e96 523d 9533 8e3d 6206 6e3d
000001d0: 6cdc edbc f562 a43d 7b71 ca3d c6b8 793d
000001e0: bd1a 26bd 32f4 1a3d 536f 45bd 22a9 1e3d
000001f0: 073c ae3d e076 ddbc ca20 8cbd f0dc 02bd
00000200: 8f2c c9bd 835c 9e3d 7140 9b3d 807d c13a
00000210: 30ba bdbb aca9 9a3c f6a7 8abd d38d 20bd
00000220: 7ea4 263d 4a69 153d 3464 e3bc 5f53 b93d
00000230: 8065 af3c 000d 45bc 2dd3 b3bd 9f16 b4bd
00000240: 8d25 af3d e0f8 38bd 8d62 933d ada3 ad3d
00000250: 1a70 583d 8d24 44bd 5aaa adbd 4ab3 233d
00000260: a0f3 1b3b d0dd b0bb f617 82bd 7d89 883d
00000270: 4670 12bd 9fa9 943d 6639 693d 46c4 1e3d
00000280: 36e0 7d3d f70b b33d 0c9d 8c3c dfab c5bd
00000290: c0ff 183b 42da 2f3d dffb bc3d cead 553d
000002a0: 72c4 073d 50c0 d43b 685a c7bc 50aa 86bd
000002b0: f4e6 923c 9631 0e3d 5d50 82bd 57af b0bd
000002c0: ee0b 593d 0ea0 773d 1dc7 8d3d 713e b63d
000002d0: 1d8b afbd eca9 85bd 403b 9eba a8c1 96bd
000002e0: a1d0 af3d 5d9e 9a3d d1d7 803d 9117 ae3d
000002f0: 1253 a6bd f761 7dbd 85ce 86bd 6aaf 2f3d
00000300: e8ce 043c c711 45bd d009 db3b d5fe a53d
00000310: fe9c 073d 6901 863d 22b2 763d 1058 56bc
00000320: 66bc 08bd 8072 95bb 46e1 96bd bb70 98bd
00000330: f048 7f3c 30fb a3bb 6c1a a33c 4cb5 05bd
00000340: d0a9 aebd c464 df3c da50 81bd 9ac7 183d
00000350: d8b8 16bc f38d 31bd 084b bcbc 4e66 4f3d
00000360: b490 95bc 5a50 05bd 6890 04bc a033 54bb
00000370: 1d2d 72bd aa86 243d 23b3 99bd a053 543b
00000380: ce43 7d3d 00fb 7d3a 10ad 76bc f60d 753d
00000390: 9307 873d 6d18 44bd f8ae d6bc f29a 313d
000003a0: dd29 7cbd 008c 7e39 08d9 afbd 322b 493d
000003b0: 5399 a2bd 2049 9c3b cd9b 6bbd 52ef a3bd
000003c0: 39d0 a83d b690 213d 780c 8c3c b490 a03c
000003d0: a2ab 693d a742 71bd 6895 c43c 489e ccbd
000003e0: d94a 8a3d 10b8 00bc 9fac 983d 505f 0cbc
000003f0: dbec 8a3d 5803 a1bd 0695 373d 90ec 033c
0.086498044 0.095621414 0.07192034 0.05865907 -0.09631655 0.007067345 0.060032405 -0.09758653
-0.024079219 0.025963373 -0.060017586 -0.05902454 -0.034705296 -0.04290942 0.06346173 0.07307964
0.09945799 -0.03678216 -0.03998294 0.0054790974 -0.09957111 -0.08571141 -0.091459826 -0.063457765
0.031426527 0.063212566 0.005003944 0.07927958 -0.09521228 -0.027910747 -0.09986595 -0.006003186
-0.09554416 0.05220961 -0.09334574 -0.0537565 -0.049510002 0.0015192628 -0.07723174 0.059006102
-0.057385754 0.039829023 0.027184792 -0.028962672 0.021067992 -0.0038761273 0.007040873 0.06997401
0.03508442 0.09067727 -0.08589878 -0.06316683 -0.029370867 0.05713073 0.09247155 -0.003988482
0.056062527 -0.054341376 -0.06517956 0.029541813 0.08713291 0.045616932 -0.06615452 -0.06544242
0.09658805 -0.07974055 0.0464131 0.034852616 0.022063516 0.01130487 -0.05561322 -0.09842696
-0.09057553 -0.05514585 0.043507867 -0.033143006 -0.015180089 -0.067554474 -0.020988718 0.093093924
-0.018035099 0.029375963 0.0019963607 0.08729116 0.06321945 0.054001205 0.06408108 -0.032639995
0.05453918 0.09186082 0.016309395 -0.06114396 0.0701736 0.067072324 0.07312658 0.02299714
0.020715415 0.0014149696 -0.040656473 0.065052845 -0.0367255 -0.011813 -0.039037813 0.054949604
-0.067402996 0.035413362 0.0499726 0.021698736 0.023039356 0.071880765 0.08687379 0.075320594
-0.09000199 0.051412992 0.06943432 0.058111556 -0.02903577 0.08026687 0.09884926 0.06096723
-0.040552843 0.03783054 -0.04820187 0.038735516 0.08507543 -0.027034223 -0.068421915 -0.031948984
-0.09822952 0.07732489 0.075806506 0.0014762133 -0.0057900175 0.018879734 -0.06770317 -0.039197754
0.040684216 0.036477365 -0.027757742 0.09049105 0.021410704 -0.012027025 -0.08780513 -0.08793377
0.08552084 -0.04515922 0.071965314 0.08478484 0.052841283 -0.04788642 -0.084797576 0.039965905
0.0023796335 -0.005397536 -0.063522264 0.06666849 -0.035751604 0.07258915 0.056939505 0.0387614
0.061981402 0.087425165 0.01716473 -0.096519224 0.0023345798 0.042932756 0.09227728 0.052167706
0.03314633 0.006492652 -0.024335101 -0.06575453 0.017932393 0.034715258 -0.06362984 -0.086271934
0.052989893 0.060455374 0.069227435 0.088986285 -0.08571456 -0.06526551 -0.0012072101 -0.07361156
0.08584715 0.07549737 0.06291164 0.08500589 -0.08121313 -0.061861005 -0.06582359 0.042891897
0.008105971 -0.048112657 0.0066845194 0.08105246 0.033108704 0.06543238 0.060228474 -0.013082519
-0.033382796 -0.0045607686 -0.07367186 -0.07443377 0.0155813545 -0.005004309 0.01991006 -0.0326436
-0.08528483 0.027269728 -0.06314249 0.03729973 -0.009199344 -0.043348264 -0.022984996 0.050634675
-0.018257476 -0.032547332 -0.00809107 -0.0032379404 -0.059125055 0.04016749 -0.07504871 0.0032398477
0.06183224 0.0009688586 -0.01505591 0.059827767 0.065932415 -0.047874857 -0.026206478 0.043360658
-0.06156336 0.00024275482 -0.08586317 0.04911346 -0.079394005 0.0047694594 -0.05752163 -0.08004631
0.0824284 0.039444648 0.01709579 0.01960025 0.057048447 -0.058901455 0.023997024 -0.09991127
0.06752557 -0.007856384 0.074548 -0.008567646 0.06783458 -0.07861966 0.044819854 0.008052006

4.bias f4 [4]
00000000: 3024 c7bb f535 acbd e820 7a3c bdf7 a53d
-0.006077312 -0.08408729 0.0152666345 0.08103893
