logs/target_params_A_2000.pt (torch, 6271 bytes, 6 tensors)

0.weight f4 [24, 12]
00000000: 986a 07be b411 e2be 109f 0cbe 9cdd 8ebc
00000010: 3fef b3be d49d 10bf e813 3f3d 4deb 6abe
00000020: 9092 443d 04e5 86bd 88dd 32be ec85 a23d
00000030: d637 d4bd ba2f a3be 6f19 43bc 5a1c d83c
00000040: 8cbc 00bf ee8e c3bc dbdd cdbe 9dc0 6b3d
00000050: f0a5 fabc 9cf8 d03d 9ea9 183e 9643 873e
00000060: e2a5 d1bd 7c80 5a3d 5645 c83c 5027 4bbe
00000070: 5284 12be 8ec9 33be 9978 7d3b c3dd dbbe
00000080: e63a a5bd ea0c ddbd e875 2ebd 3ed5 50be
00000090: 7915 08bd 0d3a 5cbd d936 0ebd ec39 30bd
000000a0: 2c04 29bd 9032 2bbd 7d3c 3dbd 4b30 50bd
000000b0: c08e a53b 44b3 203e affb 2abe f857 31bd
000000c0: 53ee 6dbd 626e 8bbe 2e53 83be 6044 5e3d
000000d0: 5c91 dcbb f26a 80be afcb 66be 8e8f 52bd
000000e0: a445 52be 3c48 643e d4c1 8dbe 0c18 163e
000000f0: 6c78 05bd 3d27 b6be 1beb 03bd 3d61 22bd
00000100: e8e2 38bd c403 6fbd c340 efbd 20f8 3cbd
00000110: d04d d43d 5784 86be 645e fe3d a0ab 4d3e
00000120: 320e 4f3b 20e5 843b ca8d 2b3b f928 153b
00000130: df86 403a 2d44 683a c928 293b 2d53 bbba
00000140: 844d 173e f48e ccbd 3cdc 343e 3c74 aa3d
00000150: fd88 35bb 37f2 f8bb bc59 5ebc 64de 42bc
00000160: 882f 7cbb 5665 39bc 6252 39bd 8453 60bb
00000170: 11c9 44be 3bf4 8ebe 0018 36bb e0a9 e83d
00000180: ab13 37bd d9f1 40bd 851c 0ebd e844 12bd
00000190: 6390 dabc 3bcd 3bbd 3986 26bd 9cd8 24bd
000001a0: 3452 11be c09e 8c3e b0c8 0c3e 0459 023e
000001b0: f1a8 77bd 9ac6 cdbe b85b fbbe 0032 debd
000001c0: e34d 57bc c5a2 d4be 4876 6ebe 8c4d 95be
000001d0: a8ac c2bd 852e 14be 9086 07bd 008b b6bd
000001e0: 40c9 aebd d1c5 44be 2d21 0dbe 67c1 0fbd
000001f0: 9830 0fbd 2119 67be a902 48be 78b2 5abd
00000200: 9c78 1e3e b86d 36be 381f 9a3d d873 143e
00000210: 9224 d5bd 643e 9ebd 31ea d1bd 4079 9c3d
00000220: 006a e8bd 7a18 bbbd 0a36 28be c3e4 eabe
00000230: d096 673d ca66 87be 38e6 5abe 16f0 7dbe
00000240: 7382 cfbd bbdf c1bd 806c d4bc 9fec 063c
00000250: 5ce8 aebd 964c e1bd f245 4fbe b4de f3bd
00000260: 4c6d 543e 4c7a 15be e0e9 64bd 6ce6 f53d
00000270: c8fc abbe bfcf 86bf 763a 29be 13e2 cf3c
00000280: 2d0f 3dbd 7a7c 8ebe 3655 9ebe 6d1c 0dbd
00000290: 605a 063c a6ea 503e 8080 60bc 04a5 6fbd
000002a0: 4402 3bbe c5f0 603d 4f9e 16be 7e3d c1bc
000002b0: c0e6 6fbe ec7c e6bd 4109 d1be 268b cebd
000002c0: 1068 46bd 7f87 09be 38d7 7a3e 380e 193e
000002d0: eb0d a7be 1d3f 47be cda3 19be 6e2d 9fbd
000002e0: db2e aabd 38be 00bf 7e75 0abf f639 b43d
000002f0: 90ee f2bd 98fd 7b3e 50e5 a13d fc6d 933e
00000300: 916f 84bc f9f9 91bd 21a4 43bc 1360 033e
00000310: bfd1 b8bd 2b98 40be 4089 8cbe e246 19be
00000320: 400b 163e b0d7 b33c c897 373e 28c3 7f3e
00000330: a606 49bf c549 39be 61cd e5bb e91c 30be
00000340: c141 7bbd ab7b d2be e8d5 2fbd f0c4 2bbc
00000350: 4457 53be 541f 6a3e a268 563e 8025 453d
00000360: d80d 2abe f797 17be e6d6 d6be aca2 603d
00000370: bbff b4bd c098 89be 8d24 65be 5faa bfbd
00000380: e8b1 5abd f6bd 37be e88c 173d b601 debd
00000390: 54f7 b3bd 066c b9bd 9c6f bbbd c2b4 32bd
000003a0: 3d60 7abd a196 9ebd 76e9 cebd bcf3 cebd
000003b0: 4668 08be 4213 463e 58c2 8e3e 24f2 5fbe
000003c0: 9533 53bd 70da acbd 6b16 65bd 7658 04bd
000003d0: 5e27 04bd 7fd0 ab3c 6c0e b0bd 3bbd 72bc
000003e0: 4e6b 313e f9fa 1ebe 78d6 06bd 40a1 adbc
000003f0: c657 1bbe 6e99 dcbd eeb6 dabc 8363 8bbe
-0.13224256 -0.4415413 -0.13732553 -0.017439656 -0.35143468 -0.56490827 0.046649843 -0.22941323
0.047991335 -0.0658665 -0.1746732 0.079357 -0.10362212 -0.3187235 -0.011907919 0.026380707
-0.502877 -0.023871865 -0.40208325 0.057556737 -0.030596703 0.102036685 0.14908454 0.2641875
-0.10236718 0.05334519 0.024447124 -0.19839215 -0.14308289 -0.17557356 0.0038676618 -0.42942628
-0.080678746 -0.10793479 -0.042592913 -0.20393845 -0.033223603 -0.0537663 -0.034720276 -0.04302399
-0.041263744 -0.041796267 -0.046200264 -0.050827306 0.0050524175 0.15693384 -0.16697572 -0.043296784
-0.05808861 -0.27232653 -0.256494 0.054264426 -0.0067311954 -0.25081593 -0.22538637 -0.051406436
-0.20534378 0.2229318 -0.27686942 0.1465761 -0.032585546 -0.3557681 -0.032206636 -0.039643515
-0.04513827 -0.0583532 -0.11682274 -0.046135068 0.10366404 -0.26272842 0.12420347 0.20085001
0.0031594154 0.004055634 0.0026177042 0.0022760017 0.0007344316 0.00088602566 0.0025811663 -0.0014291756
0.14775664 -0.09988204 0.17662138 0.08322951 -0.002770006 -0.0075972336 -0.013571199 -0.011893842
-0.003848048 -0.011315664 -0.045244582 -0.0034229467 -0.19217326 -0.27920708 -0.0027785301 0.11360526
-0.04469649 -0.047105644 -0.034695167 -0.035710245 -0.026680177 -0.04585002 -0.04065535 -0.040245637
-0.14191514 0.27464867 0.13748431 0.1272927 -0.06046385 -0.40190583 -0.49093413 -0.108493805
-0.013141128 -0.41530433 -0.23287308 -0.29160726 -0.09505588 -0.14470871 -0.033087313 -0.08913231
-0.08534479 -0.19216086 -0.13782187 -0.035096552 -0.034958452 -0.2256818 -0.19532265 -0.053392857
0.15475696 -0.17815292 0.07525486 0.14497316 -0.10407366 -0.07726744 -0.102497466 0.07640314
-0.11348343 -0.09135528 -0.16426864 -0.45877656 0.05654031 -0.2644561 -0.21376884 -0.24798617
-0.10132303 -0.09466501 -0.025930643 0.008235126 -0.08540413 -0.11000936 -0.20241526 -0.119077116
0.20744818 -0.14597434 -0.055887103 0.1200684 -0.33591294 -1.0532149 -0.16526207 0.025376355
-0.04615705 -0.27829343 -0.30924386 -0.034450937 0.008200258 0.20402011 -0.013702512 -0.05850698
-0.18262583 0.054917116 -0.14708827 -0.023588892 -0.23427868 -0.11254296 -0.40827373 -0.10085134
-0.048439085 -0.13430594 0.24496162 0.1494683 -0.32627806 -0.1945767 -0.15003891 -0.07772337
-0.08309718 -0.5029025 -0.5408553 0.08800118 -0.118619084 0.24608457 0.07905066 0.2879485
-0.01616648 -0.071277566 -0.011940987 0.12829618 -0.09024381 -0.18808047 -0.27448463 -0.14968446
0.14652729 0.021953434 0.17928994 0.2497679 -0.7852577 -0.18094547 -0.0070130085 -0.17198528
-0.061342005 -0.41109976 -0.042928606 -0.010483965 -0.20638758 0.22863513 0.20938352 0.048131466
-0.16606843 -0.14804064 -0.4196083 0.054842636 -0.08837839 -0.26874352 -0.22377224 -0.093586676
-0.05339232 -0.17943558 0.036999613 -0.1084017 -0.087874085 -0.09053807 -0.09152147 -0.043629415
-0.061126936 -0.07743574 -0.10103123 -0.101050824 -0.13321027 0.19343284 0.27882648 -0.21869713
-0.051562864 -0.08440101 -0.055929583 -0.032310925 -0.032264106 0.020973442 -0.08596501 -0.014815624
0.1732609 -0.15525426 -0.032919377 -0.021195054 -0.15170202 -0.10771452 -0.026698556 -0.2722436

0.bias f4 [24]
00000000: bd94 45be fbd6 9fbe 0af7 b7be 749b ba3c
00000010: 27b6 67be cef3 a53c 6155 133e d33e 14bd
00000020: 9062 4a3c d901 f3bb c62d bf3c 3988 9cbe
00000030: 88e3 07bd 90e3 e6bd 48ca 63be 50a5 7cbe
00000040: 7f74 04bf 70e6 f6ba d39a 7bbe cf0a 5bbb
00000050: ddc2 88bd add5 52be 5d80 99bd c877 72bc
-0.1929502 -0.31218705 -0.35930663 0.022779204 -0.2262808 0.020257857 0.14388038 -0.036192726
0.012352601 -0.0074159917 0.023337256 -0.3057268 -0.033175975 -0.11273873 -0.22245133 -0.24672437
-0.5174026 -0.0018836986 -0.2457078 -0.003342319 -0.06677792 -0.20589323 -0.074951865 -0.014799066

2.weight f4 [24, 24]
00000000: 257d 833e 1525 bb3c 7aad 003e 160b f7bd
00000010: cd25 733e 5485 dc3d e882 703d e95c 563d
00000020: 5696 d5bd ea77 e63d 420f ec3d 0d35 aabd
00000030: 1526 01be d632 c03e f8b6 87be 3809 4b3d
00000040: 00b9 2fbe cfbb abbd 3177 86be 48b6 52bd
00000050: ae15 273d 008a ee3d 320b 38be fb62 4fbc
00000060: 44ec c2bd 571d 16bc e8f0 e5bd 07ea 063e
00000070: 8c2c a03d 3fac 9fbc 0360 983d 94bb e83d
00000080: 8f48 173e d200 35bd b9b4 2e3d 8769 94bc
00000090: cc2d 0e3d 262b 113e ef3a bf3d f7d5 023d
000000a0: 9cbd 203e aa56 f23c 3891 10be 19e3 213e
000000b0: 09b6 0a3e f3a6 27bd 36f9 43bd 6bf2 bdbc
000000c0: bf90 6b3c 0a6e 89bd 824d 2d3d 39fc 973d
000000d0: 5771 9dbd 5bc5 aabd 6aef 11bc 5743 473d
000000e0: d60b 903d 6019 d83c 1a5b 423d 14a7 273d
000000f0: cb83 5b3e e2a8 7fbd acf8 3a3e c2ff ddbb
00000100: b67f 273b 23ea 1fbd 52cd 533d e892 d8bd
00000110: 1c2d e7bb 7300 3f3c 5803 eebd 530f 85bc
00000120: f24d 8abd c9a2 933e 6109 56bd 40ef d93d
00000130: 933d 9dbd 2518 4fbd ec04 a23e 19ec 33bd
00000140: cfef 663d 786c 233a fe1c 3d3d cc6f b63a
00000150: c93b 73bd 0c0c 003e 6d17 cabd 4280 40bc
00000160: 4109 b8bd 03c6 51be 19f2 51bd c930 8d3c
00000170: 1327 64bd a55b 0cbd 8857 a23d bd38 d7bd
00000180: 6f63 c5bd 2e6f 433d 8bdc 4c3b 0e8c 09bc
00000190: cd8e 22be c3d9 4f3d 758b d23d ca93 67bb
000001a0: 1280 41bc 5bb2 afbd 842d 393d ad05 d63d
000001b0: 6bc2 5abd c33b 84bd 46de cf3d a2ef 7dbd
000001c0: 1279 663e 3c86 10bd cb5f 4abc fa60 b6bd
000001d0: a342 b0bc 52d9 503d 7933 eb3d b26b 9ebd
000001e0: 4cb0 9e3d 07bf 823e 1c9b e53d 60db e5bd
000001f0: df69 01bd dc1f 043e 3643 483d c1ce 813b
00000200: b7ec b0bd a40c 4a3d 3e46 b73d 2d05 1f3e
00000210: 4cd7 0fbe b338 d2bc 5766 e1bd a01b 62bd
00000220: 2ddb fbbb ed55 4dbd b017 0a3d e365 84bd
00000230: cf32 a0bd 744d dabd bf0e 933d e766 3e3d
00000240: 8447 573e 59b9 27bc 35fb bcbd 9097 8abb
00000250: 9117 a9bc a1ae f43d bc8f 25be 3547 823d
00000260: 9c9f 083d 9d43 093e eeb4 2cbd 2016 173e
00000270: bb65 18bd 8811 ffbd bbb7 babb a507 38bc
00000280: 9753 763e 51f1 073e a6f5 e13c 1e4f 51bb
00000290: fee6 a03c 4980 383d 5486 6d3d c2dd 7d3d
000002a0: d678 0ebe a5c8 36bd 3ab8 b23d f923 613b
000002b0: 0087 543d f392 b73d 041f 873e bed3 293e
000002c0: 09e2 9a3c 3c65 09be 1143 113e 22aa 89bd
000002d0: 684f cabd ae21 283e 6fa4 99bb 6064 bfbd
000002e0: dc17 2a3c 89b4 8ebd 8dbe b7bd fc5f b93d
000002f0: a0cc 0a3e 650c 84bd dc2a c3bc 31a1 4b3d
00000300: a643 593e a4a7 1b3b 9b6b ab3d 388b bcbc
00000310: a96f 463d be2f 0f3d fd06 20be 2e02 b83d
00000320: ce5c c7bc 47e0 98bd 8117 02be 2230 bebc
00000330: 5ddb a03d d944 c4bd 3664 5dbd a916 00bc
00000340: ff3d 18be 2ce5 843d 2993 2c3d bfc9 0e3e
00000350: 9df4 0a3e 308d 453d cda6 27bd bf6c a03d
00000360: b041 79bd 52e7 333d 505b 42bd 1bd8 d7bd
00000370: d463 c2bc afac 1fbc d764 06bd 4708 723c
00000380: 7972 3abe fcfd 50bd 447e 6a3d 6f8d 143e
00000390: 95cf ebbc 824e f6bd 580c 6a3d 8b2d f53d
000003a0: d933 f13d fcd5 09be 9011 6fbd 45c7 15be
000003b0: d679 20be 90e0 243c 8813 e73d 9219 693d
000003c0: 2511 49bf 2b29 3f3e 1790 573e 96ee 9fbe
000003d0: 3d9f 573e d52c 4ebe 8380 893d 6109 98be
000003e0: fbc8 35be 83da 0fbf fa08 92bd ca9c c1be
000003f0: 0225 2cbe c8ae fe3e c446 3bbe f09d 50bf
0.25681415 0.02284483 0.12566176 -0.12062661 0.23744889 0.10767618 0.058718592 0.0523347
-0.10429065 0.112533405 0.11526348 -0.083109 -0.12612183 0.37538785 -0.26506782 0.04956934
-0.17160416 -0.08385431 -0.2626281 -0.05144337 0.04079216 0.11647415 -0.1797302 -0.012657876
-0.0951772 -0.009162269 -0.1122759 0.13175212 0.07820997 -0.019491313 0.07440188 0.11363903
0.14773773 -0.044190235 0.04265282 -0.018116726 0.034711644 0.14176616 0.093374126 0.031942334
0.1569733 0.02958234 -0.14117897 0.15809287 0.13546003 -0.0409307 -0.047845088 -0.023186883
0.014377772 -0.067104414 0.042310245 0.074211545 -0.076876335 -0.08338424 -0.008907178 0.048648205
0.070335075 0.026379287 0.047450162 0.040930822 0.21436994 -0.06241692 0.18258923 -0.0067748735
0.00255583 -0.03904165 0.05170948 -0.10574895 -0.007054938 0.011657822 -0.116217315 -0.016242659
-0.06753148 0.28835133 -0.05225504 0.106413364 -0.0767776 -0.050560135 0.3164438 -0.043926332
0.056381043 0.00062341196 0.046170227 0.0013918816 -0.059383187 0.12504596 -0.09867749 -0.011749329
-0.0898614 -0.20485692 -0.051256273 0.017235177 -0.055701327 -0.034267087 0.079268515 -0.10508869
-0.09638106 0.04771345 0.0031259384 -0.008395208 -0.15874787 0.050744783 0.102805056 -0.0035335892
-0.0118103195 -0.085789405 0.045209423 0.10450301 -0.053408068 -0.06456711 0.10149817 -0.06199611
0.22507122 -0.035284266 -0.01235194 -0.089052156 -0.02151615 0.050988503 0.11484427 -0.07735385
0.0774847 0.25536367 0.112112254 -0.11223483 -0.031595107 0.12902778 0.048892222 0.0039614146
-0.086389 0.04932846 0.089489445 0.15529318 -0.14046973 -0.025661802 -0.11005848 -0.055202127
-0.00768604 -0.050130773 0.033713996 -0.06464746 -0.07822191 -0.10659304 0.07180547 0.046484854
0.21023375 -0.010237061 -0.092276014 -0.0042294934 -0.02064112 0.1194737 -0.16168112 0.06361238
0.03335534 0.13404699 -0.042164735 0.14754534 -0.037206393 -0.12454516 -0.005698172 -0.011232291
0.24055324 0.13275649 0.027582955 -0.0031938027 0.019641396 0.045044217 0.057989433 0.061979063
-0.13913283 -0.044624943 0.08726545 0.0034353717 0.05188656 0.08963575 0.2639085 0.1658468
0.01890661 -0.13417524 0.1418574 -0.067219034 -0.09878427 0.16419098 -0.0046887915 -0.09345317
0.010381665 -0.06968028 -0.089718916 0.09051511 0.1355462 -0.064476766 -0.023824148 0.04971427
0.21217212 0.0023751045 0.083701335 -0.023015603 0.04844633 0.03495764 -0.15627666 0.08984791
-0.024336245 -0.074646525 -0.12704279 -0.02321631 0.0785434 -0.09583444 -0.054050647 -0.007817903
-0.148674 0.064890236 0.04213253 0.13944148 0.13569875 0.04823035 -0.040930558 0.07833242
-0.06085366 0.043921776 -0.047450364 -0.10539266 -0.023729242 -0.009745761 -0.032811012 0.014772481
-0.1820773 -0.05102347 0.057249323 0.14507078 -0.028785506 -0.12026693 0.05714068 0.11971577
0.11777467 -0.13460535 -0.05836636 -0.14626797 -0.15671477 0.0100633055 0.11283022 0.05690915
-0.78541785 0.18668048 0.2105106 -0.31236714 0.21056838 -0.2013429 0.06713965 -0.29694656
-0.17752449 -0.561928 -0.071306184 -0.37814933 -0.16810992 0.49742723 -0.18288714 -0.81490993

2.bias f4 [24]
00000000: bae4 3fbe 6397 9dbd be20 86bd 5c13 d3bd
00000010: 7b59 fa3d c634 123e be73 c6bb 7729 05bd
00000020: 5f18 763d c8e2 4dbe d1a0 c1bd 30ba 38bd
00000030: 8462 0ebd 6f2a 2b3e eeaa 17be f730 3f3d
00000040: bbf4 34bc 920b 1cbe b330 c0ba 1c4a fcbc
00000050: a08a 203d 5e0b 03be f99c a8bc 947b b83e
-0.18739596 -0.0769489 -0.06549214 -0.10306427 0.12224098 0.14277944 -0.006056278 -0.032510247
0.060081836 -0.20106041 -0.094545014 -0.045099437 -0.03476192 0.16715406 -0.14811298 0.046677556
-0.011044676 -0.15238789 -0.0014662951 -0.030797057 0.039194703 -0.12797305 -0.020582663 0.36031783

4.weight f4 [4, 24]
00000000: f0cd 8b3c e3b4 cdba 00e0 17bb e116 13bb
00000010: 4419 2abe 3c68 4ebd 3ac2 a7bc 2925 02bd
00000020: bb2b 86bd 4046 37be a540 9e3e c92b eeba
00000030: 7000 e0bd f406 4cbd b5ca 32bd b635 87bd
00000040: 6cfb 03bd 124f 6b3e be5f 403e 948e 78ba
00000050: 94dc 0a3c 6b27 bfbd bd39 00be 0450 51bd
00000060: ea14 773b b876 1f3d 4b07 c5b9 e302 d13a
00000070: 78a1 80bd 4009 d53d fdd9 35bc bd55 893c
00000080: 3108 8e3a 427d 97bd 536d 543e 075f 213c
00000090: 3aba febd d1ed 363d 575b d4bd eb21 0cbd
000000a0: 010b 95bc 3bff c9bd 1ee4 1ebe f95f 9c3b
000000b0: 1787 7fbc 67b1 a0bd 5211 963d 0e9c c63d
000000c0: f38d 03bd d15f 31bd e061 83bb b764 ad39
000000d0: 28f8 823d bbf1 70bd 199d 26bc 129a f43a
000000e0: e589 813c 31cc 12be e3b7 8c3e d349 27bc
000000f0: bf23 b2bd b1bf ea3b c211 5c3e d574 c23b
00000100: 8716 3f3c e071 973e b015 f23c f3b3 4ebc
00000110: 8baa 913c 5e9a f6bd 4ce0 ebbd 4b27 8e3c
00000120: 041a debb 5de6 913d 260a cdba a87b 823b
00000130: 7ed9 8abd 1025 07bd 34f3 32bb 8f62 bfbd
00000140: b9a2 59bd 05ec 8fbb bf5c 463e 8ab8 70bb
00000150: 1267 02be 574c d0bd cbb0 fd3d 0bf6 2abd
00000160: 2ba3 a0bc 7a69 fb3d 0d3d 8cbd 30b2 ebbb
00000170: fbfa 473d b639 98bc dbff 8fbc 3c13 e7bd
0.017065972 -0.0015694167 -0.0023174286 -0.0022444057 -0.166112 -0.050392374 -0.020478357 -0.03177372
-0.0655131 -0.17897892 0.30908695 -0.0018171008 -0.109375834 -0.04981132 -0.043650348 -0.066020414
-0.032222196 0.22979382 0.18786523 -0.0009481695 0.0084754415 -0.0933369 -0.12522025 -0.0511017
0.0037701675 0.03893158 -0.00037580202 0.0015946295 -0.06280798 0.10402155 -0.011099336 0.016764516
0.0010836181 -0.07396938 0.20744829 0.009849316 -0.12437864 0.044660393 -0.10368984 -0.034212034
-0.018193724 -0.098631345 -0.15516707 0.004772183 -0.015596173 -0.07846337 0.07327522 0.09697734
-0.032117795 -0.04330427 -0.0040094703 0.0003307217 0.06394988 -0.058824282 -0.010169291 0.0018661639
0.015812824 -0.14335705 0.27484044 -0.010210472 -0.08698224 0.0071639647 0.21491149 0.0059343376
0.011663086 0.29579067 0.029551357 -0.012616145 0.017781517 -0.12041162 -0.115173906 0.01735272
-0.0067780036 0.071240164 -0.0015643283 0.003982026 -0.067797646 -0.03299433 -0.0027305605 -0.093449704
-0.0531337 -0.0043921494 0.19371317 -0.0036731088 -0.1273463 -0.10170811 0.12387236 -0.04173855
-0.019609055 0.122759774 -0.06847582 -0.0071928725 0.048823338 -0.018582206 -0.017578056 -0.112829655

4.bias f4 [4]
00000000: a13f 843d e8d0 30bd 6df3 72bb eafa 9d3d
0.06457449 -0.04316798 -0.0037071363 0.07713874
