logs/target_params_A.pt (torch, 6231 bytes, 6 tensors)

0.weight f4 [24, 12]
0	0xc0b943fb	-5.7895484
1	0xc0c8168a	-6.2527514
2	0xc0b9a778	-5.801693
3	0xc0bf550b	-5.979131
4	0xc0c41beb	-6.128408
5	0xc0c8c0f7	-6.2735553
6	0xc0ba538d	-5.822699
7	0xc0c610cc	-6.1895504
8	0xc0b8b236	-5.7717543
9	0x3e804b94	0.25057662
10	0x3d4ffb28	0.05077663
11	0xc0b85899	-5.760815
12	0xc0beb33a	-5.9593782
13	0xc0c78bbd	-6.235808
14	0xc0c65ecc	-6.199072
15	0xc0c284fe	-6.0787344
16	0xc0c7f704	-6.2489033
17	0xc0b99e5d	-5.8005815
18	0xc0bba1f6	-5.8635206
19	0xc0b9f38e	-5.810981
20	0xc0bc1f6a	-5.8788347
21	0x3dcc7f64	0.09985235
22	0xbe8730c7	-0.26404402
23	0xc0b9481a	-5.7900515
24	0xbe33023d	-0.17481323
25	0xc0c4f319	-6.154675
26	0xbe10a711	-0.14126231
27	0xbe85ab8a	-0.26107436
28	0xc0c3c939	-6.1183133
29	0xc0c1497b	-6.04022
30	0xc0bb26b1	-5.848473
31	0xc0b8dc57	-5.776897
32	0xbe0f473e	-0.1399202
33	0xc0c10b52	-6.032632
34	0x3d928638	0.071545064
35	0xc0b6847b	-5.703672
36	0xc0ca2f94	-6.318308
37	0xc0cdc520	-6.430313
38	0xc08b075c	-4.3446484
39	0xc08f34b6	-4.4751844
40	0xc08b929a	-4.3616457
41	0xc08d7f46	-4.4217863
42	0xc0d8ab8d	-6.7709413
43	0xc0d5d8b3	-6.6827025
44	0xc099d11e	-4.806777
45	0xc0d062c2	-6.5120554
46	0x3dbcf464	0.09226301
47	0xc092cb8e	-4.587348
48	0xc0d0c659	-6.5242124
49	0xbfa6da85	-1.3035437
50	0x411350c5	9.207219
51	0x41195d7c	9.585323
52	0x4068ed26	3.6394744
53	0x40cc1a9e	6.378249
54	0xc12fc78c	-10.9862175
55	0xc15928f1	-13.572495
56	0x41060c2b	8.377971
57	0xbf98675f	-1.1906546
58	0xbc38c3a0	-0.011277109
59	0xc193aa75	-18.458231
60	0xc0c13bc0	-6.0385437
61	0xc0bcf522	-5.9049234
62	0xc0beacb2	-5.958581
63	0xc0baabc2	-5.8334665
64	0xc0be5934	-5.948389
65	0xc0c79b9c	-6.2377453
66	0xc0bb60b8	-5.8555565
67	0xc0c6fae2	-6.2181253
68	0xbe2e9470	-0.17048812
69	0x3e6fe570	0.23427367
70	0x3dd39e44	0.10332921
71	0xbe28bfd2	-0.16479424
72	0xc0b82836	-5.7549086
73	0xc0be0bd7	-5.9389453
74	0xc0c4dbdc	-6.1518383
75	0xc0c8a96b	-6.270681
76	0xc0bc6402	-5.887208
77	0xc0c66b4e	-6.2005987
78	0xc0bf4d6d	-5.9782014
79	0xc0be8aef	-5.9544597
80	0x3e88deb6	0.26732415
81	0xc0beb81d	-5.959975
82	0x3e7f863c	0.2495355
83	0xc0c1d2b1	-6.056969
84	0xc0ba413f	-5.8204646
85	0xc08a82c9	-4.328465
86	0xc08a3273	-4.3186584
87	0xc0952827	-4.6611514
88	0xc098dcb8	-4.776943
89	0xc09900b8	-4.7813377
90	0xc0d5ca28	-6.6809273
91	0xc0d63d6e	-6.6949987
92	0xc0b1ed3a	-5.5602083
93	0xc0aff7e6	-5.499011
94	0x3c97b4b0	0.018518776
95	0xc088a567	-4.2701907
96	0xc098a339	-4.7699246
97	0xc08d20ac	-4.4102383
98	0xc091b650	-4.553505
99	0xc09c1af9	-4.8782926
100	0xc0985fe1	-4.761704
101	0xc08f212d	-4.4728
102	0xc08aee0f	-4.34156
103	0xc09582c3	-4.672212
104	0xc097df31	-4.745995
105	0xc094896f	-4.6417766
106	0xbdad4984	-0.084612876
107	0xc09b6457	-4.8559985
108	0xc0bd97fd	-5.9248033
109	0xc0bbcfc4	-5.869112
110	0xc0c70a46	-6.220004
111	0xc0bf2063	-5.9727035
112	0xc0c3a9a5	-6.1144586
113	0xc0c71279	-6.221005
114	0xc0bfe60e	-5.996833
115	0xc0bcce58	-5.9001884
116	0xbe8f87b6	-0.28033227
117	0x3db3cab4	0.08778897
118	0x3e23ad5c	0.159841
119	0x3e0ca360	0.13734198
120	0xbbb31f00	-0.005466342
121	0xbe8be80a	-0.2732547
122	0xbe0907e7	-0.13381921
123	0xbe275987	-0.16342746
124	0xbe869325	-0.26284137
125	0xbd9d9dc0	-0.07696104
126	0xbe3e0bae	-0.18559143
127	0xbe0558ca	-0.13022152
128	0xbe2d9ebc	-0.16955084
129	0xbb5bdf00	-0.0033549666
130	0x3da02a88	0.07820612
131	0xbe8fab09	-0.28060177
132	0x40d51aa1	6.6595006
133	0x4120f2ee	10.059309
134	0xbf15d3b7	-0.58526176
135	0xc077241c	-3.861579
136	0x402533ea	2.5812936
137	0xc05eeeb5	-3.4833195
138	0x418ec7b8	17.847519
139	0x412114a4	10.067539
140	0xc0eaabc7	-7.333469
141	0x40c9d265	6.306933
142	0x3e256b64	0.16154248
143	0x41b49e35	22.57725
144	0xc0bd5d56	-5.9176435
145	0x40b88eb7	5.7674212
146	0xc0c0fec0	-6.0310974
147	0xc0b85b53	-5.761148
148	0xc0b6a93f	-5.70816
149	0xc0c32734	-6.0985355
150	0xc0bbafd0	-5.8652115
151	0xc0bb25c7	-5.8483615
152	0xc0bf7c2f	-5.983909
153	0xc0c8a074	-6.2695866
154	0xbd2db33c	-0.04240726
155	0x40bf9606	5.9870634
156	0x4187bb46	16.966442
157	0x41314dbe	11.08148
158	0x4000f53a	2.0149674
159	0xbeaf71e6	-0.34266585
160	0x40bc03e6	5.875476
161	0x402108ec	2.5161695
162	0x41adec82	21.740482
163	0x41c0320f	24.024443
164	0xc022ca82	-2.54361
165	0x412a5b98	10.647362
166	0xbd3c4f98	-0.045974344
167	0x42017599	32.36484
168	0xc09772d0	-4.732765
169	0xc0d7ce6e	-6.743949
170	0xc08c8a46	-4.391879
171	0xc08d1fae	-4.410117
172	0xc09512dd	-4.6585526
173	0xc088028d	-4.2503114
174	0xc0d4722c	-6.638937
175	0xc0c87462	-6.264207
176	0xc094635c	-4.637129
177	0xc0d1ab6c	-6.5521755
178	0x3c7ac3e0	0.015305489
179	0xc0ccb193	-6.3966765
180	0xbd928bfc	-0.07155606
181	0xbdf16ba6	-0.117881104
182	0xbdc2efb0	-0.09518373
183	0x3df1d6b8	0.118085325
184	0xbd1e3320	-0.038622975
185	0xbe726e4d	-0.23674889
186	0xbe15ee94	-0.14641792
187	0x3e0ba3a0	0.13636637
188	0x3d0729c0	0.0329988
189	0x3e0c7218	0.13715398
190	0x3cb9fd00	0.022703648
191	0xbe5951a4	-0.2122255
192	0xc0c9c8e4	-6.305773
193	0xc0cbe768	-6.371998
194	0xc091dbba	-4.558072
195	0xc08f58c0	-4.4795837
196	0xc09197d1	-4.5497823
197	0xc08905be	-4.281951
198	0xc0d70eaa	-6.72054
199	0xc0d6ecc7	-6.7164035
200	0xc089d525	-4.3072686
201	0xc0c9f747	-6.311435
202	0x3d3b9808	0.045799285
203	0xc0d8e400	-6.777832
204	0xc0d6a20a	-6.70728
205	0xc09494f5	-4.643183
206	0xc08a8c23	-4.3296065
207	0xc094c3d8	-4.6489067
208	0xc093189b	-4.5967536
209	0xc09987b9	-4.7978177
210	0xc0d2ff86	-6.593692
211	0xc0cb782b	-6.358419
212	0xc0bb5112	-5.8536463
213	0xc0b709ff	-5.71997
214	0xbcfc04c0	-0.030763984
215	0xc0905d80	-4.5114136
216	0xc096ccc3	-4.7124953
217	0xc08b3f8f	-4.3515086
218	0xc089fae0	-4.3118744
219	0xc08f1ca4	-4.472246
220	0xc08dc971	-4.43084
221	0xc0886f34	-4.2635746
222	0xc0ce1822	-6.440446
223	0xc0980419	-4.7505
224	0xc09362a1	-4.6057897
225	0xc08b6421	-4.355973
226	0x3e45d802	0.19320682
227	0xc0946b80	-4.6381226
228	0xc0d38d9d	-6.611037
229	0xc08acf66	-4.337817
230	0xc095da60	-4.682907
231	0xc08d41c0	-4.414276
232	0xc09575cd	-4.67063
233	0xc088bd64	-4.273119
234	0xc0d3121b	-6.59596
235	0xc0d2d989	-6.5890546
236	0xc096dc08	-4.7143593
237	0xc0c74daa	-6.2282305
238	0xbe879a40	-0.2648487
239	0xc088970c	-4.2684383
240	0xc0c747ee	-6.2275305
241	0x40c65ef4	6.199091
242	0xc0bc8697	-5.8914294
243	0xc0bf1521	-5.971329
244	0xc0c561e7	-6.168201
245	0xc0bf323e	-5.974883
246	0xc0b76724	-5.7313404
247	0xc0b742ac	-5.7268887
248	0xc0bec651	-5.9617085
249	0xc0c04652	-6.008584
250	0xbe5a0fd3	-0.21295099
251	0x40b80db5	5.751673
252	0xc0c6639f	-6.199661
253	0xc0c686ea	-6.203969
254	0xc0c4a4a8	-6.1450996
255	0xc0ba9d4e	-5.831702

0.bias f4 [24]
0	0xc0c4ae4f	-6.146278
1	0xc0c67563	-6.2018294
2	0xc0b947f5	-5.790034
3	0xc09103db	-4.5317206
4	0x402cb36a	2.6984506
5	0xc0c81396	-6.252391
6	0xc0c078b4	-6.0147343
7	0xc098defc	-4.77722
8	0xc097e2b1	-4.7464223
9	0xc0c72f9d	-6.224562
10	0xbe0cc0ed	-0.1374547
11	0x3ffcac3e	1.9740064
12	0xc0bf42c7	-5.9769015
13	0x40f32c0b	7.5991263
14	0xc09846e1	-4.758652
15	0xbb45ea00	-0.003019929
16	0xc08e5881	-4.4483037
17	0xc08f49f0	-4.4777756
18	0xc096ff91	-4.718697
19	0xc08a7234	-4.326441
20	0xc0ba9676	-5.830867
21	0xc0c0bc72	-6.0230036
22	0xc08976a1	-4.295731
23	0xc09265aa	-4.57491

2.weight f4 [24, 24]
0	0xc0b92d63	-5.7867904
1	0xc0bb69d1	-5.856667
2	0xc0c22739	-6.067288
3	0xc08de31a	-4.4339724
4	0xc1026b76	-8.151236
5	0xc0ba9f37	-5.8319354
6	0xc0bff8a3	-5.999101
7	0xc08b5939	-4.3546414
8	0xc0cd12d2	-6.4085474
9	0xc0c2c98f	-6.0871043
10	0x3dab0890	0.083512425
11	0xc0504009	-3.2539084
12	0x40c49d2b	6.1441855
13	0xc04cf27b	-3.2022998
14	0xc08b8045	-4.359408
15	0xbd0f9df8	-0.03506276
16	0xc08ea2d6	-4.4573774
17	0xc0907ef3	-4.5154967
18	0xc08ce0d6	-4.402446
19	0xc08be656	-4.371867
20	0x40c08ccd	6.0171876
21	0xc0c235b4	-6.0690556
22	0xc08da7a6	-4.426715
23	0xc0d5564e	-6.6667852
24	0x40be9a39	5.956326
25	0x40bbe85e	5.872115
26	0x40bb6460	5.856003
27	0xc0d6d047	-6.7129245
28	0xc0930cc1	-4.595307
29	0x40c3e47c	6.121641
30	0x40bc47e7	5.883777
31	0xc0951a5d	-4.659468
32	0xc09275f2	-4.5768976
33	0x40c0b260	6.0217743
34	0xbcdf7e90	-0.02728203
35	0xc0d15b17	-6.5423694
36	0xc0bb1946	-5.846835
37	0xc0ebbb7b	-7.366636
38	0xc0d190af	-6.5489116
39	0x3e1ae0d6	0.1512483
40	0xc0d4ff8a	-6.6561937
41	0xc0939500	-4.6119385
42	0xc0cf2ef3	-6.474481
43	0xc0d3e53e	-6.6217337
44	0xc0b923ad	-5.785605
45	0x40bc670d	5.8875794
46	0xc0d74a8d	-6.7278504
47	0xc0971ebe	-4.7225027
48	0xbd61c420	-0.05511868
49	0x3e12e274	0.14344198
50	0xbe23f182	-0.16010097
51	0xbdf475b2	-0.11936511
52	0xbe2929e7	-0.1651989
53	0xbe311c58	-0.17295969
54	0x3e1d59d4	0.15366298
55	0xbe280878	-0.1640948
56	0xbdf1de89	-0.11810023
57	0xbe44dba5	-0.19224413
58	0xbe1cfe7d	-0.15331455
59	0xbdfcb063	-0.123383306
60	0x3db2b7a4	0.08726433
61	0x3be6ecc0	0.007047266
62	0x3d8562a0	0.06512952
63	0xbd8f2b7a	-0.06990714
64	0x3dfb4aa0	0.12270093
65	0x3d214c7c	0.03937958
66	0x3d576d30	0.052594364
67	0xbe470d1b	-0.19438593
68	0x3c832ed0	0.016013533
69	0x3dc7294c	0.09724674
70	0xbd175090	-0.036942065
71	0xbd9affea	-0.07568343
72	0xc0be074c	-5.9383907
73	0xbe37b579	-0.1794032
74	0x40b96321	5.7933507
75	0xc0903347	-4.5062594
76	0xc0d17145	-6.545077
77	0xc0b9b290	-5.803047
78	0x3e075efc	0.13219827
79	0xc08f4321	-4.4769444
80	0xc090d666	-4.5261717
81	0xbdefe8bc	-0.117143124
82	0x3e422d70	0.18962646
83	0xc09004f7	-4.500606
84	0x40bb2247	5.8479342
85	0xc092dae0	-4.589218
86	0xc093c74d	-4.6180787
87	0xbe391fc6	-0.18078527
88	0xc09757e9	-4.729481
89	0xc08b1d0e	-4.3472967
90	0xc08d8baf	-4.423301
91	0xc08cbd55	-4.398112
92	0x40beaf18	5.9588737
93	0x40bfba66	5.9915037
94	0xc08f6979	-4.481625
95	0xc08f816d	-4.484549
96	0x40bec288	5.9612465
97	0xc0c07234	-6.013941
98	0x3e18d87a	0.1492633
99	0xc08f9152	-4.4864893
100	0xc0cc1d33	-6.3785644
101	0x40b98685	5.797671
102	0x40bc00eb	5.875112
103	0xc0d13a9a	-6.5384035
104	0xc0d6bdbc	-6.710661
105	0xc0bbf0be	-5.8731375
106	0x3de514c4	0.11185601
107	0xc08afc8a	-4.3433275
108	0x40bed68c	5.96369
109	0xc0945464	-4.6353016
110	0xc08cfaa8	-4.4055977
111	0x3d055168	0.03254834
112	0xc08bed47	-4.3727145
113	0xc0cfba8f	-6.4915233
114	0xc091b8f9	-4.5538297
115	0xc097e30b	-4.746465
116	0x40bc471e	5.8836813
117	0x40c0ef3e	6.0292044
118	0xc08b4252	-4.3518457
119	0xc09368be	-4.606536
120	0x40be4d7c	5.9469585
121	0xc0c031b4	-6.0060673
122	0xc0c30aa9	-6.0950513
123	0xc08cb8d5	-4.3975625
124	0xc0cf0dda	-6.470441
125	0x40bf9901	5.987427
126	0xc0c3144e	-6.0962286
127	0xc0cca92b	-6.3956504
128	0xc0d77cb3	-6.733972
129	0xc0bb7a57	-5.858684
130	0xbdc0742c	-0.09397158
131	0xc07fa46d	-3.9944108
132	0x40bb3adb	5.8509345
133	0xbf7899fa	-0.9710995
134	0xc08c050b	-4.3756156
135	0xbdc0d579	-0.09415717
136	0xc08b1bc8	-4.3471413
137	0xc0d3364b	-6.6003776
138	0xc08bb528	-4.365864
139	0xc0939159	-4.6114926
140	0x40bc42af	5.88314
141	0x40c01075	6.002009
142	0xc093a0e0	-4.613388
143	0xc09367d5	-4.606425
144	0xc0bf618a	-5.9806566
145	0xc0bd3853	-5.9131255
146	0x3d2609ac	0.040536568
147	0xc0c41b73	-6.1283507
148	0xc0bccf06	-5.9002714
149	0xc0be70aa	-5.951253
150	0xc0bd51ba	-5.9162264
151	0xc0c42b20	-6.1302643
152	0xc0c454ab	-6.1353354
153	0xc0c0ad55	-6.0211587
154	0x3dad4688	0.084607184
155	0xc0bb54a9	-5.8540845
156	0xc0bce3af	-5.9027934
157	0xc0bb18d2	-5.84678
158	0xc0c21fe1	-6.0663915
159	0x3e04f6d4	0.12984782
160	0xc0c593d2	-6.1742945
161	0xc0bf93f8	-5.9868126
162	0xc0c2542f	-6.0727763
163	0xc0c17df8	-6.046627
164	0xc0ba4afd	-5.821654
165	0x3e0c14c0	0.1367979
166	0xc0c4561e	-6.1355124
167	0xc0c56ab7	-6.1692767
168	0xc0bf084b	-5.9697623
169	0xc0be3075	-5.943415
170	0x3d9f1190	0.07767022
171	0xc0bba5cc	-5.863989
172	0xc0c3a9c0	-6.1144714
173	0xc0b9b00a	-5.802739
174	0xc0c18b48	-6.048252
175	0x3dd1d6b4	0.102460295
176	0xc0c2cd1d	-6.0875382
177	0xc0c2d858	-6.088909
178	0x3e080296	0.13282236
179	0xc0c2b8a6	-6.08504
180	0xc0bf3ed2	-5.9764185
181	0xc0c56239	-6.16824
182	0xc0c18eb0	-6.048668
183	0xbcd7de60	-0.026351154
184	0xc0ba5d24	-5.8238697
185	0xc0c34365	-6.101977
186	0xc0c54378	-6.164486
187	0xc0bba944	-5.8644123
188	0xc0bfb6ae	-5.99105
189	0xc0bfa3f8	-5.9887657
190	0xc0bbf3bc	-5.8735027
191	0xc0be9165	-5.9552484
192	0xc0bec15e	-5.9611044
193	0xc0bc05ba	-5.875699
194	0xc0b9317e	-5.7872915
195	0xc08a1f43	-4.316316
196	0xc112866f	-9.157821
197	0xc0c28b53	-6.0795074
198	0xc0ba6f5d	-5.826094
199	0xc0934699	-4.602368
200	0xc0d73601	-6.7253423
201	0xc0c049cc	-6.0090084
202	0x3e3e56ea	0.18587843
203	0xc042531d	-3.0363228
204	0x40c479cb	6.1398673
205	0xc037a6e7	-2.869562
206	0xc0973701	-4.7254643
207	0x3de2ff28	0.110838234
208	0xc08a782c	-4.3271694
209	0xc08bdfa0	-4.371048
210	0xc08dd865	-4.4326653
211	0xc0913729	-4.5379834
212	0x40bf9426	5.9868345
213	0xc0bdd0a2	-5.931718
214	0xc0913157	-4.537273
215	0xc0d060f1	-6.5118337
216	0x40c19f3e	6.0506887
217	0x40bb7a96	5.858714
218	0xc0c2a829	-6.0830274
219	0xc094fef3	-4.6561217
220	0xc0d00154	-6.500162
221	0x40c334f2	6.100213
222	0xc0bf263b	-5.973417
223	0xc0ce5088	-6.4473305
224	0xc08d9037	-4.4238544
225	0xc0b9ae02	-5.802491
226	0xbd0b1698	-0.033957094
227	0xc095a780	-4.676697
228	0x40ba2c63	5.8179183
229	0xc0cea4d3	-6.45762
230	0xc0964dde	-4.6970053
231	0xbe070dd6	-0.13188872
232	0xc08f8ead	-4.4861665
233	0xc093b8c7	-4.616306
234	0xc08cc423	-4.3989425
235	0xc09555bf	-4.666717
236	0x40c40ab1	6.126305
237	0xbdf18294	-0.11792484
238	0xc0d6c23f	-6.7112117
239	0xc0906711	-4.5125813
240	0x40c24e08	6.0720253
241	0x40c00289	6.0003095
242	0x3e1ed694	0.15511543
243	0xc0d59239	-6.6740994
244	0xc09650fb	-4.6973853
245	0x40bef489	5.9673505
246	0x40c5c0f7	6.1798053
247	0xc08f7f05	-4.4842553
248	0xc08dadd0	-4.4274673
249	0xc0c22229	-6.06667
250	0x3d78b3c0	0.060718298
251	0xc0cf6012	-6.4804773
252	0xc0b9f6ea	-5.811391
253	0xc0e03dfc	-7.0075665
254	0xc0d31743	-6.5965896
255	0xbe3ae202	-0.18250278

2.bias f4 [24]
0	0xc0a8af1a	-5.2713747
1	0xc0d443d7	-6.633281
2	0xbe290ee5	-0.16509588
3	0xc095bab3	-4.6790404
4	0xc090f048	-4.529331
5	0xc08502ee	-4.1566076
6	0xc0c02de8	-6.005604
7	0xc0c4a770	-6.145439
8	0xc0c62100	-6.1915283
9	0xc08f9bc0	-4.4877625
10	0xc0cee3b0	-6.465294
11	0xc083dc14	-4.120615
12	0xc0be7f9e	-5.9530783
13	0xc0c12665	-6.035937
14	0xc03d8e84	-2.9618235
15	0x4034e477	2.8264444
16	0xc0d3e1f6	-6.621333
17	0xc0964395	-4.6957498
18	0xc0aa2fe3	-5.3183455
19	0xc0b3d6da	-5.619977
20	0xc0a4a6de	-5.1453695
21	0xc0cf89a9	-6.485554
22	0xc08f83e2	-4.484849
23	0xc0df22a5	-6.972979

4.weight f4 [4, 24]
0	0xc08cac73	-4.396051
1	0xc08fb527	-4.4908633
2	0x3dbc03a0	0.09180379
3	0xc08b534a	-4.353917
4	0xc095f8e1	-4.6866307
5	0xc096ffbd	-4.718718
6	0xc0ba9c85	-5.8316064
7	0xc0bf4746	-5.9774504
8	0xc08fbb5e	-4.491622
9	0xc0d54ee8	-6.665882
10	0xc0909ab3	-4.518884
11	0xc0d6ee14	-6.7165623
12	0xc0c4b6aa	-6.147298
13	0xc0b94263	-5.789354
14	0xc0d913e3	-6.7836776
15	0x403595f6	2.837278
16	0xc08ef229	-4.4670606
17	0xc08e5ba8	-4.4486885
18	0xc0901559	-4.502606
19	0xc0d2af14	-6.583872
20	0xc0912580	-4.5358276
21	0xc08bc8a9	-4.3682446
22	0xc08d618c	-4.4181576
23	0xc0c60d89	-6.1891522
24	0xc0d2cf79	-6.5878263
25	0x40928c2e	4.579612
26	0x3cdd6ec0	0.027030349
27	0xc08fd81d	-4.495131
28	0xc0d335d3	-6.6003203
29	0xc0d9b199	-6.8029294
30	0x40bcd7a6	5.9013243
31	0x40b95800	5.791992
32	0xc0c92d40	-6.2867737
33	0xc0933fa5	-4.601519
34	0x408e02e4	4.437853
35	0xc0d2b68d	-6.584784
36	0x40bd750d	5.9205384
37	0x40ba555a	5.822919
38	0xbfa04d45	-1.2523581
39	0xc14be55f	-12.743499
40	0x408a176c	4.315359
41	0xc0d20f4e	-6.5643682
42	0xc0d036a3	-6.5066695
43	0xc0ad6404	-5.418459
44	0xc07a1031	-3.9072382
45	0x408974e1	4.2955174
46	0xc0d3cd15	-6.6187844
47	0x40954ed6	4.6658735
48	0xc093ad5b	-4.6149116
49	0xc092cb42	-4.5873117
50	0x3e47232a	0.19447008
51	0xc08d3859	-4.4131284
52	0xc0918642	-4.547639
53	0xc08b32f3	-4.3499694
54	0x40ba22b2	5.8167353
55	0x40baea86	5.8411283
56	0xc096438b	-4.695745
57	0xc08c44b2	-4.3833857
58	0xc08f390a	-4.475713
59	0xc09558ac	-4.667074
60	0x40be3b1c	5.9447155
61	0x40c53308	6.1624794
62	0xbe838666	-0.25688475
63	0xc038dc40	-2.888443
64	0xc090b3d9	-4.521954
65	0xc08b61b4	-4.3556767
66	0xc090fa0a	-4.5305223
67	0xc08f0057	-4.4687915
68	0xc08cb559	-4.397137
69	0xc09507f4	-4.657221
70	0xc0922cce	-4.5679693
71	0xc092b19c	-4.584181
72	0x407b9220	3.9307938
73	0x4093b841	4.616242
74	0xbdb91df9	-0.0903892
75	0x40d431d1	6.631081
76	0x40943285	4.631167
77	0x40d61992	6.6906214
78	0xc0c3e516	-6.1217146
79	0x40bbb8d6	5.866313
80	0x409e8cdf	4.954696
81	0x408e27bb	4.44235
82	0x40970e87	4.7205234
83	0x4097866b	4.7351584
84	0x40bb1d13	5.847299
85	0xc0bb31a2	-5.8498087
86	0xc09c46da	-4.883649
87	0xc07486fb	-3.8207386
88	0x40cfb620	6.490982
89	0x40976641	4.731232
90	0x408434bd	4.131438
91	0x4094e044	4.652376
92	0x404b03c6	3.1721053
93	0x40925024	4.572283
94	0x40cc8070	6.3906784
95	0x4095aa29	4.6770215

4.bias f4 [4]
0	0xc2dddb6f	-110.92858
1	0xc294cff8	-74.40619
2	0xc3030c14	-131.04718
3	0xc28fe114	-71.939606
