logs/target_params_A_74_onehot.pt (torch, 14823 bytes, 6 tensors)

0.weight f4 [24, 100]
00000000: 15b1 0cc1 b84e e340 e1f8 2041 e9ff c9c0
00000010: bb83 6ac0 27e4 2d41 5fef 4a41 52ec 74c0
00000020: 3a89 e4c0 8162 1840 7ef1 873f e6a3 8e3f
00000030: ce9a 3bc1 de09 7040 e212 9b41 75bd 9940
00000040: 8c06 36c1 c8b2 59c0 f85f 3941 b0ef d4bf
00000050: 02c6 f540 5e98 88c0 b79b 4741 a2db 01c0
00000060: d51a 6dc1 ecef 72c0 2341 1f40 5ee2 94c0
00000070: 34c1 39c1 bc52 d940 8f21 3640 36d4 cc3f
00000080: a231 0dbf 690b 76bf 2ceb a640 9790 8d3e
00000090: 7ef8 c540 d7a8 4d40 1c57 5141 f721 83c0
000000a0: 78ad 2841 3620 2c40 ff40 9440 c020 c0c0
000000b0: 5348 a0c0 6256 e83f 6c93 4ec0 3fa6 b63f
000000c0: d2d6 7ac0 0812 26c1 95db a141 be4f 69c0
000000d0: 7995 94c0 5f4a cc40 1820 b440 d89d c2c0
000000e0: d0bd b4bf e6b4 02c0 effe e5c0 1b4d a8c0
000000f0: 58fb c540 cd86 fec0 f007 593f 94cb e83f
00000100: 5928 c9c0 6f2a 7740 df1e f140 9062 7c40
00000110: 4b24 c2c0 ae3c 7cbf 1c4c 4341 b9c5 2941
00000120: c7fd 0bc1 fa12 34c0 7c39 2f40 5da5 ad40
00000130: aab2 93c0 173d 75c0 3720 cd40 40fd aebe
00000140: 1733 11c1 54f5 463f 2240 923f 152a edc0
00000150: e991 eac0 3df7 0b41 9347 acc0 207e 89c0
00000160: 51e7 28c1 6ad5 21c1 ab33 46bf b7fa 2441
00000170: c959 4340 f797 5040 148e 2e40 ac67 6a41
00000180: 0bf8 a3c0 6db9 1d40 7c5b 27bf b2ae ca41
00000190: 3eaf b1c0 e09a f53f 6598 27c0 885f 51c1
000001a0: fd00 5140 d803 cc40 f3fa a840 dc34 c8c0
000001b0: 1462 a4bf 3093 c540 279a 9640 cce6 1140
000001c0: 87e2 09c1 3ad3 e4bf 2382 e2c0 343f 5241
000001d0: 6132 1e40 89d4 0c40 d9d4 5a41 9cdc bbc0
000001e0: 606f e2c0 bd77 e13e 5042 b9be 34e0 f5c0
000001f0: 6683 8940 eadd 67c0 1f2b 1541 f023 2ac1
00000200: 17ff 9940 68f4 3fbe 4b7c aa40 46b1 0bc1
00000210: 075e 1f41 30cb 3740 2aec a240 90de 03c1
00000220: 9929 6ec0 a366 56c0 d29b e340 7099 1641
00000230: 4a38 9e3f 7d0f cfc0 92b6 5ebf 7b4c 1dc1
00000240: e2ae eac0 adb5 f540 b440 b1bf 900c 24c1
00000250: 1b26 edbf 9d10 b83f 3608 853f c3d0 e23f
00000260: 6116 19c0 76d3 2f41 583d 5b40 2fbe e73f
00000270: 8d35 3ec1 2bca f0bf f503 85c0 9edc 0ebd
00000280: 7ae2 993e 379c be40 67ad 46c0 ea3e 86c0
00000290: 3a38 9bbf 578b ad40 7aaf 0e41 2544 4a40
000002a0: 28ca d1bd 3d83 25c0 38aa fb40 3aa3 bf40
000002b0: 2960 33c0 ccce 7b3f 8ccb 583e 5513 7641
000002c0: 5ba8 ddc0 ba2c 96c0 29e2 8940 5449 7cbf
000002d0: ef4a 8c40 d32c 8f41 7a04 4dbd 843f 7540
000002e0: 972d f240 fa2b 0341 7b9c 30c0 0d39 ce3f
000002f0: 2a2d a0bf 587c 0ec0 a6b1 f740 0658 3240
00000300: a36c fac0 e935 9c40 4ed9 6f41 4365 b741
00000310: d4a8 0c3f f560 a83e 9ddf 50c0 e0c0 f140
00000320: ae36 95c1 fa68 7e40 563a 0e40 29fe 7840
00000330: c58c 81bf f45f 8441 21c1 f640 01bf 1640
00000340: b568 193f c874 0a40 47be 6140 a4ee e33f
00000350: 8c07 f6c0 cdc5 7c3e 6d6a c040 5a4b 80bf
00000360: ce0d a4c0 1eed 7fc0 cb34 0741 63a2 c0c0
00000370: 7187 f440 5b7d e0be 3dcc e43f 4606 38c0
00000380: d78c 31c1 6b8d d0bd d41d 1841 4b3c d140
00000390: 00bb 8e3f b70a 0fc0 9d86 a040 f22e e13f
000003a0: e397 0041 ce1e e440 0f8d b0bf 7b25 00c1
000003b0: d732 b5c0 b472 1140 9275 5f40 f4dc c0c0
000003c0: 7753 1841 2f1b e3be ac81 f440 90ab 9bc0
000003d0: 6d5b 75c1 e7bb 1fc1 4fa0 2141 5ec3 a5bf
000003e0: baf5 8840 b6ea 28c0 9c4f 5441 eafa b1c0
000003f0: 44e6 cd40 a4f1 a83f 480a 1d40 757a 86bf
-8.793233 7.103359 10.060761 -6.312489 -3.6642902 10.868201 12.68344 -3.8269238
-7.1417513 2.3810122 1.0620573 1.1143768 -11.725294 3.7506022 19.38422 4.804377
-11.376598 -3.401537 11.58593 -1.6635647 7.680421 -4.2685995 12.475516 -2.0290303
-14.819051 -3.7958937 2.4883506 -4.6526327 -11.609669 6.7913494 2.8457983 1.6002262
-0.5515386 -0.9611116 5.2162075 0.27649376 6.1865835 3.2134302 13.083767 -4.097896
10.542351 2.689466 4.632934 -6.003998 -5.0088286 1.8151362 -3.227748 1.4269484
-3.9193616 -10.379402 20.232218 -3.645492 -4.643246 6.3840785 5.6289177 -6.081768
-1.4120426 -2.0422912 -7.18737 -5.2594123 6.1869316 -7.953955 0.84777737 1.8187127
-6.2861753 3.861965 7.5350184 3.9435158 -6.0669303 -0.9853009 12.206081 10.610772
-8.749457 -2.8136582 2.7378836 5.426436 -4.6155596 -3.8318536 6.4101825 -0.3417759
-9.074973 0.7771809 1.1425822 -7.411387 -7.3303113 8.747861 -5.383737 -4.296646
-10.556474 -10.114603 -0.7742259 10.31121 3.052355 3.2592752 2.7274218 14.6503105
-5.1240287 2.4644425 -0.6537397 25.3353 -5.552642 1.9187889 -2.6186764 -13.085823
3.2656853 6.375469 5.2806334 -6.2564526 -1.2842431 6.174217 4.7063174 2.2797117
-8.617805 -1.7876961 -7.078386 13.14043 2.471825 2.200472 13.676965 -5.87068
-7.0760956 0.44036666 -0.36183405 -7.6836185 4.29729 -3.6229196 9.323028 -10.633774
4.812389 -0.18745577 5.3276725 -8.73078 9.960456 2.8717766 5.0913286 -8.241837
-3.721289 -3.3500144 7.112771 9.41246 1.2360928 -6.4706407 -0.8699733 -9.831172
-7.333848 7.678427 -1.3847871 -10.253067 -1.8527254 1.438007 1.0393131 1.7719959
-2.391991 10.989126 3.4256191 1.8104914 -11.888074 -1.8811697 -4.156733 -0.034878366
0.300556 5.956569 -3.1043336 -4.19518 -1.2126534 5.4232593 8.917841 3.1604092
-0.10243636 -2.5861351 7.8645287 5.988675 -2.8027442 0.9836242 0.21171397 15.37972
-6.926801 -4.69296 4.3088574 -0.9854939 4.384147 17.896887 -0.050053097 3.8320017
7.568065 8.198236 -2.7595508 1.611116 -1.2513783 -2.2263393 7.7404356 2.7866225
-7.8257613 4.881581 14.990553 22.924444 0.5494511 0.32886472 -3.2636483 7.5547943
-18.6517 3.9751573 2.2223105 3.8905127 -1.0121084 16.546852 7.7110753 2.355408
0.59925395 2.1633778 3.5272386 1.7807202 -7.6884212 0.2468483 6.0129914 -1.0022995
-5.126685 -3.9988475 8.450389 -6.0198226 7.6415334 -0.4384564 1.7874829 -2.875383
-11.096885 -0.10183223 9.507282 6.53861 1.1150818 -2.235029 5.0164323 1.7592452
8.037082 7.1287603 -1.3793048 -8.0091505 -5.662456 2.272626 3.491551 -6.026972
9.520377 -0.44356677 7.640829 -4.8646927 -15.334821 -9.983375 10.101638 -1.2950246
4.279996 -2.6393256 13.269436 -5.561879 6.4343586 1.3198743 2.4537525 -1.0506121

0.bias f4 [24]
00000000: 4b62 34c1 122f 84c1 44cc 4941 44cf 51c1
00000010: f003 6dc1 552c 1ec1 13a1 38c1 6cbd 86c1
00000020: 8c6e b0c1 563b a3c1 5d05 29c0 55dd a7c1
00000030: e323 b4c1 8ea2 b3c1 1770 6fc1 102f a7c1
00000040: ea94 a3c1 f3a6 95c1 ebf5 b5c1 c643 a3c1
00000050: 7e33 0441 2750 96c1 21e2 61c1 b8ad 9dc1
-11.273997 -16.522984 12.61237 -13.113102 -14.813461 -9.885823 -11.539325 -16.842491
-22.053978 -20.403973 -2.6409523 -20.983072 -22.517523 -22.454372 -14.964866 -20.89798
-20.447712 -18.706518 -22.745077 -20.408092 8.262571 -18.789137 -14.117707 -19.709824

2.weight f4 [24, 24]
00000000: 8625 ca3e ad30 c73d c602 30c1 6e4b c640
00000010: 7725 10c1 0e3e b2c0 af06 95c0 8e56 8bbf
00000020: c9fc 8041 e239 813f ab8c 16c1 ec2a 8d3e
00000030: a098 d840 7566 9841 86d3 8040 16b5 3b41
00000040: 3071 7641 95e1 c941 4b9b 0140 c485 4241
00000050: 74d4 a3c0 f79f 3fc0 fc6c 95c0 00ba 5341
00000060: d289 b1c0 889e 18c0 3471 b840 468d 83bf
00000070: 0df9 96c0 9eb6 2c40 0a47 773f e1a0 96c1
00000080: a0f7 a43f e68e d941 c998 8940 9bd7 3cc1
00000090: 493b c341 f8d2 6c41 c1ad 7ac1 61d4 5741
000000a0: 5d34 1f41 8ea1 a8c1 d217 9441 10e9 24c1
000000b0: 76dd 8e40 cb00 9241 24be f0c0 ff8b 4b41
000000c0: ecb9 7841 3642 5d40 f161 b5c0 dd8f d7bf
000000d0: 2837 0f41 6100 b6c0 2907 e8c0 dba5 6041
000000e0: 07b9 0a41 0fc0 0e41 37c0 a4c1 8d70 4e40
000000f0: 4666 1541 fa39 1b41 4371 7141 e9e0 3e41
00000100: 5fbb 3341 eb8d 8e41 2956 f240 134f 7841
00000110: dc7a 64c0 5447 0241 cd2c 5141 ddbd 4941
00000120: a58b 1741 63a2 3840 3e50 2bc1 a4bc b13f
00000130: 2b7b d240 522f 6ec0 abda d540 4483 0040
00000140: 3d3a 3a41 b45c e940 64a5 12c1 5792 9340
00000150: 1dc6 8e40 9c92 b841 e661 cf40 0546 6541
00000160: 5323 33bd 5647 6040 93f4 7a40 8407 9941
00000170: c563 76c1 8ab5 0541 7446 3540 2f8e 1d41
00000180: 0f92 0141 1a3e 1c40 cd34 2bc1 49ad e23f
00000190: 3203 a040 4f32 15c0 7bd9 fa40 b361 7940
000001a0: 80b2 d340 a7f6 ce40 5bc9 73c1 7426 cb40
000001b0: 9728 f540 b820 d33f 1a7d 1941 f73e 7a41
000001c0: 0ab3 b23e e5de cc40 b376 2840 ef77 6d41
000001d0: e209 a3c1 49c8 1941 bde3 5e40 c5e9 e840
000001e0: 6738 3440 f88b e740 a3f9 8bc0 a0d5 93c0
000001f0: 4344 f040 bd4b cb3c 3770 8f40 b2a9 6441
00000200: 74cb 3b41 c8a4 c140 56c2 65c1 9153 7c40
00000210: 93b2 b040 679a 9b41 3953 0d41 25d0 7041
00000220: 109a d140 bed0 1541 3aea 4e40 fc7e 8b41
00000230: 9f86 3cc1 d48b 0e41 2a8e bc40 39be 8241
00000240: d9d9 b340 dbd8 3841 3635 0ec1 d672 843b
00000250: b032 2c41 1667 04c0 99c8 b840 14b5 8d40
00000260: 8d98 4e41 7ac4 0e41 ca0a 60c1 99a4 8c40
00000270: 2d36 1141 fe53 2841 edea 1c41 8367 4f41
00000280: ef61 fa40 6a5d 5d41 b5b4 0241 39d1 9641
00000290: 5052 75c1 115b f940 30d7 de40 12ca 1741
000002a0: 8f58 49be 3911 e0be 77bc 72be 4b00 00bf
000002b0: 8ab9 d4be 0f02 46be ab1b 1fbe 46de c5be
000002c0: a9ec 59be 437a eebd 4cab 11be 4f83 86be
000002d0: 1717 9abe 5de8 ccbe 74d3 bebe 29eb 90be
000002e0: f726 91be ad88 b6be 849b 25be 6c95 6cbe
000002f0: 3409 90be 5924 cbbe 65f3 e4be e553 c7be
00000300: c57d 3140 2767 7441 e59b c0c0 b9c2 72c1
00000310: 3de5 f4bf 2d37 c040 5999 2041 10d6 9741
00000320: f9e6 1241 0cb5 4941 8199 d9c0 fe37 cc41
00000330: 2c4e 3141 8c25 9f41 af13 fb40 44ba 5f41
00000340: 7fab bebf 5b27 85c0 2a4a 9740 3deb 0941
00000350: f1c3 59c1 605b 5fbf 5792 0741 6dc3 8841
00000360: 8d1b 1641 6a95 02c1 108b 86c1 7a6a 5ac0
00000370: 6844 8641 5fb2 51c0 b4ea afc0 ffec 5a41
00000380: 22d9 0941 9d13 b641 6a54 9ec0 7a4d 0241
00000390: b139 9841 3a84 7d3f a867 afbe 7f57 7041
000003a0: dfaa 5bbf b4dd 2640 e956 4841 124f 2d41
000003b0: ebc7 05c1 f0ec 8e3f 4966 84c0 0765 0242
000003c0: 134f 3841 13c1 3840 f152 2dc2 dd4c d8c0
000003d0: 881f 4941 cb13 ff3f 712a 6240 55fb 9741
000003e0: 486b 06c1 40f6 ab41 79f7 fbc1 47ab a740
000003f0: 5bf6 8c41 05e8 0141 efd1 fbc1 a015 8ec1
0.39481753 0.09726081 -11.000677 6.1967077 -9.009147 -5.570075 -4.657066 -1.0885789
16.12343 1.009579 -9.409343 0.2757181 6.768631 19.050028 4.0258207 11.73171
15.402634 25.235147 2.0251033 12.157658 -5.119684 -2.9941385 -4.6695538 13.23291
-5.548074 -2.384676 5.7638187 -1.0277488 -4.7179017 2.698646 0.9659277 -18.828554
1.2888069 27.194775 4.2999005 -11.802638 24.403948 14.801506 -15.66742 13.48935
9.950284 -21.078884 18.511631 -10.3069 4.464534 18.250387 -7.5232105 12.721679
15.545391 3.4571662 -5.6682057 -1.6840779 8.950966 -5.6875463 -7.250874 14.040492
8.670173 8.921889 -20.593855 3.2256196 9.337469 9.701654 15.090152 11.92991
11.233245 17.819296 7.5730176 15.519305 -3.5699987 8.142414 13.073438 12.608853
9.471593 2.8849113 -10.70709 1.3885694 6.577535 -3.7216382 6.682943 2.0080118
11.639218 7.2925663 -9.165379 4.6116138 4.4616838 23.071587 6.4807005 14.329595
-0.04373486 3.504354 3.9211776 19.12867 -15.399358 8.356821 2.832425 9.847213
8.098159 2.4412904 -10.700391 1.7709132 5.00039 -2.3311956 7.839048 3.896588
6.6155396 6.467609 -15.236659 6.348444 7.661205 1.649436 9.593042 15.640372
0.3490222 6.402209 2.6322448 14.841781 -20.379826 9.611398 3.48265 7.2785363
2.8159425 7.235836 -4.374223 -4.6198273 7.5083327 0.024816388 4.482448 14.2914295
11.737171 6.051365 -14.359945 3.9426005 5.5217986 19.450392 8.832818 15.050817
6.5500565 9.363462 3.233046 17.437004 -11.7828665 8.909138 5.892354 16.342882
5.6203427 11.552943 -8.887991 0.00404201 10.762375 -2.0687919 5.774487 4.4283543
12.912244 8.922968 -14.002634 4.3950925 9.0757265 10.520506 9.807355 12.962771
7.824455 13.835306 8.169118 18.85216 -15.332596 7.7923665 6.963768 9.486834
-0.19662689 -0.4376314 -0.23704706 -0.5000045 -0.41547805 -0.19336723 -0.15537898 -0.38646144
-0.21281685 -0.11644413 -0.14225501 -0.26272056 -0.3009574 -0.4002103 -0.372707 -0.28304413
-0.2835004 -0.3565115 -0.16172606 -0.23103875 -0.2813202 -0.3967617 -0.44716945 -0.38931194
2.7733014 15.275184 -6.01903 -15.17254 -1.9132458 6.0067353 10.037438 18.979523
9.18139 12.606701 -6.7999883 25.52734 11.081585 19.893333 7.846153 13.982975
-1.4896086 -4.161054 4.727803 8.619931 -13.610337 -0.872488 8.4732275 17.095423
9.381726 -8.161478 -16.817902 -3.4127488 16.783401 -3.276512 -5.4974003 13.68286
8.615511 22.759577 -4.9478045 8.143915 19.02817 0.99029887 -0.3425877 15.021361
-0.85807604 2.6072817 12.521218 10.831804 -8.361308 1.1166058 -4.137486 32.59866
11.519305 2.8867843 -43.330997 -6.7593827 12.570198 1.9927915 3.5338404 18.99772
-8.401192 21.49524 -31.495836 5.239658 17.62029 8.119145 -31.477507 -17.76056

2.bias f4 [24]
00000000: 898a 5441 5752 c942 83c5 1dc2 8c85 2dc2
00000010: 015d 49c2 a131 0cc2 b7e8 2cc2 415f 57be
00000020: e91e 93c1 f6d0 15c2 c904 2ac1 789f 6cc1
00000030: 8639 08c2 72a5 10c2 f604 d3be 2b87 33be
00000040: d8cb 59c1 8b6e a841 bd94 0ac2 6c44 7b42
00000050: 39f3 d741 eebd fac1 4476 2fc2 502e fec1
13.283822 100.66082 -39.442883 -43.380417 -50.340824 -35.048466 -43.22726 -0.2103243
-18.390093 -37.454063 -10.626168 -14.788933 -34.056175 -36.161568 -0.41214722 -0.17532031
-13.612267 21.053976 -34.645252 62.81682 26.993761 -31.34274 -43.865494 -31.772614

4.weight f4 [4, 24]
00000000: 8e43 f9c0 16fb 8cc1 baea 2ac1 2491 2dc1
00000010: c69c edc0 2d52 38c1 3dd9 2dc1 4f2a efbd
00000020: efff afc1 6e0b 61c1 36a4 15c2 c5b7 ba41
00000030: 9a85 12c1 7327 e3c1 bab9 55be 4e8f 2ebe
00000040: c2ce ccc1 3d91 95c0 5d41 e6c1 355d fcc1
00000050: c55c 8ec1 33e3 abc1 5fc0 73c1 6179 a2c1
00000060: efc5 1ac1 f61b 9fc1 fccc a0c1 e00f 60c1
00000070: aa48 bac0 f19f 78c1 0a03 6cc1 f21f 1ebe
00000080: a388 da40 ce22 edc1 2c53 24c2 e8a9 c63f
00000090: 2742 4ac1 35f1 dbc1 9b19 ebbe 5e00 d6bd
000000a0: 5020 a4c0 0bc5 93c1 bfcd c6c1 351a 06c2
000000b0: fba5 65c1 ea6a 77c1 af79 7cc1 d3e1 38c1
000000c0: 709b 6dc1 b2f3 95c1 24c1 52c1 0dc8 a8c1
000000d0: 30b8 b9c1 c560 68c1 6022 90c1 f5de 45be
000000e0: d8ae cec1 02a3 4041 09bc aa40 08d8 19c1
000000f0: fa39 0ac2 74cc 41c2 64dd 4ebe de7b 7dbe
00000100: a51c 51c1 6675 8dc1 0bf8 98c1 421e eec1
00000110: cd8a 76c1 e534 8dc1 f69c 68c1 d7f2 1bc1
00000120: e8c4 9ec1 2e6c 97c1 9212 98c1 9a70 4cc1
00000130: c471 91c1 c1e1 a7c0 fb0b 2fc1 f291 2fbe
00000140: e29a e8c0 7317 89c1 2b6d edc1 bd40 c5c1
00000150: aff2 46c1 6763 09c2 9b39 a73e bbe0 80be
00000160: 7e8a 81c1 d997 0dc2 44a0 e9c1 3898 dcc1
00000170: 73dc ffc1 f579 72c1 1d62 36c1 13f5 e6c0
-7.7894964 -17.6226 -10.682306 -10.847935 -7.4253874 -11.520062 -10.865537 -0.116779916
-21.999968 -14.06529 -37.410362 23.339731 -9.157618 -28.394262 -0.2087163 -0.17046854
-25.600956 -4.6739793 -28.781916 -31.545511 -17.795298 -21.485937 -15.234466 -20.309267
-9.673324 -19.888653 -20.10009 -14.003876 -5.82137 -15.539048 -14.750742 -0.15441874
6.8291793 -29.641994 -41.081223 1.5520601 -12.64115 -27.492777 -0.45917973 -0.10449289
-5.1289444 -18.471212 -24.850462 -33.525593 -14.353023 -15.463602 -15.779708 -11.555133
-14.850449 -18.743992 -13.172153 -21.097681 -23.214935 -14.523625 -18.016785 -0.19323333
-25.835373 12.039797 5.3354535 -9.615242 -34.556618 -48.44966 -0.20201641 -0.24754283
-13.069493 -17.682323 -19.121115 -29.764774 -15.408887 -17.650827 -14.538321 -9.746787
-19.846146 -18.927822 -19.009068 -12.777491 -18.18055 -5.246308 -10.940425 -0.17145517
-7.2689066 -17.13645 -29.678305 -24.65661 -12.434249 -34.347073 0.32661137 -0.25171456
-16.192623 -35.39829 -29.203255 -27.574326 -31.982641 -15.154775 -11.398953 -7.2174163

4.bias f4 [4]
00000000: 22ba 7fc2 2b4f 55c2 711b 7cc2 b81e e1c1
-63.93177 -53.327312 -63.0268 -28.14
