logs/target_params_B_350_onehot.pt (torch, 6383 bytes, 6 tensors)

0.weight f4 [24, 12]
0	0x3e631c48	0.22178757
1	0x3f7b98e8	0.9828019
2	0xbc74bbaf	-0.014937325
3	0x3c50574c	0.012716126
4	0x3f1c4c28	0.61053705
5	0xbdb4d6a1	-0.0883
6	0x3e6e2fd8	0.23260438
7	0x3e83774a	0.25676948
8	0x40839a6b	4.1126
9	0x3f0a01d3	0.53909034
10	0x40754f96	3.8329825
11	0x40101597	2.2513177
12	0x3d95f21f	0.073215716
13	0x3f5f5909	0.8724523
14	0xbf762c0e	-0.9616097
15	0xbf633841	-0.8875771
16	0x3f9e5ff7	1.2373036
17	0x3f870091	1.0547048
18	0x3e58ddea	0.21178403
19	0xbe90b019	-0.28259352
20	0xc03b249e	-2.92411
21	0x3f6e065d	0.9297846
22	0x3f5fc9d2	0.8741733
23	0x3ec96b93	0.39339885
24	0x3ec52813	0.38507137
25	0x3f891491	1.0709401
26	0xbf852749	-1.0402614
27	0xbf974084	-1.1816564
28	0xbef399be	-0.47578233
29	0xbdcefa5f	-0.10106348
30	0x3f75500d	0.9582527
31	0x3f81dcb8	1.0145483
32	0xbf29cdf0	-0.6632986
33	0x3f189af2	0.5961143
34	0xbfa145f8	-1.2599478
35	0x401fc648	2.4964771
36	0x3d0a8a37	0.03382322
37	0xbf0db033	-0.55346984
38	0x3d6eb889	0.058281455
39	0xbe90d5b1	-0.28288034
40	0xbe3b7d38	-0.18309486
41	0xbe1cdd1f	-0.15318726
42	0x3fdbdca7	1.7176713
43	0x40061bc7	2.0954454
44	0xc0bd2d30	-5.911766
45	0x3d9d2117	0.07672327
46	0xbf858d17	-1.0433682
47	0xc1219f11	-10.101335
48	0xbf913e45	-1.1347128
49	0x3e5d1ef3	0.21593837
50	0x3e6830ab	0.22674815
51	0xbf80488f	-1.0022143
52	0x3fedc08e	1.8574388
53	0xbe70a690	-0.23501039
54	0xbf01dc4a	-0.5072676
55	0xbf35cf9a	-0.710199
56	0x3f9d9c8d	1.23134
57	0xbfc81ea9	-1.5634357
58	0xc0a4821d	-5.140883
59	0xbffd8c29	-1.9808398
60	0x3d4eac12	0.050457068
61	0xbffdbe1d	-1.9823643
62	0x3f03f4b6	0.51545274
63	0x3d495690	0.049154818
64	0x3f58a384	0.84624505
65	0xbf007ba2	-0.5018865
66	0x3ecd5b9b	0.40108952
67	0xbb90e2da	-0.004421574
68	0x3f36c4bc	0.7139394
69	0xbe9a6869	-0.30157784
70	0x3f0e58ef	0.5560445
71	0xc037b42e	-2.8703723
72	0x4012ffd6	2.296865
73	0xbdc53120	-0.096285105
74	0xbf6faa46	-0.9361919
75	0xbef8e5c2	-0.4861279
76	0x3f34924e	0.70535743
77	0x3ee3e821	0.44513038
78	0x3f54ca47	0.8312115
79	0xbf2741b3	-0.65334624
80	0xbfd5f517	-1.671542
81	0x3e275da2	0.16344312
82	0xbfaebc39	-1.3651191
83	0xbdb96836	-0.0905308
84	0x3ebf394b	0.373484
85	0xbe850c9d	-0.25986186
86	0x3d914c07	0.07094579
87	0x3efdb014	0.495484
88	0xbeb6deac	-0.3571676
89	0xbceb8f70	-0.02875492
90	0x3f07faa6	0.53116834
91	0x3ea13ca8	0.3149159
92	0x40992e8c	4.786932
93	0x3f3a6e30	0.7282438
94	0xbfe48238	-1.785224
95	0x406a8c29	3.6648047
96	0xbe686e5d	-0.2269835
97	0xbe80152e	-0.2501616
98	0xbe32f386	-0.1747571
99	0xbe938bb0	-0.2881751
100	0xbe132e8f	-0.1437323
101	0x3dd25577	0.102702074
102	0xbe32c93f	-0.17459582
103	0xbe631076	-0.22174248
104	0x3e42b4c5	0.1901427
105	0xbd957618	-0.07297915
106	0xbe7682ed	-0.24073382
107	0xbe8f4cd8	-0.27988315
108	0x3f365be2	0.7123395
109	0x40065b29	2.099314
110	0xbe7a3e20	-0.24437761
111	0x3eb384a0	0.35062122
112	0xbe81dba3	-0.25362882
113	0x3de84233	0.113407515
114	0xbfa04870	-1.2522106
115	0xc00af7a3	-2.1713645
116	0xc05af01e	-3.4209056
117	0x3f291d58	0.660604
118	0xbfc355d4	-1.5260568
119	0x3f1c6b04	0.6110079
120	0xbe762c5e	-0.24040362
121	0x3fccd8cd	1.6003662
122	0xbed9f6da	-0.42571145
123	0xbfbdd162	-1.4829524
124	0xbf057eca	-0.5214659
125	0xbd012106	-0.031525634
126	0x3fc9fe66	1.5780761
127	0xbf8183ca	-1.0118344
128	0xbedfa7e9	-0.43682793
129	0xc107f39a	-8.496973
130	0xbf966920	-1.1750832
131	0xc0df9f73	-6.988214
132	0x3f35fb3a	0.71086466
133	0xbf80eeef	-1.0072917
134	0x3e8b73c1	0.2723675
135	0xbe9c3bd1	-0.30514386
136	0xbf183c7a	-0.5946728
137	0x3d536f7b	0.051619988
138	0xbf34563c	-0.70444083
139	0xbf117c74	-0.56830525
140	0x3f1ef549	0.62093025
141	0x3f96723c	1.1753612
142	0x3d0f065a	0.034918167
143	0x409c721a	4.8889284
144	0xbef136e6	-0.47112197
145	0x4009f01a	2.1552796
146	0x3f43952b	0.7639949
147	0xbf3ce3e1	-0.73785216
148	0xbecd7be4	-0.40133584
149	0xbe1e6657	-0.15468727
150	0xbe4eae56	-0.20183691
151	0xbf8ff491	-1.1246511
152	0xc0fa41ad	-7.820517
153	0xbf949068	-1.1606569
154	0xc09aa48e	-4.8325872
155	0x3ea1ce7a	0.31602842
156	0xbf0fdff9	-0.5620113
157	0xc0220e16	-2.5321097
158	0xbdeb064e	-0.11475812
159	0x3ea8cb58	0.3296764
160	0x3f5e82e5	0.8691848
161	0x3f8008e7	1.0002717
162	0x3eaf3a29	0.3422406
163	0xbc891f02	-0.016738418
164	0x3fc78a48	1.5589075
165	0xbf3fb269	-0.7488161
166	0xbfa1f666	-1.265332
167	0xc0baf7f4	-5.8427677
168	0x406e38a3	3.7222068
169	0xbfc906be	-1.5705183
170	0x3de2d98c	0.1107665
171	0x3e3e3e92	0.18578556
172	0xbf652e8a	-0.8952414
173	0xbf4da9d3	-0.80337256
174	0x3e6887eb	0.22708099
175	0xbe3c9b44	-0.18418604
176	0xc0801775	-4.0028634
177	0x3eac46c1	0.3364773
178	0xc0335c09	-2.8024924
179	0x3ea733ed	0.32656804
180	0xbcae4f33	-0.021278
181	0x3f03e064	0.5151427
182	0xbf0867d3	-0.53283423
183	0x3d8f1a15	0.06987397
184	0xc01a8f9e	-2.4150157
185	0xc02189d9	-2.5240386
186	0x3e8f0e10	0.27940416
187	0xbf321563	-0.69563884
188	0xc08905e3	-4.2819686
189	0x3e0276e9	0.12740673
190	0x3f97a7d1	1.1848089
191	0x3e8dc30b	0.27687868
192	0x3f600ec9	0.8752256
193	0x3fbc016c	1.4687934
194	0x3b9a1a9a	0.004702878
195	0x3d4c9030	0.049942195
196	0xbe347344	-0.17622095
197	0x3d2a2e4d	0.041548062
198	0x3e616d73	0.22014408
199	0xbf761966	-0.96132505
200	0x407d4aeb	3.9576976
201	0x3f0752c5	0.5286067
202	0xbf533597	-0.82503647
203	0xbf65a934	-0.8971131
204	0x3f8b85fc	1.0900264
205	0x3ebef10f	0.37293288
206	0xbe1cca62	-0.15311578
207	0xbe523fd6	-0.20532164
208	0x3e2eb690	0.1706183
209	0x3ed659ec	0.4186548
210	0xbd864230	-0.06555593
211	0x3e74669a	0.23867264
212	0x4004402a	2.0664163
213	0x3f2d8b57	0.6779074
214	0x404e9c43	3.2282875
215	0x3f2b0415	0.66803104
216	0x3ee9eb9d	0.4568757
217	0x3ef094bb	0.46988472
218	0xbf0e9428	-0.5569482
219	0xbf6fc293	-0.9365627
220	0x3f58ebc2	0.8473474
221	0x3f9ff712	1.2497275
222	0xbef1588d	-0.4713787
223	0xbf2db0ae	-0.67847717
224	0x40053377	2.0812662
225	0x3fcd0df0	1.6019878
226	0x408ab53a	4.3346224
227	0xc02436fc	-2.565856
228	0xbeafc18b	-0.3432735
229	0xbf959169	-1.1685001
230	0xbef0ca64	-0.47029412
231	0xbdf00d0e	-0.1172124
232	0x3e976c74	0.2957493
233	0x3eee2128	0.4650967
234	0x3f7084e4	0.93952775
235	0x3f8d315b	1.1030687
236	0xc130212e	-11.0081005
237	0x40019db0	2.0252495
238	0x3f6e3587	0.93050426
239	0x40b3135c	5.596113
240	0xbe46d3e0	-0.19416761
241	0xbe6112d8	-0.21979845
242	0xbdc926e2	-0.098218694
243	0xbdf6ad62	-0.12044789
244	0x3d576670	0.052587926
245	0xbdffe418	-0.12494677
246	0xbdbdcf9a	-0.092681125
247	0xbe0fa148	-0.14026368
248	0xbe27e935	-0.16397555
249	0x3e349f92	0.17638996
250	0xbdc7dd24	-0.09758976
251	0x3d36a550	0.044591248
252	0x3f74f48d	0.95685655
253	0x3f8104b5	1.0079561
254	0x3e390d71	0.18071534
255	0x3dd88675	0.10572521

0.bias f4 [24]
0	0xc0857c89	-4.171452
1	0xc0936634	-4.606226
2	0xc0ba3f24	-5.8202076
3	0x3e86c568	0.26322484
4	0x3f07c91a	0.5304123
5	0x4085214d	4.160315
6	0xbdda4d3a	-0.10659261
7	0xc0b0a97f	-5.5206904
8	0xbea5e1b4	-0.3239876
9	0x40268c5e	2.6023173
10	0x3fc05a67	1.5027589
11	0x40102b2c	2.252635
12	0x3fc9044d	1.5704437
13	0xbe2c0ce0	-0.16801786
14	0xbeb3ceb6	-0.35118645
15	0x3fe8ecf1	1.8197309
16	0xc0a5c799	-5.180615
17	0xc0994ad1	-4.790383
18	0xc087e1f4	-4.246332
19	0x3ecc096c	0.39850938
20	0xbe80763c	-0.25090206
21	0xc0819a3b	-4.050077
22	0x400b46a5	2.1761868
23	0xc0a03c0e	-5.007331

2.weight f4 [24, 24]
0	0xbf336ae9	-0.70085007
1	0xbeb7a01b	-0.35864338
2	0x3e09be80	0.13451576
3	0xbd8679a0	-0.06566167
4	0xbf02d2f8	-0.5110316
5	0xbf499bbd	-0.7875326
6	0xbf1ce3b7	-0.61284965
7	0xbd0f8265	-0.035036463
8	0xbdbc907e	-0.09207247
9	0xbe897446	-0.26846522
10	0xbe4c6e14	-0.19963866
11	0xbe7fa13b	-0.24963848
12	0xbcdc18ee	-0.026867356
13	0xbe2c4d13	-0.16826276
14	0xbed5a205	-0.41725174
15	0xbefc7f19	-0.49315718
16	0x3dfcffc8	0.12353474
17	0xbea12521	-0.3147364
18	0xbe84e8a6	-0.25958747
19	0xbf4c3b31	-0.7977782
20	0x3c435620	0.011922389
21	0xbe38ac88	-0.18034565
22	0xbdcf8640	-0.10133028
23	0x3e2abf90	0.16674638
24	0x3f6cdb4b	0.92522115
25	0x404de318	3.2169857
26	0x3d9f2a9a	0.077717975
27	0xbe2bde07	-0.16783915
28	0x3f90b55d	1.1305348
29	0xc0895d76	-4.292659
30	0xbfa35274	-1.2759538
31	0x3f06bbe2	0.52630436
32	0x3d9835a2	0.07432105
33	0xbfd9f984	-1.7029271
34	0x3f78661d	0.9703081
35	0xc0323aab	-2.7848308
36	0xc00cb4ba	-2.1985307
37	0xbda44a51	-0.08021987
38	0xbe392a3c	-0.18082517
39	0xbfb52450	-1.4151707
40	0xc0a4099d	-5.1261735
41	0x3eac12ff	0.33608243
42	0xc039d934	-2.903882
43	0xbfadf34c	-1.3589873
44	0x3ce64eb8	0.028113708
45	0xc041df94	-3.0292711
46	0xc0b1a112	-5.550912
47	0x3ed91764	0.42400658
48	0xbddb5992	-0.107104436
49	0xbe742818	-0.2384342
50	0xbe644e9f	-0.22295617
51	0xbec20b3b	-0.37899193
52	0x3cdf29e4	0.027241655
53	0xbd7d5ddc	-0.06185709
54	0xbe8be534	-0.27323306
55	0xbdc2501c	-0.09487936
56	0x3e27ed3a	0.16399089
57	0xbe4c0528	-0.19923842
58	0xbd441d7e	-0.04787969
59	0xbe024f65	-0.12725599
60	0xbe04aff6	-0.12957749
61	0x3d972ac2	0.07381202
62	0x3d583028	0.0527803
63	0xbcd34fa7	-0.025794817
64	0xbdf5af18	-0.11996287
65	0xbe14a231	-0.14514996
66	0xbe368574	-0.17824346
67	0xbe86bea3	-0.2631732
68	0xbde163f4	-0.11005393
69	0xbd855089	-0.065095015
70	0xbe8e2fc0	-0.27770805
71	0x3d7cc444	0.06171061
72	0xbec3c629	-0.38237122
73	0xbd0f4ce8	-0.034985453
74	0xbf13f70e	-0.5779885
75	0xbef16bd2	-0.47152573
76	0xbeb62541	-0.35575297
77	0xbea4dde2	-0.32200533
78	0xbec5591d	-0.3854455
79	0xbf5c9291	-0.8616114
80	0xbdeaa106	-0.11456494
81	0xbf0d263b	-0.5513646
82	0xbdaf308a	-0.0855418
83	0xbe94bb83	-0.2904931
84	0xbd3c082c	-0.04590623
85	0xbf0b7e27	-0.5448937
86	0xbefc613e	-0.4929294
87	0xbf19c1a1	-0.6006108
88	0xbec8a91d	-0.39191523
89	0xbf2c774e	-0.67369545
90	0xbf17a65d	-0.59238225
91	0xbec775d2	-0.38957077
92	0x3e1b8e5e	0.15191028
93	0xbf253ae0	-0.6454296
94	0xbf0f87ed	-0.5606678
95	0xbe6c6960	-0.23087072
96	0xbf9e8c35	-1.2386538
97	0x3f93ec8a	1.1556561
98	0x40999ab2	4.8001337
99	0xc11bffdb	-9.749965
100	0xc00d1ae4	-2.2047663
101	0xc02ac7a3	-2.6684349
102	0x3fe5b581	1.7946016
103	0x3ea83306	0.32851428
104	0xbe049672	-0.12948015
105	0xc05f579e	-3.4897227
106	0xbec4dc3d	-0.38449278
107	0xc0337779	-2.804167
108	0xc097e4cd	-4.74668
109	0x3f82a4cd	1.0206543
110	0x3fd3a280	1.6533966
111	0xbe356757	-0.17715202
112	0x3f13b930	0.5770445
113	0x3f103133	0.5632507
114	0x40baea23	5.841081
115	0x3fc7225b	1.555736
116	0xbe43e7aa	-0.19131342
117	0xc0a0b0ee	-5.021598
118	0x3fae2720	1.360569
119	0x3baf64a5	0.005352574
120	0xbe73a591	-0.23793627
121	0xbe4adb69	-0.19810261
122	0xbe11d4e6	-0.1424137
123	0xbe096b54	-0.13419849
124	0xbdd827e7	-0.10554486
125	0xbebbbd7d	-0.36668006
126	0xbe322aaf	-0.17399095
127	0x3bad8c28	0.005296249
128	0xbdc53a9f	-0.09630322
129	0xbea58ed2	-0.32335526
130	0x3cd987d2	0.026554022
131	0xbdd019de	-0.10161184
132	0xbe845330	-0.25844717
133	0xbd8c93d9	-0.06864137
134	0xbde7df38	-0.113218725
135	0xbe434b68	-0.19071734
136	0xbe001433	-0.12507705
137	0xbe74fed1	-0.2392533
138	0xbe517987	-0.20456515
139	0xbe7a4199	-0.24439086
140	0x3db8e610	0.09028256
141	0xbe684f62	-0.22686532
142	0xbe8dd15d	-0.27698794
143	0x3e04ab90	0.12956071
144	0x40249497	2.5715692
145	0x4007ab91	2.1198466
146	0x3fdc1126	1.7192733
147	0x3d6c859a	0.0577446
148	0xc00e6dde	-2.2254558
149	0x3f751c24	0.95746064
150	0x3f2f6044	0.68506265
151	0x408c7128	4.388813
152	0xbdd25254	-0.10269609
153	0x3fa1447d	1.2599026
154	0xc021221a	-2.5177064
155	0x3e535347	0.20637237
156	0x3f588291	0.8457423
157	0xc00e8905	-2.227113
158	0xbf4393e6	-0.7639755
159	0xbedaa213	-0.42701778
160	0x3ea9f064	0.33191216
161	0x40077cab	2.1169841
162	0xbd40897e	-0.047006123
163	0x3ff5c932	1.9202025
164	0x3d989b44	0.074514896
165	0x400da531	2.2132075
166	0x3ff1ab7a	1.8880455
167	0xbe56fb9a	-0.20994416
168	0x3d818345	0.06323866
169	0xbde07a79	-0.1096086
170	0xbdbaa15f	-0.0911281
171	0xbe2f6ab7	-0.17130552
172	0xbe826aa8	-0.25471997
173	0xbdcdfe9a	-0.10058327
174	0xbe259470	-0.16169906
175	0xbd9278a8	-0.071519196
176	0xbc7a3450	-0.015271261
177	0xbd8c4a54	-0.068501145
178	0xbe13bab6	-0.14426693
179	0xbe70738f	-0.23481582
180	0xbe49ab7b	-0.19694321
181	0xbd9a17c6	-0.07524066
182	0xbe79b076	-0.24383721
183	0xbdfba963	-0.12288167
184	0x3d9bfb6b	0.076163135
185	0xbe7e4750	-0.24831891
186	0x3db3422a	0.08752854
187	0xbebf5a65	-0.37373653
188	0xbdf379a1	-0.11888433
189	0xbe643854	-0.22287112
190	0xbedfb956	-0.43696088
191	0x3dc220b7	0.09478896
192	0xbecc5205	-0.39906326
193	0xbe377dde	-0.17919108
194	0xbfe71243	-1.8052448
195	0xbdd22c1a	-0.10262318
196	0x3f2e3107	0.6804356
197	0xc0604606	-3.504274
198	0xbf379a99	-0.7172027
199	0x4031ad1a	2.7761903
200	0x3e424836	0.18972859
201	0xbf604045	-0.8759807
202	0x3fdd88a2	1.7307322
203	0xbfc9071c	-1.5705295
204	0xc0005f08	-2.0058002
205	0x403fefbb	2.999007
206	0x3f605a1c	0.87637496
207	0xbfcbe6ea	-1.5929844
208	0x3ffd6743	1.9797138
209	0x4003b8a3	2.0581443
210	0xbfbcee7e	-1.4760282
211	0xbfe87ea0	-1.8163643
212	0x3ddfb7c0	0.109237194
213	0x3f227a2d	0.63467675
214	0xbff499bf	-1.910942
215	0x406fdcf2	3.7478604
216	0x406c587a	3.6929002
217	0x3fd6cd89	1.6781474
218	0x4051ba42	3.2769933
219	0xbd51a472	-0.051182218
220	0xbefa1ac2	-0.4884854
221	0xbf809d5a	-1.004802
222	0x3eb51458	0.35367084
223	0x3fdd772c	1.7301993
224	0xbe8d7bf1	-0.27633622
225	0xbfbd67ec	-1.479734
226	0xbf5f9006	-0.8732914
227	0x3e313c6c	0.17308205
228	0xbf6efc18	-0.93353415
229	0xbf24c404	-0.64361596
230	0xbff5ba48	-1.9197474
231	0xbf69200b	-0.9106452
232	0x3fe15b86	1.7606056
233	0x407b6130	3.9278069
234	0x3fc8c251	1.5684301
235	0xbf6ff63e	-0.9373511
236	0xbe00a1fe	-0.12561795
237	0x40f4026a	7.6252947
238	0xc081659e	-4.0436544
239	0x4053dd15	3.3103688
240	0xc02286b4	-2.5394716
241	0x405d3765	3.456506
242	0x3f8a9661	1.0827142
243	0xc00c076f	-2.1879537
244	0xbebe86a0	-0.37212086
245	0xc0cd9017	-6.423839
246	0x3f5d0ee6	0.8635086
247	0x40018417	2.0236871
248	0x3e1d937f	0.15388297
249	0xc0ef5f88	-7.4804115
250	0xbfe05512	-1.7525961
251	0xc027ef42	-2.6239781
252	0x3e01c40b	0.1267244
253	0xc02f8e56	-2.7430625
254	0x4019d6ac	2.4037275
255	0x3f9d2ab7	1.227866

2.bias f4 [24]
0	0xbf2b5520	-0.66926765
1	0xbf56d30a	-0.8391577
2	0xbcce5408	-0.025186554
3	0xbf4f57bf	-0.80993265
4	0xc061e6f0	-3.5297203
5	0xbe433091	-0.19061495
6	0x3ff24d26	1.8929794
7	0xbe9b116f	-0.30286738
8	0xc01ceeef	-2.4520833
9	0xc017847c	-2.3674612
10	0xc09ff105	-4.9981713
11	0xbfed3b2a	-1.853368
12	0x3e8bbfde	0.2729482
13	0xc067b5c6	-3.6204696
14	0x3fbe64ba	1.4874489
15	0x3fc80e38	1.5629339
16	0x404b6eeb	3.178645
17	0x3e65b8f0	0.2243383
18	0xbe6a4253	-0.22876863
19	0xbe89dabd	-0.26924697
20	0x3eed4fcf	0.46349952
21	0x3ec958e2	0.39325625
22	0xc0041bc6	-2.0641952
23	0xbf17b184	-0.5925524

4.weight f4 [4, 24]
0	0xbecdf07b	-0.40222535
1	0xbf2f3216	-0.684358
2	0xbcf8936d	-0.030343736
3	0x3d0c641e	0.034275167
4	0x3f3ccdfd	0.73751813
5	0x3daff25c	0.08591148
6	0x3f817ee1	1.0116845
7	0xbe8eb0fa	-0.27869397
8	0x3fc7869a	1.5587952
9	0x406f907f	3.7431943
10	0x3e4fd598	0.20296323
11	0xc0489279	-3.13394
12	0xc094c2f2	-4.648797
13	0x3f11123a	0.56668437
14	0x3ff36049	1.9013759
15	0x3fb7a3fa	1.4346917
16	0x3f96df6e	1.1786935
17	0xc05c2304	-3.4396372
18	0x3f003e60	0.50095177
19	0xbcf3e461	-0.029771985
20	0xc003dea4	-2.060464
21	0xbff9f151	-1.9526769
22	0xc03d19ed	-2.9547074
23	0xbce2ae55	-0.027671019
24	0xbd26bfd0	-0.04071027
25	0xbfa30035	-1.2734438
26	0xbdc2c8b8	-0.0951094
27	0xbf152a3d	-0.58267576
28	0x4079915b	3.8994968
29	0xbe43321e	-0.19062087
30	0x3fbcb0b5	1.4741427
31	0xbd6d2d7a	-0.057904698
32	0x402a56f1	2.6615565
33	0x4090d147	4.5255466
34	0x40ff4ca9	7.978108
35	0x3fcc181e	1.594486
36	0xc0796069	-3.8965094
37	0xc026b6f7	-2.6049173
38	0x3f13fe05	0.5780948
39	0x3f4ed819	0.8079849
40	0x3f850d24	1.0394635
41	0xc0298837	-2.648939
42	0x3e45c8ea	0.19314924
43	0xbd95b5cc	-0.073100656
44	0xbf186c91	-0.5954066
45	0xc01c78fe	-2.4448848
46	0x3f3db70a	0.7410742
47	0x3f12de89	0.5737081
48	0xbf2513a4	-0.64483094
49	0x3e7b252d	0.245259
50	0xbd41c91f	-0.047310945
51	0xbee2ebb7	-0.4432046
52	0x400bbff0	2.18359
53	0xbde91e84	-0.113827735
54	0x3fbd9a84	1.481278
55	0xbe737d76	-0.23778328
56	0x403c209a	2.9394898
57	0x40369aca	2.8531976
58	0xbeb459a6	-0.35224646
59	0x4097e4be	4.7466726
60	0xc07ec8e6	-3.9810119
61	0x3f42b317	0.7605452
62	0x3f9b9457	1.2154645
63	0x3eed96b7	0.4640405
64	0x3f13a4dc	0.5767343
65	0xc02a2991	-2.658787
66	0xbe4d9878	-0.20077693
67	0xbe596c27	-0.21232663
68	0xc004f25b	-2.0772922
69	0xbf94834d	-1.160257
70	0x40141102	2.313538
71	0x3f536f85	0.8259204
72	0x3e59c7f8	0.21267688
73	0xc061485e	-3.520042
74	0xbe00f706	-0.12594232
75	0xbe39f259	-0.18158855
76	0x407788cd	3.8677247
77	0x3def998e	0.1169921
78	0x3fca78af	1.581808
79	0xbd988abf	-0.07448339
80	0x3fecb71a	1.8493378
81	0x40376032	2.8652463
82	0xc11c6bc5	-9.776311
83	0x3f09725b	0.5369012
84	0xc09dfb9c	-4.936964
85	0x40219f75	2.5253575
86	0xc039e9ac	-2.9048872
87	0x4007f8ae	2.1245532
88	0x40bac285	5.836245
89	0xc0235767	-2.5522096
90	0x3d973a66	0.073841855
91	0xbd81059f	-0.062999
92	0xbffcf4fa	-1.9762261
93	0xc0915098	-4.541088
94	0x3fa97acc	1.32406
95	0xc06aaa10	-3.6666298

4.bias f4 [4]
0	0xc0bd7735	-5.9208016
1	0x3fe73984	1.8064427
2	0xc0a9166a	-5.283986
3	0x3f2b36a8	0.66880274
