logs/target_params_B_50_onehot.pt (torch, 6375 bytes, 6 tensors)

0.weight f4 [24, 12]
000000 fc 30 92 bd c6 88 2d bf 5c c1 ef bc f4 39 a6 be
       -0.07138249 -0.67786825 -0.029267006 -0.3246609
000010 31 f2 89 be 0d ea 04 3f b0 73 28 3f 1c ba 31 3f
       -0.2694259 0.51919633 0.65801525 0.69424605
000020 a1 c0 ac bf db 6f be 3f ae 78 a5 bf a3 99 c6 bf
       -1.3496286 1.4877886 -1.2927454 -1.5515636
000030 bd be 9a 3f 4b 57 0b 3f ba 56 d5 be 7f 8b 17 3f
       1.2089459 0.54430073 -0.4166773 0.5919723
000040 80 ae 3a bc 29 f5 a4 bf f9 af 51 bf 31 15 2d bf
       -0.011394143 -1.2887317 -0.8190914 -0.6761046
000050 69 3d 48 40 46 6d 8d bf 9f a6 96 bf bd e8 76 c0
       3.1287482 -1.1048973 -1.1769599 -3.8579552
000060 ca 56 9a be 1b a5 2a bf d6 6a c8 3d fa 20 02 bf
       -0.3014434 -0.6665818 0.09786002 -0.5083157
000070 29 26 0c bf ca 7d 17 bf ce 2c e7 be e1 d4 e3 3d
       -0.5474573 -0.59176314 -0.4515137 0.11124588
000080 81 9a a3 bd dc 73 cd be ae 46 21 3e 57 cb 64 bf
       -0.07988454 -0.40127456 0.15749618 -0.8937277
000090 07 67 ab bf 3a a6 20 3f cc be 3c 3e e9 3a 12 bd
       -1.3390816 0.6275364 0.18432158 -0.035700712
0000a0 72 ef 72 3f 38 09 8c be bd 93 8a bd 6d 76 30 3f
       0.94896615 -0.27350783 -0.0676646 0.68930703
0000b0 a3 f6 4e bf d4 a8 e0 3e 2b bd c5 bf ce f4 ab be
       -0.8084509 0.43878806 -1.5448354 -0.3358521
0000c0 e3 21 79 3f b3 bc 11 3f 64 6c df bc ec aa 2f 3f
       0.9731733 0.5692856 -0.027273364 0.6862018
0000d0 ca 8f af 3e 95 91 30 3e 74 e7 73 3d a2 7e 95 3e
       0.3428939 0.17243035 0.059546903 0.29198176
0000e0 6d 71 22 40 04 1c 87 be e6 16 87 3e 3e 0f c1 3e
       2.538173 -0.26388562 0.26384658 0.3770694
0000f0 77 33 a5 be d5 f4 5a 3f 22 eb e4 be 07 a0 0c 3f
       -0.32265827 0.85529834 -0.44710642 0.5493168
000100 e5 81 15 3f f9 52 a9 bf f7 20 b2 bf f6 21 d5 be
       0.5840133 -1.3228446 -1.391631 -0.41627473
000110 74 1e 4c bc 2f 73 7b 3f 23 79 8e bf 82 4e 40 c0
       -0.0124584325 0.9822263 -1.1130718 -3.0047917
000120 22 39 ea be f6 5a 1e 3f dc e3 d2 3d e4 33 66 3f
       -0.45746714 0.61857545 0.10297367 0.8992293
000130 58 6a 05 be 23 1f b7 3e 4d 44 1d bf 7b ad 05 3f
       -0.13028848 0.35765943 -0.61432344 0.52217835
000140 46 b5 84 3f 6c 8f 8a bf 5f 18 21 bf 4a ae 59 3e
       1.036782 -1.0825019 -0.6292781 0.21257892
000150 52 8a 97 3f 1c b1 f8 3e 4b 06 45 be 4b 40 16 3f
       1.1839087 0.48572624 -0.19240682 0.58691853
000160 ba d5 c9 3e 94 cb d2 be 59 02 78 bd 49 35 3b be
       0.39420873 -0.41170943 -0.060549114 -0.18282045
000170 9d 67 0a 40 34 64 10 3f 16 50 25 3f 73 06 10 3f
       2.162574 0.564029 0.64575326 0.5625984
000180 08 5a f6 bf 0f 8c b8 be 76 1e d6 3d 29 fe 72 3f
       -1.9246225 -0.36044356 0.10455029 0.9491907
000190 9f 1f 47 bf 76 8b 9d 3e 94 ce 32 3f 55 1a 16 3e
       -0.77782625 0.30770463 0.69846463 0.14658482
0001a0 37 69 07 3d 50 09 f2 bf f9 26 84 3f 78 04 92 3d
       0.033059325 -1.8909092 1.0324394 0.071297586
0001b0 5d 34 82 3f cf ba 25 3f 55 69 24 bd e2 60 28 3f
       1.017223 0.6473817 -0.040139515 0.6577283
0001c0 b1 ce 5b 3e 47 04 82 3e 81 70 1c 3e dc b9 a4 3d
       0.21465565 0.25393888 0.15277292 0.08043262
0001d0 6b 22 14 40 52 a6 62 bf 7f 0c 49 3f 0e 06 56 3f
       2.3146007 -0.88535035 0.7853469 0.8360299
0001e0 42 54 17 3f 25 c7 78 3e de bd fd 3f f9 0d 0e bf
       0.5911294 0.24294718 1.9823568 -0.5549007
0001f0 81 ac 66 be c3 68 cc 3e 0b 8c 31 3f f0 97 44 bf
       -0.22526743 0.39923677 0.69354314 -0.7679434
000200 4b 60 69 3f f2 09 78 bf df 91 9e bf eb 07 b0 c0
       0.91162556 -0.96890175 -1.2388266 -5.5009665
000210 e4 dc cc 3e 91 d6 7b bf 47 61 8a 3f df d3 ba 3e
       0.40012276 -0.9837428 1.0810937 0.3648977
000220 05 38 70 3f 30 50 2d bf e4 77 06 bd 60 9e 8c bf
       0.9383548 -0.6770048 -0.03282918 -1.0985832
000230 f7 65 4d bf 06 aa 8e 3f 5c b5 bb be c6 62 5d bf
       -0.8023371 1.1145637 -0.36661804 -0.8647884
000240 cf 33 9d be 7d 1b 69 3f 9f 2e 1b 3f 68 3b 28 bf
       -0.3070359 0.9105757 0.60618013 -0.65715647
000250 b2 d4 b5 bd 0f c6 2f bf ac 72 93 bf 7e 60 65 3e
       -0.08878459 -0.6866159 -1.151937 0.2240009
000260 c4 12 9c bf f0 bc 66 3f 7c ac 3b c0 43 c9 3f bf
       -1.2193227 0.90132046 -2.9324026 -0.74916476
000270 fb 55 7a 3f de a3 d0 3e 74 1b 38 3e fb 8a 19 3f
       0.97787446 0.4075002 0.17979223 0.5997769
000280 d9 40 ce 3e c6 f7 e7 bc e1 17 ec bd e7 fb 3c 3e
       0.4028385 -0.02831639 -0.11527992 0.18455468
000290 6c 15 1b 40 31 47 97 be 33 43 27 3f 1f f9 b3 3f
       2.4231825 -0.29546502 0.6533691 1.4060401
0002a0 cf c8 09 40 68 f4 9b bf 05 0b 86 3e 2c 05 7e bd
       2.1528814 -1.2183962 0.26180282 -0.06201665
0002b0 bc 31 e1 bc b9 85 a7 bd 8e 3b 52 be c3 b5 49 3e
       -0.027489536 -0.081798024 -0.20530531 0.19698243
0002c0 39 28 ef bf 0a 63 96 bf 64 98 8b be 0b fc da be
       -1.868415 -1.1748974 -0.27264702 -0.4277042
0002d0 31 bb 99 3f 39 e1 e4 3d 29 4e 2c bd c7 97 31 3f
       1.2010251 0.1117577 -0.042066727 0.6937222
0002e0 a3 35 d2 3e 4f 53 37 3d 3b e0 9c 3e b1 a9 be bd
       0.41056547 0.044757184 0.30639824 -0.0930971
0002f0 e2 d5 12 40 da d3 4b 3b d2 e1 b3 3f 78 0d ba 3f
       2.2943044 0.0031101615 1.405329 1.453536
000300 1a 67 a4 3f 10 41 85 be eb 37 14 bf 94 52 06 3f
       1.2843964 -0.260262 -0.57897824 0.52469754
000310 15 4a 19 bf bc bc 8c bd cf bc eb 3e b2 92 70 bf
       -0.59878665 -0.06871936 0.46042487 -0.9397384
000320 f7 61 1a c0 c2 7d 04 bf 35 3b c1 3f a3 41 1c 3f
       -2.4122293 -0.5175439 1.5096194 0.61037654
000330 a1 12 cf 3e c8 70 ac 3e 14 e8 77 3e b8 7a e7 3e
       0.404439 0.33679795 0.24209625 0.45210814
000340 52 97 67 c0 9a 79 6f 3e f6 10 41 bf 2f ea 03 bf
       -3.6186109 0.23386231 -0.75416505 -0.5152921
000350 7e 98 27 bd 1c 68 bb bf 03 b1 4d c0 ff 45 85 c0
       -0.040916912 -1.4641147 -3.213929 -4.1647944
000360 f2 fa a3 bf 8a 3f 88 bf 64 c3 15 3f ab c8 15 3e
       -1.2810957 -1.064439 0.5850127 0.1462733
000370 b4 92 c0 3e d8 e4 71 3f 92 cb 0c 3f 10 09 ee 3e
       0.37611926 0.9448981 0.54998124 0.4649129
000380 4e 0c 8d bf e8 14 6a 3f 1c 05 2e 3f 02 de a3 3e
       -1.101938 0.9143815 0.67976546 0.32005316
000390 96 8b d7 bc fd 07 df 3e 23 72 9c 3e 10 31 b2 3e
       -0.026311677 0.43560782 0.3055583 0.34803057
0003a0 60 70 69 c0 9c 72 7e 3e 5e 4b 98 bf 94 9a cb 3d
       -3.6474838 0.24848408 -1.1898 0.09941593
0003b0 bf 07 6f 3e 01 e5 e6 bf 23 cf f8 bf 82 2a 6b c0
       0.23342799 -1.8038636 -1.9438213 -3.6744695
0003c0 12 a9 5b 3f 74 b2 52 3f c9 af af 3b 50 13 16 3f
       0.85804856 0.8230355 0.0053615314 0.5862322
0003d0 ec 7d a4 3e f1 61 a1 3e a2 cf 94 3e 82 3d 75 3d
       0.3212732 0.31520036 0.2906466 0.05987311
0003e0 10 12 14 40 26 08 aa be 0b 29 3c be 7b 2d 04 3f
       2.3136024 -0.33209342 -0.18375032 0.516319
0003f0 5f 86 12 bf be 92 f4 be 33 19 e3 3e df a4 8f bd
       -0.57236284 -0.47768205 0.44355163 -0.070138685

0.bias f4 [24]
000000 c1 a1 f4 3f 0a 95 10 c0 e4 d8 a9 be dc 45 ee 3f
       1.9111863 -2.2590966 -0.33173287 1.8615069
000010 71 db c9 bf 32 ff 62 bf f1 59 40 bf 4b e2 93 bf
       -1.5770093 -0.8867065 -0.7513724 -1.1553434
000020 69 11 8f 3f 33 36 01 c0 f3 11 c0 bf b5 d9 b6 3f
       1.1177188 -2.018933 -1.5005478 1.4285189
000030 d8 18 b2 3f bc c6 a3 bf 7f 70 b0 3f 99 84 7f bf
       1.3913832 -1.2795024 1.3784331 -0.998117
000040 cf 5c b8 3f 69 78 b9 bf 20 91 08 40 cb c3 ab bf
       1.4403323 -1.4489871 2.1338577 -1.3419126
000050 07 47 10 c0 82 96 8c 3e c5 0b cb 3f 17 02 0f c0
       -2.2543352 0.27458578 1.5862967 -2.2345026

2.weight f4 [24, 24]
000000 c7 ac 84 be 52 42 0c be 05 ee f1 3d 00 b1 48 bd
       -0.2591307 -0.13697174 0.11812977 -0.048996925
000010 99 32 9e bd 8a b8 45 3e bd 20 38 bd 46 95 80 be
       -0.077244945 0.19308677 -0.044953097 -0.25113887
000020 07 eb 5b be 76 67 16 3c 90 6e 61 be 8e b2 6d 3d
       -0.21476375 0.00917994 -0.22014832 0.05803161
000030 00 81 88 bd 38 29 f3 bd ec 01 29 3d 39 43 36 3d
       -0.0666523 -0.11873096 0.0412616 0.044497702
000040 76 7f 90 3d 83 97 3f be 07 5e d4 bd 1d 78 5e be
       0.07055561 -0.18710141 -0.10369497 -0.21725507
000050 04 aa 65 be ad cf 50 bd 2b 89 59 bd 61 da 4c 3d
       -0.22428137 -0.050979305 -0.05310933 0.05001295
000060 d3 61 3c be 32 8f 6f bd e1 6f a2 bd 6d 0e 24 bd
       -0.18396692 -0.05848617 -0.079314955 -0.04005282
000070 b9 23 1f be 88 65 12 be c6 a0 96 be b4 b5 aa 3c
       -0.15540971 -0.14296544 -0.29419535 0.020838596
000080 51 51 b0 bd b5 2a 7b be a6 6e b2 3d 44 b0 87 bc
       -0.0860926 -0.2452801 0.08712511 -0.016563542
000090 22 32 7d bd d0 9f 7f 3d 08 03 74 3d d4 71 19 bd
       -0.06181539 0.06240827 0.059573203 -0.03746207
0000a0 b4 ee 62 be 4f 2a 1e be b3 85 13 be 24 99 73 be
       -0.2216137 -0.15445827 -0.14406471 -0.23788887
0000b0 cd 70 66 be e5 d1 55 be 8f 5a 52 be bd 9f 01 b8
       -0.22503968 -0.2088085 -0.20542358 -3.0904765e-05
0000c0 06 7e 1f 3f 23 43 18 c0 32 46 ad 3e d8 2e 7c 3e
       0.6230167 -2.3790977 0.33842617 0.24627244
0000d0 c0 0e d2 3e e9 60 13 40 01 6a 48 3f 15 1c 25 bd
       0.41026878 2.30279 0.7828675 -0.040309984
0000e0 d7 c7 0c be d9 f6 53 3e 9e ea 29 3f ab f6 dc 3e
       -0.13748108 0.20699634 0.6637362 0.43156943
0000f0 4c df 7b bf 87 c1 20 3e 7f bc b4 bf 48 e7 04 3e
       -0.983876 0.15698825 -1.4120024 0.12978852
000100 73 1e 1f be 46 0c 25 40 e2 59 de 3e fa 8c bc 3f
       -0.15538959 2.578874 0.4342795 1.4730523
000110 d6 ea 9b 3e 02 dc 45 3e 1c ca a3 3e 6c 07 d4 be
       0.30452603 0.19322208 0.31990135 -0.41411912
000120 36 0b d6 3e 1d 1e 12 c0 0e 93 e7 3e 4d f9 09 3f
       0.41805428 -2.283088 0.4522938 0.5389603
000130 e7 59 12 3e 99 18 74 3f 9a 51 3f 3e d6 b6 8a bc
       0.14292108 0.95350033 0.18683472 -0.016932886
000140 62 bb 69 3f 32 b9 3a 3d 10 11 09 bf f4 7f 2e 3f
       0.9130155 0.045586772 -0.5354166 0.6816399
000150 30 36 8d 3f 9e d7 09 bd 1a 6b 2d 3f a0 6a b6 ba
       1.1032162 -0.033652894 0.6774155 -0.0013917275
000160 45 c7 30 3f 24 9b 12 c0 d8 06 17 3d a7 f1 ce bf
       0.6905406 -2.290719 0.03687176 -1.6167496
000170 79 95 ac 3d 38 77 6a 3e c3 5a 0c 3f 64 87 d5 be
       0.08426947 0.22897041 0.5482599 -0.41704857
000180 f0 ba d7 3d ba 1c 16 40 3e ef c9 be 5f 37 d5 3d
       0.105337024 2.3455033 -0.3944034 0.10410952
000190 a7 ab 0d 3e ad f4 9c bf 1b 74 81 bd 4a 89 b1 3e
       0.13835011 -1.2262169 -0.063209735 0.34675056
0001a0 71 03 14 3e 0f f0 d8 bd c9 f2 2d be 88 ba 97 3e
       0.14454438 -0.105926625 -0.16987146 0.296345
0001b0 13 f6 b7 3f 67 73 82 3e 33 23 14 40 c5 db 8e 3e
       1.4371971 0.2547867 2.3146484 0.27902046
0001c0 9f 67 e6 3e 18 27 b4 bf a5 fb fc 3d 99 f5 95 bf
       0.45000932 -1.407443 0.12352685 -1.1715575
0001d0 dd 02 42 be f5 10 85 3d fa 84 19 3f 09 26 79 3f
       -0.18946405 0.06497375 0.5996853 0.9732366
0001e0 25 4d 87 3e ec 91 91 3f 49 13 87 be b3 71 36 3e
       0.26426044 1.1372657 -0.263819 0.1781681
0001f0 06 76 8a 3e 08 03 ad be 00 53 55 be ef 51 f1 3c
       0.2704317 -0.33791375 -0.20832443 0.029458014
000200 47 37 e2 3e 8f d3 b3 bd 76 a9 da be d9 2d 0a 3f
       0.44182798 -0.08780586 -0.42707413 0.5397621
000210 32 12 b3 3f 19 a4 7a bd fd 16 20 40 6e e1 d9 bc
       1.3989928 -0.061191652 2.501403 -0.026596751
000220 d2 40 ba 3f b1 5f d9 bf 9c 60 af 3e 90 f3 91 bf
       1.4551032 -1.6982328 0.34253395 -1.1402454
000230 ce ef 19 bc 4e 01 79 be c5 42 c6 3e 4c 81 7a 3f
       -0.009395553 -0.24316904 0.38722816 0.9785354
000240 37 48 74 3b 98 93 87 3d 60 7d c7 bb 86 09 e2 bd
       0.0037274489 0.06619948 -0.006087944 -0.11036973
000250 2a 3f 71 be f8 62 bb bc bf f3 5c be a7 c9 b2 be
       -0.23559251 -0.02287434 -0.21577357 -0.34919474
000260 70 5c 68 3d 35 c1 3a be 33 e1 97 be aa f6 14 be
       0.05672878 -0.18237765 -0.29664 -0.1454722
000270 52 42 05 bc ef bb 8d be 84 f5 31 be 63 f4 65 be
       -0.008133488 -0.27682444 -0.17378813 -0.22456507
000280 cc de ce bc eb 1b 06 be 62 03 aa be b2 61 b7 bc
       -0.025252722 -0.13096587 -0.33205706 -0.022385452
000290 0b 3c de bd dd 84 21 be bb 0e a2 bd ec d1 bd bd
       -0.10851296 -0.1577334 -0.07912966 -0.09268555
0002a0 d3 d4 72 bc c1 9f 78 be dd 88 4a 3c 1d 6b b3 bb
       -0.014821249 -0.24279691 0.012361732 -0.0054754154
0002b0 96 37 28 be e4 fe 21 3e 45 74 9f 3d 9b 48 30 be
       -0.16427454 0.1581989 0.077858485 -0.17215197
0002c0 0b db 21 bd f6 25 29 be 34 2e 1a bd 58 d0 90 bd
       -0.039515536 -0.16518387 -0.03764172 -0.070709884
0002d0 83 da 0d 3c cd 45 3d be 00 4d 41 bb 55 17 a7 3d
       0.008658054 -0.18483658 -0.0029495358 0.08158747
0002e0 a1 e3 a4 bd 1f 9c 88 bd ef 5e bc bc a4 19 3f 3e
       -0.08051229 -0.06670403 -0.022994487 0.18662125
0002f0 5b a8 0d 3d b7 8c 8e be 4c e5 f1 bd f6 70 0e be
       0.034584384 -0.27841732 -0.11811313 -0.13910279
000300 05 b1 0d c0 5e 7f 89 bf ed ab 10 be e2 4a 95 bf
       -2.2139294 -1.0741994 -0.14128084 -1.1663477
000310 f1 e9 e9 3e b7 8a 21 40 dc fe 97 3f 7c ad 80 3e
       0.45686296 2.5240915 1.1874652 0.25132358
000320 75 d7 0d c0 e6 19 67 3f bb 4b ea 3f 6d 37 12 c0
       -2.2162755 0.9027389 1.8304361 -2.284633
000330 f2 cb ac c0 c9 84 18 3f 37 6b 21 c1 f4 d4 14 3f
       -5.3998957 0.59577614 -10.0886755 0.5813744
000340 07 20 85 c0 94 98 bf 3f 86 36 0b c0 58 83 82 3f
       -4.1601596 1.4968438 -2.1752028 1.0196333
000350 c4 f9 74 3f d1 08 6e be f7 d9 87 bf c4 fc 85 3f
       0.9569361 -0.2324555 -1.0613393 1.0467763
000360 d5 fc 8f bf 1b e8 4c 40 ba 33 1b bb ff 90 27 bf
       -1.1249033 3.2016666 -0.0023681954 -0.6545562
000370 34 43 cb 3e a9 78 6a bf de ca ef 3e 72 51 35 3f
       0.3969971 -0.9159036 0.46834463 0.708274
000380 2f 72 c4 bf 52 a3 35 3f 0a 63 f0 3e 82 e7 1e bf
       -1.5347346 0.7095233 0.4695056 -0.62072
000390 5a af d3 bf 0c 04 28 3f 41 4a ac bf 50 3a 18 3f
       -1.6537888 0.65631175 -1.346016 0.5946398
0003a0 6a 37 09 c0 18 7e 99 3f 74 ee 1e bf 87 a0 a1 3f
       -2.1440072 1.1991606 -0.620826 1.2627114
0003b0 3b 47 48 3f b0 b5 38 bf 81 09 80 bf f6 73 a9 3f
       0.7823369 -0.72152233 -1.00029 1.3238513
0003c0 a6 00 19 bd 87 f6 4f be 01 ef 44 be 49 23 49 be
       -0.037354134 -0.20308886 -0.19231798 -0.19642366
0003d0 31 4a 62 be b8 ce ee 3d f0 a7 1d 3d 8c 16 fa bd
       -0.22098614 0.11660522 0.038490236 -0.12211332
0003e0 cc d5 e5 3d 8d 2d fc 3c 56 13 fd bd 4d 15 33 be
       0.11222419 0.030783439 -0.12357204 -0.17488594
0003f0 29 66 67 bd b5 ad de bd f8 92 14 bd 6d e8 0e be
       -0.056493912 -0.10872976 -0.036272973 -0.13955851

2.bias f4 [24]
000000 85 a7 03 3c 3a 88 ae 3d ac ed 2e 3e a5 6c 11 3f
       0.008035545 0.08522077 0.17082852 0.56806403
000010 c3 ec cb 3e 91 28 63 3f 29 88 b8 be 25 92 4b be
       0.39829072 0.88733774 -0.36041382 -0.19879968
000020 3c 6d b2 bf c8 ac fc be b1 71 50 3d fe a0 7f 3d
       -1.3939586 -0.49350572 0.050889675 0.062409393
000030 e8 86 21 be ad 0e 29 be f6 ad 37 3d f8 8a 9c 3e
       -0.15774119 -0.16509505 0.044843636 0.30574775
000040 94 23 8e bf af ac 81 bc bb 6b dc bf 60 e6 e9 3e
       -1.1104608 -0.015829412 -1.7220377 0.45683575
000050 4d f2 50 be 40 ae 27 3f ff 05 6b 3f e0 ac 1d 3f
       -0.2040493 0.6550026 0.91806024 0.6159191

4.weight f4 [4, 24]
000000 d1 7f 48 3d 18 29 09 3b d8 ac 41 bf dc d1 4a bf
       0.04895002 0.0020929035 -0.75654364 -0.7922647
000010 b5 81 8b 3e 9d e4 43 bd 90 22 68 bc 81 9d c1 bd
       0.27247396 -0.047825444 -0.014168397 -0.094538696
000020 d3 11 38 3f 0a 1d c7 3e 64 a6 a9 3d aa 9d ae 3e
       0.719022 0.38889343 0.082836896 0.34104663
000030 1b 3c bb 3d 26 3a e4 bd 8f 85 e9 3e 7c 85 23 3f
       0.091423236 -0.111439034 0.4560971 0.63875556
000040 07 86 5a 3f 58 70 05 3e a3 31 a2 3f 4a 5e b2 3e
       0.8536076 0.13031137 1.2671398 0.34837562
000050 34 f9 e2 bd f4 26 60 bf 51 1b c7 be a6 e9 3a bf
       -0.11082688 -0.8755944 -0.38888028 -0.7301277
000060 26 40 ef 3c 80 fb 1f bc e3 96 cd bf 7f 91 9a bf
       0.029205393 -0.009764552 -1.6061672 -1.2075652
000070 07 ff 80 3f 5d 2e 64 3f fa 73 16 3e a5 a5 28 be
       1.0077828 0.89133245 0.14692679 -0.16469438
000080 be e6 34 c0 07 c4 81 3f 12 1e 0a 3e 40 27 76 3f
       -2.8265834 1.0137948 0.13488033 0.9615364
000090 78 4d 7d 3c 1a 0f bc bd 15 e8 41 3e 47 28 df 3f
       0.0154603645 -0.09182568 0.18936189 1.7434167
0000a0 f8 98 93 40 de fd ca bf 6b 5c 80 40 39 5a 6a 3f
       4.612423 -1.5858724 4.0112815 0.9154392
0000b0 02 66 40 3d bb 8f b0 bf 84 c5 08 bf 56 1c ba bf
       0.046972282 -1.3793863 -0.53426385 -1.4539897
0000c0 af 29 af 3d 74 47 c5 3d 77 34 8e bf 18 ac 2c bf
       0.085528724 0.09632769 -1.1109761 -0.67450094
0000d0 e0 dd 02 3f 75 8f 14 3f a0 3e 33 be 7e c7 77 3d
       0.51119804 0.580314 -0.17504358 0.060492985
0000e0 33 52 95 bf 24 06 81 3f 02 42 a1 3d 6b cd 91 3e
       -1.166571 1.0079999 0.07873918 0.28477034
0000f0 a7 ac b5 bd 6b 47 1f be f6 65 b9 be 7f 7e a5 3f
       -0.088708214 -0.15554588 -0.36210603 1.2929229
000100 c2 ec 89 3f 0a f5 b3 ba ab 2d 9c 3e b1 74 09 3f
       1.0775378 -0.0013729644 0.30503592 0.5369368
000110 a0 6f 8f bc 6c fa 82 bf 4b 89 04 bf ef 06 53 bf
       -0.017509282 -1.0232673 -0.5177199 -0.82432455
000120 b4 32 6f 3b 63 54 17 be 14 78 2c 3f f9 81 79 bf
       0.0036498727 -0.14778285 0.67370725 -0.9746395
000130 b0 42 ea be b7 36 6c bf 38 0a 50 be 41 aa 6f 3c
       -0.45754004 -0.9227099 -0.20316398 0.014627994
000140 4b df 89 40 7d e7 74 3f 28 f3 40 bd 43 32 4c 3f
       4.3085074 0.95665723 -0.047106892 0.79764193
000150 86 c2 29 be 61 71 86 3c cf 8f 1d 40 b8 19 b2 bf
       -0.16578111 0.016411485 2.4619024 -1.3914099
000160 18 ad 60 3f ca 32 b2 3f 8a 5f 9a 40 28 44 3e bf
       0.8776412 1.392175 4.8241625 -0.7432275
000170 33 06 20 3d 81 68 52 bf 4a 61 85 bf 8b 0b 48 bf
       0.039068412 -0.8219071 -1.0420315 -0.78142613

4.bias f4 [4]
000000 19 8a c5 bf 17 30 56 3e 64 23 ed bf 58 fc a5 bd
       -1.5432769 0.20916782 -1.8526425 -0.081047714
