logs/target_params_B_100_onehot.pt (torch, 6383 bytes, 6 tensors)

0.weight f4 [24, 12]
0	0xbe2734b0	-0.16328692
1	0xbeff6341	-0.49880412
2	0xbe81dbe7	-0.25363085
3	0xbe9fce89	-0.3121226
4	0xbeccc620	-0.39994907
5	0x3ea8df3b	0.3298281
6	0x3f72280e	0.9459237
7	0x3f241dfe	0.64108264
8	0xbfef06ca	-1.8673947
9	0x3f819800	1.0124512
10	0xbecb42f2	-0.39699513
11	0xc02988c6	-2.648973
12	0x3f9d1e48	1.2274866
13	0x3eaeb252	0.34120423
14	0xbecce921	-0.40021613
15	0x3e67f1c2	0.22650817
16	0xbe470429	-0.1943518
17	0xbfb8b91b	-1.443149
18	0xbf15e5b2	-0.5855361
19	0xbef16bb4	-0.47152483
20	0x4066200b	3.5957057
21	0xbf2b9a10	-0.67031956
22	0xbf81b86f	-1.013441
23	0xc004ec0a	-2.0769067
24	0xbe9f44be	-0.31107134
25	0xbf2aa51b	-0.6665818
26	0x3d9d46e8	0.0767954
27	0xbf0220fa	-0.5083157
28	0xbf0c2629	-0.5474573
29	0xbf177dca	-0.59176314
30	0xbee72cce	-0.4515137
31	0x3d9927a4	0.07478264
32	0xbda39a81	-0.07988454
33	0xbecd73dc	-0.40127456
34	0x3e02f27f	0.12787817
35	0xbf64cb57	-0.8937277
36	0xbf86a314	-1.0518517
37	0x3f1377d3	0.5760471
38	0x3e52bc17	0.20579563
39	0x3e1fcd23	0.15605597
40	0x3f3fb025	0.7487815
41	0xbf100368	-0.562552
42	0x3da49a83	0.08037283
43	0x3f4d1d10	0.8012247
44	0xbf62de57	-0.88620514
45	0xbe5adb2d	-0.21372671
46	0xbfd4db85	-1.6629492
47	0x3e97ae8d	0.2962536
48	0x3f510002	0.81640637
49	0x3f108c5b	0.56464165
50	0x3bc07163	0.0058728918
51	0x3f230cb3	0.6369125
52	0x3eec825a	0.461932
53	0x3db5124d	0.08841381
54	0x3d5edc47	0.05440929
55	0x3e462353	0.19349413
56	0x4048f059	3.1396697
57	0x3e4c9a81	0.19980814
58	0x3f1fd6f3	0.6243736
59	0x3ed2d611	0.41178945
60	0xbdec11d1	-0.11526836
61	0x3f4b7bba	0.79485667
62	0xbe415242	-0.18879035
63	0x3f26ffe1	0.6523419
64	0x3f0f22f5	0.55912715
65	0xbf750d6f	-0.95723623
66	0xbf99b6de	-1.2008932
67	0xbf44941b	-0.7678849
68	0xbe1dcd82	-0.15410426
69	0x3ef7952b	0.48355994
70	0xbff737b9	-1.931388
71	0xc026af6a	-2.6044564
72	0xbf37042d	-0.71490747
73	0x3f9cd62a	1.2252858
74	0x3e06671f	0.13125275
75	0x3f5b7e27	0.8573937
76	0xbec6a827	-0.38800165
77	0x3eb2eeb4	0.3494774
78	0xbf60cf79	-0.8781658
79	0x3f332100	0.6997223
80	0x3fe23535	1.7672487
81	0xbe85f583	-0.26163873
82	0x3c0a4b62	0.008440824
83	0x3e82f70b	0.25579104
84	0x3f888603	1.0665897
85	0x3f13cf77	0.5773844
86	0xbda4c564	-0.08045462
87	0x3f20a661	0.62753874
88	0x3f11554f	0.56770796
89	0xbea62dc8	-0.32456803
90	0xbd943c56	-0.07238071
91	0xbdcc5ccb	-0.09978636
92	0x402ae8f6	2.6704688
93	0x3f64b181	0.8933335
94	0x3f97d875	1.1862932
95	0x3ed5301b	0.41638264
96	0xbfee2b6b	-1.8607
97	0xbf268457	-0.65045685
98	0xbd709358	-0.058734268
99	0x3f25ca29	0.64761597
100	0xbf419deb	-0.7563159
101	0x3d7c207e	0.061554424
102	0x3f1ad8bd	0.60486966
103	0xbd8f3926	-0.06993322
104	0xbea55569	-0.32291725
105	0xc016922e	-2.352672
106	0x3f61f754	0.8826802
107	0xbebb6d99	-0.36607054
108	0x3f6c04f9	0.9219509
109	0x3f318e23	0.6935751
110	0x3d6630d8	0.056198925
111	0x3f1470a7	0.57984394
112	0x3eb9b2cf	0.36269233
113	0x3e5b58da	0.21420613
114	0x3e08e66a	0.13369146
115	0xbcfa54ee	-0.030558076
116	0x4031cb1d	2.778022
117	0xbef08972	-0.46979862
118	0x3f92a11c	1.1455417
119	0x3f7e77ef	0.99401754
120	0x3f3f9f01	0.74851996
121	0x3d18b01d	0.03727733
122	0x400a70ad	2.1631272
123	0xbeb7840b	-0.35842928
124	0xbba3f630	-0.005003713
125	0xbc661f7d	-0.014045593
126	0x3f2e66db	0.68125695
127	0xbf299b2f	-0.66252416
128	0x3fcb31ed	1.5874611
129	0xbe9d8a51	-0.3076959
130	0xbfa4e027	-1.2880906
131	0xc08e99ec	-4.4562893
132	0x3eaac391	0.3335233
133	0xbf8c1a55	-1.0945536
134	0x3f54fd8a	0.8319937
135	0x3ec0fc8c	0.37692678
136	0x3f69f443	0.9138834
137	0xbf3f399b	-0.74697274
138	0x3e09479d	0.13406225
139	0xbf833134	-1.0249391
140	0xbf9701bf	-1.1797408
141	0x3fc11025	1.5083052
142	0xbe3717d5	-0.17880185
143	0xbf786c68	-0.97040415
144	0xbdb5052b	-0.08838876
145	0x3f4be718	0.79649496
146	0x3f194c50	0.5988207
147	0xbf0f9571	-0.56087404
148	0xbc5df52a	-0.013547221
149	0xbf0c7cfd	-0.54878217
150	0xbf6a27cf	-0.91466993
151	0xbc1750a8	-0.009235539
152	0xc016fca8	-2.359171
153	0x3ea10eb8	0.31456542
154	0xc0388932	-2.8833737
155	0x3d8fedb1	0.07027758
156	0x3f66095e	0.89858043
157	0x3edcb02f	0.43103167
158	0x3e8b524a	0.2721122
159	0x3f04649e	0.5171603
160	0x3f09da9f	0.53849214
161	0xbd12310a	-0.0356913
162	0xbe4befee	-0.19915745
163	0x3e0b2b9a	0.13590851
164	0x4032d6dd	2.7943642
165	0x3e847d0b	0.2587665
166	0x3f81dc6a	1.014539
167	0x3fcb59c6	1.5886772
168	0x3fe02e68	1.7514162
169	0xbf94617b	-1.1592249
170	0x3eb58b12	0.35457665
171	0x3e25d77e	0.16195485
172	0x3d0e8869	0.03479806
173	0xbd942036	-0.07232706
174	0xbf0b3b5d	-0.54387456
175	0x3efdf8e6	0.49603957
176	0xc00f7992	-2.241795
177	0xbf8ba13d	-1.0908581
178	0xbe2e4b41	-0.17020895
179	0xbe20f472	-0.15718248
180	0x3f90bf3f	1.1308364
181	0x3d8ad386	0.06778626
182	0xbbc62126	-0.006046432
183	0x3f1fac54	0.62372327
184	0x3f06b621	0.52621657
185	0x3d98afb1	0.074553855
186	0x3e8b138f	0.2716336
187	0xbdc8b410	-0.09799969
188	0x40311626	2.7669768
189	0x3f1e1e7f	0.61765283
190	0x3fe19f4b	1.7626737
191	0x3fcf087a	1.6174462
192	0x3f8926d6	1.0714977
193	0xbc25acaa	-0.010111967
194	0xbf0c3eb5	-0.54783183
195	0x3f424815	0.7589124
196	0xbf1f4613	-0.622163
197	0xbe56b657	-0.20967995
198	0x3edd96ec	0.43279207
199	0xbf6b1556	-0.9182943
200	0xc01f2ac9	-2.4869864
201	0x3e0d1904	0.13779074
202	0x3f9b0feb	1.2114233
203	0x3e90ad64	0.28257287
204	0x3f2f23ae	0.6841382
205	0x3e93ceb1	0.2886863
206	0x3e26e840	0.16299534
207	0x3eb3e9b4	0.3513924
208	0xc067719d	-3.6163094
209	0x3e8ee1c8	0.27906632
210	0xbf1dba72	-0.6161262
211	0xbf1ed472	-0.62042916
212	0xbe3f24f9	-0.18666448
213	0xbfaf06a6	-1.3673904
214	0xc077acf5	-3.8699315
215	0xc0971676	-4.721492
216	0xbf5cb620	-0.862154
217	0xbfa0afe6	-1.255368
218	0x3f1c04ea	0.60945
219	0x3d8105b8	0.06299919
220	0x3e0be743	0.13662438
221	0x3f7293fd	0.9475706
222	0x3f2bca9b	0.67106026
223	0x3ec34a59	0.3814266
224	0xbfc87e7d	-1.5663601
225	0x3f2fa978	0.68617964
226	0x3f40c858	0.753057
227	0x3f92e08c	1.1474776
228	0xbd940740	-0.07227945
229	0x3e004bfc	0.12528986
230	0x3e7e6fe8	0.24847376
231	0x3de375db	0.111064635
232	0xc068f0f9	-3.6397078
233	0x3e86ffa1	0.26366904
234	0xbf911681	-1.1334993
235	0xbdc340ac	-0.095338196
236	0x3de149e8	0.110004246
237	0xbfe6e1c9	-1.8037654
238	0xbffa648d	-1.9561936
239	0xc06b2b85	-3.6745312
240	0x3f3fe202	0.74954236
241	0x3f594b68	0.84880686
242	0x3da55f49	0.08074815
243	0x3f007f93	0.5019466
244	0x3ed06a39	0.4070604
245	0x3e553ba3	0.20823531
246	0x3e5dfa90	0.21677613
247	0xbdf9caef	-0.1219691
248	0x4033ae32	2.807507
249	0x3e8de8e0	0.27716732
250	0xbd204d29	-0.039136086
251	0x3f523a97	0.8212065
252	0xbefee23a	-0.49781972
253	0xbfd887f0	-1.6916485
254	0x3f10826d	0.56449014
255	0x3f0ff8df	0.5623912

0.bias f4 [24]
0	0x3ff90dad	1.9457299
1	0xc010ca85	-2.2623608
2	0xbeb8aff8	-0.36071754
3	0x4004d5a5	2.0755398
4	0xbfe5f4c3	-1.796532
5	0xbf8121dc	-1.0088458
6	0xbf827a5a	-1.0193589
7	0xbfacd5eb	-1.3502783
8	0x3f4bbc12	0.7958385
9	0xc00ee016	-2.2324271
10	0xbfd17384	-1.6363378
11	0x3fd20569	1.6407901
12	0x3fa95dbf	1.3231734
13	0xbfc4b641	-1.536812
14	0x3fc7c41a	1.560672
15	0xbf9c66b6	-1.2218845
16	0x3feafc07	1.8358163
17	0xbfaf9bcc	-1.371942
18	0x4008f7d8	2.1401272
19	0xbfc7be1d	-1.5604893
20	0xc01bce2f	-2.4344594
21	0x3f0d4b73	0.5519325
22	0x3fe5559e	1.7916753
23	0xc01f3e98	-2.4881954

2.weight f4 [24, 24]
0	0xbe84acc7	-0.2591307
1	0xbe0c4252	-0.13697174
2	0x3df1ee05	0.11812977
3	0xbd48b100	-0.048996925
4	0xbd9e3299	-0.077244945
5	0x3e45b88a	0.19308677
6	0xbd3820bd	-0.044953097
7	0xbe809546	-0.25113887
8	0xbe5beb07	-0.21476375
9	0x3c166776	0.00917994
10	0xbe616e90	-0.22014832
11	0x3d6db28e	0.05803161
12	0xbd888100	-0.0666523
13	0xbdf32938	-0.11873096
14	0x3d2901ec	0.0412616
15	0x3d364339	0.044497702
16	0x3d907f76	0.07055561
17	0xbe3f9783	-0.18710141
18	0xbdd45e07	-0.10369497
19	0xbe5e781d	-0.21725507
20	0xbe65aa04	-0.22428137
21	0xbd50cfad	-0.050979305
22	0xbd59892b	-0.05310933
23	0x3d4cda61	0.05001295
24	0xbe3c61d3	-0.18396692
25	0xbd6f8f32	-0.05848617
26	0xbda26fe1	-0.079314955
27	0xbd240e6d	-0.04005282
28	0xbe1f23b9	-0.15540971
29	0xbe126588	-0.14296544
30	0xbe96a0c6	-0.29419535
31	0x3caab5b4	0.020838596
32	0xbdb05151	-0.0860926
33	0xbe7b2ab5	-0.2452801
34	0x3db26ea6	0.08712511
35	0xbc87b044	-0.016563542
36	0xbd7d3222	-0.06181539
37	0x3d7f9fd0	0.06240827
38	0x3d740308	0.059573203
39	0xbd1971d4	-0.03746207
40	0xbe62eeb4	-0.2216137
41	0xbe1e2a4f	-0.15445827
42	0xbe1385b3	-0.14406471
43	0xbe739924	-0.23788887
44	0xbe6670cd	-0.22503968
45	0xbe55d1e5	-0.2088085
46	0xbe525a8f	-0.20542358
47	0xb8019fbd	-3.0904765e-05
48	0x3f5fbfa9	0.87401825
49	0xc00cd596	-2.2005363
50	0x3ead4632	0.33842617
51	0xbe5817c6	-0.21102819
52	0x3ebf93ac	0.37417352
53	0x3feb7a5f	1.839672
54	0x3ed3a67e	0.4133796
55	0xbcd6563a	-0.026164163
56	0xbe94dd8a	-0.2907527
57	0x3e000c6a	0.12504736
58	0x3f0ad54c	0.54231715
59	0x3f13dba0	0.57756996
60	0xbed8b9fe	-0.423294
61	0x3d8c6e64	0.06856993
62	0xbfb927ea	-1.4465306
63	0x3dd736c3	0.10508492
64	0xbe937086	-0.28796786
65	0x401f824e	2.4923282
66	0x3df5e7c6	0.12007098
67	0x3fc28477	1.5196675
68	0x3e553bfe	0.20823666
69	0x3e1cd7af	0.15316652
70	0x3f4f3360	0.8093777
71	0xbcc94d12	-0.024572883
72	0x3f6bef78	0.92162275
73	0xc005a0eb	-2.0879467
74	0x3ed45ac9	0.41475514
75	0x3efd03f9	0.49417093
76	0xbccef38d	-0.025262618
77	0x3f002f44	0.5007212
78	0xbd80eaa0	-0.06294751
79	0xbdb03108	-0.08603102
80	0x3f61a306	0.8813938
81	0xbdee8391	-0.11646188
82	0xbeef9aba	-0.46797734
83	0x3f056603	0.5210878
84	0x3fa843ad	1.3145653
85	0xbe039c46	-0.12852582
86	0x3f449996	0.76796854
87	0xbe141777	-0.14462076
88	0x3f84eb2c	1.0384269
89	0xc045e6e3	-3.0922172
90	0xbe691275	-0.22760947
91	0xbfc30f95	-1.523913
92	0xbcf358b7	-0.029705388
93	0x3ed1cd61	0.40977004
94	0x3ecf913a	0.40540487
95	0xbf7d584a	-0.98962843
96	0xbe0f7ff9	-0.14013661
97	0x3fe66303	1.7998966
98	0xbebe3ba7	-0.37154886
99	0x3e2bbcfa	0.16771308
100	0x3e0c9fed	0.13732882
101	0xbedd06f7	-0.43169376
102	0xbd0ce04f	-0.034393605
103	0x3ea8eb85	0.32992187
104	0x3df3683a	0.11885114
105	0xbe0f2a65	-0.13981016
106	0xbee342d2	-0.44386917
107	0x3e9467be	0.289854
108	0x3fab26c9	1.3371211
109	0x3e8ad285	0.2711374
110	0x40094ebf	2.1454313
111	0x3e9e9277	0.3097112
112	0x3eb921b8	0.36158538
113	0xbf8db557	-1.1070966
114	0x3e50d711	0.20394541
115	0xbf96f086	-1.1792152
116	0xbe56d259	-0.20978679
117	0x3e38def5	0.18053801
118	0x3eb8d08e	0.36096615
119	0x3fab60d7	1.3388928
120	0x3e4f3cf1	0.20238091
121	0x3f0f1760	0.5589504
122	0xbe7a7d02	-0.24461749
123	0x3e204b8a	0.15653816
124	0x3e5848ab	0.2112147
125	0x3d083d7a	0.033261754
126	0xbd8a4f7a	-0.0675344
127	0xbcd56542	-0.02604926
128	0x3e9fe923	0.31232557
129	0xbe33fa83	-0.17576031
130	0xbf413cc9	-0.75483376
131	0x3ed343dc	0.4126271
132	0x3fbad31f	1.4595679
133	0xbd880677	-0.06641858
134	0x400e8f5f	2.2275007
135	0xbccc9ca0	-0.024977028
136	0x3fcc102f	1.5942439
137	0xbfba2124	-1.4541364
138	0x3ed9c2f1	0.4253154
139	0xbf804c1c	-1.0023227
140	0xbd53af2f	-0.05168074
141	0x3e7fdd11	0.24986674
142	0x3e3b8bc4	0.18315035
143	0x3fba4446	1.4552085
144	0x3b744837	0.0037274489
145	0x3d879398	0.06619948
146	0xbbc77d60	-0.006087944
147	0xbde20986	-0.11036973
148	0xbe713f2a	-0.23559251
149	0xbcbb62f8	-0.02287434
150	0xbe5cf3bf	-0.21577357
151	0xbeb2c9a7	-0.34919474
152	0x3d685c70	0.05672878
153	0xbe3ac135	-0.18237765
154	0xbe97e133	-0.29664
155	0xbe14f6aa	-0.1454722
156	0xbc054252	-0.008133488
157	0xbe8dbbef	-0.27682444
158	0xbe31f584	-0.17378813
159	0xbe65f463	-0.22456507
160	0xbccedecc	-0.025252722
161	0xbe061beb	-0.13096587
162	0xbeaa0362	-0.33205706
163	0xbcb761b2	-0.022385452
164	0xbdde3c0b	-0.10851296
165	0xbe2184dd	-0.1577334
166	0xbda20ebb	-0.07912966
167	0xbdbdd1ec	-0.09268555
168	0xbc72d4d3	-0.014821249
169	0xbe789fc1	-0.24279691
170	0x3c4a88dd	0.012361732
171	0xbbb36b1d	-0.0054754154
172	0xbe283796	-0.16427454
173	0x3e21fee4	0.1581989
174	0x3d9f7445	0.077858485
175	0xbe30489b	-0.17215197
176	0xbd21db0b	-0.039515536
177	0xbe2925f6	-0.16518387
178	0xbd1a2e34	-0.03764172
179	0xbd90d058	-0.070709884
180	0x3c0dda83	0.008658054
181	0xbe3d45cd	-0.18483658
182	0xbb414d00	-0.0029495358
183	0x3da71755	0.08158747
184	0xbda4e3a1	-0.08051229
185	0xbd889c1f	-0.06670403
186	0xbcbc5eef	-0.022994487
187	0x3e3f19a4	0.18662125
188	0x3d0da85b	0.034584384
189	0xbe8e8cb7	-0.27841732
190	0xbdf1e54c	-0.11811313
191	0xbe0e70f6	-0.13910279
192	0xbffe62fe	-1.987396
193	0xbf2a253d	-0.6646307
194	0xbe10abed	-0.14128084
195	0xbfa536a1	-1.2907296
196	0x3ebfbeee	0.37450355
197	0x3fcf4a17	1.6194485
198	0x3f4c6d59	0.7985435
199	0x3e911055	0.28332773
200	0xc00cfb7f	-2.20285
201	0x3f5d98d1	0.86561304
202	0x3fbd2d71	1.4779493
203	0xc03134d8	-2.7688503
204	0xc09dcc56	-4.9311934
205	0x3f0f7dbd	0.56051236
206	0xc104c1ed	-8.297345
207	0x3eed4953	0.46345004
208	0xc02eee70	-2.733303
209	0x3fcf9c3f	1.6219558
210	0xc03b8340	-2.9298859
211	0x3f17be53	0.59274787
212	0x3f804e70	1.0023937
213	0xc04681c0	-3.1016693
214	0xbf9f6703	-1.2453312
215	0x3f4fe9f0	0.81216335
216	0xc0238ea0	-2.5555801
217	0x402e8075	2.7265904
218	0xbb1b33ba	-0.0023681954
219	0xbf02b72f	-0.51060766
220	0x3efedd65	0.49778286
221	0xbf93a3fd	-1.153442
222	0x3f7f4ca9	0.9972635
223	0x3f224c3d	0.6339758
224	0xbf839af5	-1.0281664
225	0x3f5bc117	0.85841507
226	0xbd8d32f4	-0.06894484
227	0xbf695fe1	-0.91161925
228	0xc0948141	-4.640778
229	0x3f46e737	0.77696556
230	0xbf8ba38b	-1.0909284
231	0x3f2a64b9	0.6655994
232	0xc039b400	-2.9016113
233	0x3f428169	0.75978714
234	0x3ec0b15c	0.37635314
235	0x3f4918b6	0.7855333
236	0x3f5bc21e	0.85843074
237	0xc0823f32	-4.0702143
238	0xbf37fba2	-0.71868336
239	0x3fa3373a	1.2751229
240	0xbe662339	-0.22474374
241	0xbefc765a	-0.49309045
242	0xbe44ef01	-0.19231798
243	0xbe753cb9	-0.23948945
244	0xbeeb5a7d	-0.45967475
245	0x3ed0a79a	0.4075287
246	0xbe2d0774	-0.16897374
247	0xbec4a8cf	-0.3841004
248	0x3d9390ef	0.07205378
249	0xbe57d7c1	-0.21078397
250	0x3ec4524f	0.38344046
251	0xbeb21cea	-0.34787685
252	0xbebf4edd	-0.37364855
253	0xbebc3456	-0.3675868
254	0xbea7f781	-0.32806018
255	0xbed124de	-0.4084844

2.bias f4 [24]
0	0x3c03a785	0.008035545
1	0x3dae883a	0.08522077
2	0x3e406137	0.18787085
3	0x3f3403ad	0.7031811
4	0x3eb0bf06	0.3452074
5	0x3f832e27	1.024846
6	0xbeb88829	-0.36041382
7	0xbe4b9225	-0.19879968
8	0xbfdf5097	-1.7446469
9	0xbf86e110	-1.0537434
10	0xbe4237a5	-0.18966539
11	0xbeae9dc9	-0.34104756
12	0xbe2186e8	-0.15774119
13	0xbe290ead	-0.16509505
14	0xbe58ec0c	-0.21183795
15	0x3eeb7829	0.45990112
16	0xbf99e41c	-1.2022738
17	0xbe81e7c8	-0.25372148
18	0xbfccb0ba	-1.5991433
19	0x3efbb88f	0.49164245
20	0xbe50f24d	-0.2040493
21	0x3f7188b4	0.9434922
22	0x3f9b1706	1.2116401
23	0x3f4297ee	0.76013076

4.weight f4 [4, 24]
0	0x3d487fd1	0.04895002
1	0x3b092918	0.0020929035
2	0xbf9e102f	-1.2348689
3	0xbf389e5f	-0.72116655
4	0x3e56b563	0.20967631
5	0xbed03dad	-0.40672055
6	0xbc682290	-0.014168397
7	0xbdc19d81	-0.094538696
8	0x400c44d1	2.1917002
9	0x3f741491	0.9534388
10	0x3efcead8	0.49397922
11	0x3f1e603e	0.61865604
12	0x3dbb3c1b	0.091423236
13	0xbde43a26	-0.111439034
14	0x3e89999f	0.26875016
15	0x3f3dbe88	0.7411885
16	0x3fe21aff	1.7664489
17	0x3edc0725	0.429742
18	0x3fb1f6fd	1.39035
19	0x3e905727	0.28191492
20	0xbde2f934	-0.11082688
21	0xbf842087	-1.0322427
22	0xbd8e0ad9	-0.06935663
23	0xbf69ded8	-0.9135566
24	0x3cef4026	0.029205393
25	0xbc1ffb80	-0.009764552
26	0xbf7848ba	-0.9698597
27	0xbfa75a99	-1.3074523
28	0x3f70a001	0.93994147
29	0x3f657f89	0.8964773
30	0x3e1673fa	0.14692679
31	0xbe28a5a5	-0.16469438
32	0xc027c741	-2.6215365
33	0x3f8d7d50	1.1053867
34	0xbdfbd320	-0.12296128
35	0x3f7ae7f9	0.9801021
36	0x3c7d4d78	0.0154603645
37	0xbdbc0f1a	-0.09182568
38	0x3e5cdf55	0.2156957
39	0x3fc7def3	1.5614914
40	0x407ea5cc	3.9788694
41	0xbfd804ca	-1.6876462
42	0x4081f902	4.0616465
43	0x3f6dc43b	0.9287755
44	0x3d406602	0.046972282
45	0xbf955464	-1.1666379
46	0xbf23d6c1	-0.63999563
47	0xbf9d4d4b	-1.2289213
48	0x3daf29af	0.085528724
49	0x3dc54774	0.09632769
50	0xbfcc8fe0	-1.5981407
51	0xbea92719	-0.33037642
52	0x3ede86b8	0.43462157
53	0x3efb9772	0.4913898
54	0xbe333ea0	-0.17504358
55	0x3d77c77e	0.060492985
56	0xbf1eabab	-0.61980695
57	0x3feb7da4	1.8397717
58	0xbd75b26d	-0.059984613
59	0x3eca9854	0.39569342
60	0xbdb5aca7	-0.088708214
61	0xbe1f476b	-0.15554588
62	0xbef59d9f	-0.47971818
63	0x3fbf4713	1.4943565
64	0x3fd45690	1.6588917
65	0x3e2a849d	0.1665215
66	0x3fffc456	1.9981792
67	0x3ea787e9	0.3272088
68	0xbc8f6fa0	-0.017509282
69	0xbf896515	-1.0733973
70	0xbf12ee03	-0.5739443
71	0xbf6b08b4	-0.91810155
72	0x3b6f32b4	0.0036498727
73	0xbe175463	-0.14778285
74	0x3f16fa4b	0.58975667
75	0xbf89f21f	-1.0777014
76	0xbea5ed33	-0.3240753
77	0xbf465394	-0.7747128
78	0xbe500a38	-0.20316398
79	0x3c6faa41	0.014627994
80	0x403cba2a	2.9488626
81	0x3f998e3b	1.199653
82	0x3e8b3cad	0.2719473
83	0x3f679117	0.90455765
84	0xbe29c286	-0.16578111
85	0x3c867161	0.016411485
86	0x4017c063	2.3711174
87	0xbf9385c6	-1.15252
88	0x3f45ccf6	0.7726587
89	0x3f91a2b5	1.1377779
90	0x40705ad8	3.7555447
91	0xbf1d92e5	-0.6155227
92	0x3d200633	0.039068412
93	0xbf40438b	-0.7510306
94	0xbfb8f2ae	-1.444906
95	0xbf45a6e0	-0.77207756

4.bias f4 [4]
0	0xc003f1a4	-2.0616236
1	0x3e7ac2f6	0.24488434
2	0xc0111fe9	-2.2675726
3	0xbec09c18	-0.3761909
