logs/target_params_A_399_onehot.pt (torch, 6383 bytes, 6 tensors)

0.weight f4 [24, 12]
-2.9093874 0.13419914 -7.290131 -4.852055 -1.3921022 -1.7409601 -0.3025173 1.0169381
1.5217434 2.4533393 -8.26171 2.7656353 -3.2359695 1.1798725 -0.4285781 -0.020926693
2.1259506 -0.91791236 0.3726773 -0.6575997 3.957458 -0.7360018 -0.56658703 -0.9114441
-5.7463455 1.6996022 -1.9761089 0.99793005 -4.303755 -1.8456991 -3.6175873 -0.9570414
1.9115206 -2.5311089 -8.930939 -0.4791071 -2.984926 3.0948143 -0.82669884 -0.49590087
-0.36130768 -0.7187618 2.2724087 -2.6809766 2.0771716 -1.1563697 0.3645806 0.42893702
-1.5544344 0.4764674 0.04685127 -0.11185002 0.26813963 0.70889753 0.5220631 0.2840423
-13.332764 0.0015619498 -0.74089783 0.31264025 0.63519216 -5.0440197 -0.43877167 -0.87874234
-0.11132421 1.0436409 0.8274009 1.0244594 0.22400403 0.45014527 0.3828354 -1.3916205
-2.2728322 -0.19683842 -0.46308336 -0.19037949 1.6203868 -0.5152369 0.05285412 2.5573318
-2.963781 2.0045059 2.7500503 -3.4412112 1.9081764 -1.2418431 0.57993805 -0.33111322
-3.799291 -0.7625884 -0.1300994 2.098284 -0.4608999 -0.0012045208 4.025296 1.2298442
-0.350949 -0.5889261 0.16553906 -0.2574867 1.2645859 0.69950694 1.0691718 1.0292581
7.0157237 -0.39694655 2.4310975 2.1020377 0.7126971 -3.3849833 0.9000464 -1.9803878
-2.4783947 -0.21095195 -2.2225287 -3.8251345 5.4934783 -6.838259 0.84830856 -3.1250284
-0.18420653 -0.29123732 -0.3615237 -0.121544234 -0.2809054 -0.42567736 -0.34831166 -0.24745715
0.1123673 -0.13436338 0.008399427 -0.07594508 -0.56868106 5.0378194 0.08562717 -0.3333495
0.5836287 2.0327003 0.8264972 0.18397716 3.9513595 0.8117529 -1.9404855 -0.06633291
-2.4143455 -2.3580089 0.7691094 0.88120985 -1.6715078 0.3898759 -0.9702686 -0.14599335
3.078448 -3.9071124 0.74727184 -7.744022 2.2281358 2.6868122 -0.54471 0.17507324
-0.3237754 -0.37268266 -1.0277079 -2.9269416 -3.1289399 0.24581134 -0.37040323 1.8139224
-1.221106 -7.235277 1.3322202 -1.2650844 -0.7007031 -3.5266938 -7.6541824 -1.5903015
1.3139875 -2.081571 -3.5765252 -4.6449823 -2.2250013 1.1693289 -0.09045944 0.5942088
-2.7181528 3.660473 -0.57974905 0.7453297 1.7472998 0.17477423 -3.1962173 4.5683246
-0.17554057 2.483558 -1.5440661 1.1358142 -2.997607 -1.1873311 0.5636465 -2.4039614
0.0882601 4.5920095 5.6975894 1.9019854 2.2412107 -1.3035423 -0.4196636 0.10641658
1.0070248 0.79443556 0.6550689 -0.18995626 6.3675675 0.18668285 -4.975717 -0.48720828
-2.0561588 -1.534163 0.044496834 -0.063770644 0.4827482 0.80015826 -0.057505883 -2.059344
1.1614892 -0.47961158 -0.40002292 -3.7988808 -0.7903097 -8.738517 -0.0713146 -2.5936406
-2.2952242 -1.0785172 0.120948665 1.2020007 3.082519 -2.0110044 -12.573914 6.0282927
-3.531964 -7.2576075 -0.2769753 -2.3455205 -1.3999884 -0.69891435 -0.91015005 -0.6534825
4.3834753 -0.26269695 0.13178577 7.067324 1.2041072 -2.7801118 0.31702232 1.0042481
00000000: 6733 3ac0 806b 093e c148 e9c0 0944 9bc0
00000010: 6830 b2bf c8d7 debf 8ce3 9abe 072b 823f
00000020: 7dc8 c23f 8303 1d40 f72f 04c1 2b00 3140
00000030: 201a 4fc0 1006 973f 976e dbbe 756e abbc
00000040: 930f 0840 4efc 6abf 8fcf be3e 7458 28bf
00000050: fe46 7d40 9d6a 3cbf d90b 11bf 6754 69bf
00000060: 10e2 b7c0 918c d93f 23f1 fcbf 5878 7f3f
00000070: 5cb8 89c0 de3f ecbf 8d86 67c0 aa00 75bf
00000080: b5ac f43f b0fd 21c0 20e5 0ec1 874d f5be
00000090: 0709 3fc0 7011 4640 89a2 53bf b8e6 fdbe
000000a0: 52fd b8be c600 38bf 256f 1140 1f95 2bc0
000000b0: 61f0 0440 ec03 94bf 4faa ba3e a29d db3e
000000c0: b5f7 c6bf 89f3 f33e 1ee7 3f3d a011 e5bd
000000d0: 9949 893e 4f7a 353f eda5 053f fe6d 913e
000000e0: 0053 55c1 57ba cc3a 7bab 3dbf 6212 a03e
000000f0: f49b 223f 9c68 a1c0 aea6 e0be 42f5 60bf
00000100: f3fd e3bd 0696 853f 8cd0 533f 7c21 833f
00000110: 5061 653e 7179 e63e 0003 c43e 9f20 b2bf
00000120: 1576 11c0 0390 49be 4319 edbe d7f2 42be
00000130: d668 cf3f 91e6 03bf 907d 583d 53ab 2340
00000140: 97ae 3dc0 d349 0040 d300 3040 ce3c 5cc0
00000150: 203f f43f b7f4 9ebf d276 143f ac87 a9be
00000160: 9527 73c0 fe38 43bf c738 05be 494a 0640
00000170: 12fb ebbe 03e1 9dba 3acf 8040 896b 9d3f
00000180: 96af b3be dcc3 16bf 1283 293e 4cd5 83be
00000190: f3dd a13f e312 333f 9fda 883f bbbe 833f
000001a0: cf80 e040 943c cbbe 1a97 1b40 c987 0640
000001b0: 5173 363f 91a3 58c0 7169 663f 597d fdbf
000001c0: 059e 1ec0 ca03 58be e93d 0ec0 01cf 74c0
000001d0: 93ca af40 05d3 dac0 c02a 593f 7700 48c0
000001e0: a3a0 3cbe 0f1d 95be a219 b9be 2fec f8bd
000001f0: d5d2 8fbe 62f2 d9be e855 b2be 6865 7dbe
00000200: d420 e63d 8e96 09be c09d 093c 1889 9bbd
00000210: 1595 11bf d135 a140 4c5d af3d c9ac aabe
00000220: b168 153f c317 0240 5295 533f 8264 3c3e
00000230: 13e3 7c40 0acf 4f3f d461 f8bf 8cd9 87bd
00000240: a384 1ac0 9ee9 16c0 5be4 443f f896 613f
00000250: f8f3 d5bf d09d c73e 8663 78bf 487f 15be
00000260: 4b05 4540 210e 7ac0 354d 3f3f 07cf f7c0
00000270: c799 0e40 bbf4 2b40 1d72 0bbf 6646 333e
00000280: e4c5 a5be 43d0 bebe ef8b 83bf 0353 3bc0
00000290: 8d40 48c0 f8b5 7b3e 7ea5 bdbe 9c2e e83f
000002a0: 344d 9cbf 6487 e7c0 3186 aa3f 49ee a1bf
000002b0: 4761 33bf 5ab5 61c0 10ef f4c0 008f cbbf
000002c0: be30 a83f 7638 05c0 cae5 64c0 b2a3 94c0
000002d0: 6c66 0ec0 92ac 953f cd42 b9bd 111e 183f
000002e0: 37f6 2dc0 3145 6a40 6f6a 14bf edcd 3e3f
000002f0: 85a7 df3f 04f8 323e d38e 4cc0 b72f 9240
00000300: e8c0 33be 9df2 1e40 f5a3 c5bf 5c62 913f
00000310: cbd8 3fc0 77fa 97bf 234b 103f 81da 19c0
00000320: b6c1 b43d bef1 9240 a752 b640 4274 f33f
00000330: ff6f 0f40 79da a6bf 26de d6be f0f0 d93d
00000340: 30e6 803f 2160 4b3f 98b2 273f e583 42be
00000350: 1dc3 cb40 ca29 3f3e 1339 9fc0 5d73 f9be
00000360: 1b98 03c0 745f c4bf 5042 363d 2f9a 82bd
00000370: c62a f73e 2cd7 4c3f 4a8b 6bbd 4bcc 03c0
00000380: aeab 943f a68f f5be cecf ccbe dd20 73c0
00000390: bd51 4abf f7d0 0bc1 640d 92bd 35fe 25c0
000003a0: f4e4 12c0 da0c 8abf efb3 f73d 29db 993f
000003b0: fe47 4540 4cb4 00c0 c02e 49c1 c6e7 c040
000003c0: b30b 62c0 523e e8c0 b5cf 8dbe 021d 16c0
000003d0: d232 b3bf 0dec 32bf 98ff 68bf a14a 27bf
000003e0: 6e45 8c40 3780 86be d9f2 063e 8527 e240
000003f0: 2f20 9a3f 5aed 31c0 c050 a23e 348b 803f

0.bias f4 [24]
1.1572517 3.3028572 0.3399448 1.6367723 9.689612 4.9902716 2.740298 0.18910302
-0.9302437 1.133929 -0.49118492 -1.0700864 6.905605 2.7452397 1.749951 2.7556899
2.8335886 -3.1862605 7.060264 0.7871393 2.380146 0.4554784 1.1013814 0.6552003
00000000: d320 943f 0362 5340 3f0d ae3e c181 d13f
00000010: a708 1b41 4eb0 9f40 0b61 2f40 39a4 413e
00000020: 7324 6ebf 9624 913f 977c fbbe 97f8 88bf
00000030: b7fa dc40 02b2 2f40 65fe df3f 395d 3040
00000040: 8459 3540 b1eb 4bc0 afed e140 f681 493f
00000050: 5054 1840 7734 e93e 11fa 8c3f 35bb 273f

2.weight f4 [24, 24]
-0.0024593023 -0.08893002 0.08795902 -0.2560436 -0.027058475 -0.010034561 -0.06867609 0.071833834
-0.1353695 -0.07499128 0.02428013 -0.17207353 -0.3002004 -0.091140315 -0.24895275 -0.3113267
-0.049989443 -0.1622068 -0.03910868 -0.031091187 -0.03208482 0.02616116 -0.16833855 -0.10216993
6.226546 -1.6819564 3.5636938 -2.8048077 -1.413432 -2.7126095 -1.6589677 -7.497602
1.986535 1.5780543 -0.12708287 0.51675344 -0.07204719 -4.9921308 6.510345 -10.08268
0.2414661 -0.7132498 0.37677863 3.0070808 -3.0813832 -4.308408 -5.7857018 -14.0971155
-0.014983906 -0.05138002 0.14969382 -0.13090672 0.026624274 -0.17893285 -0.21713562 -0.21071385
-0.21814121 0.075849086 0.12765655 -0.20223446 -0.031369906 -0.1961132 -0.0029874342 -0.28509396
0.077314675 -0.14992261 0.115394264 -0.037826285 0.047161054 0.04521535 -0.04952554 0.045793857
-5.0154004 -6.572527 -1.9421353 0.49592015 -10.152862 0.13373367 -1.1242366 -0.24013554
-0.1651287 4.436725 -0.14064132 0.39069957 1.4894367 2.1031709 2.6768367 -2.4467125
-9.895399 2.377448 -4.7064257 -2.5238853 7.9795003 -0.4970782 -11.118607 -2.3823636
5.6209764 -1.4693824 1.66823 -1.2557176 -0.30297467 0.47557318 -0.577368 -10.34262
1.5979584 2.646622 -0.11120794 -2.8431396 3.920484 -7.2504983 -0.049063314 -8.291716
2.3920395 3.1952353 2.9369872 3.243752 -4.1143737 -3.4000936 -5.862207 -6.225224
-0.29191914 -0.20487009 -0.053878374 -0.08101035 -0.08572063 -0.13603872 -0.23633228 0.027329575
-0.3259507 0.039284255 0.11480954 0.065149136 -0.27712277 -0.095899865 0.0666321 -0.20348227
-0.06319878 -0.15576735 0.08271719 0.020041808 0.056721717 -0.17900041 -0.2217762 -0.53434914
-5.0564175 -1.5905201 -1.5068139 -0.2538988 -3.009496 -2.6155553 -3.4297783 -8.932508
-1.3506551 6.2995477 -0.06451973 0.4025055 2.2110596 -7.2556224 6.14427 0.7067378
-9.405089 -1.3556441 -0.66764724 2.9794242 4.860729 3.003574 -9.642348 -6.1325755
-5.7762084 -8.690861 -2.904281 0.00067577953 -3.7101426 -1.0350436 -4.3505573 -3.9626167
-1.2645887 -0.15306492 -0.20874977 0.5129682 0.3607741 -5.4997826 -2.3672729 0.15190125
-8.105062 -1.4582217 -3.5684385 1.9731113 2.8957036 1.291968 -7.474879 -2.5610485
-0.16022655 -0.2826591 -0.06314044 -0.28437632 -0.17139979 -0.069190405 -0.016030092 -0.034527574
-0.31832808 -0.108922526 -0.03154254 -0.15841368 -0.40283427 -0.15458445 -0.049674317 -0.047626015
-0.059330966 -0.40978163 -0.3622317 -0.14790417 -0.21340325 0.0020721399 0.019002168 -0.30356932
-5.703284 -6.924058 -3.2880175 0.74087137 -4.2158093 -0.85636234 -4.786558 -3.046034
-1.5196966 0.72230464 -0.16935506 -1.1313536 1.2426748 -4.922441 -1.9476031 -0.3898295
-9.994133 -1.7994975 -1.902196 1.6530459 2.5185242 1.50297 -8.612298 -3.0210156
4.907054 0.010547867 1.2706769 -2.8026528 3.0678842 -0.6028619 -4.484324 -2.8691633
0.425038 -0.2862842 0.10852417 -3.0201526 4.413082 -5.1760573 -4.4862046 -3.8466308
00000000: 3f2c 21bb f120 b6bd dc23 b43d 2618 83be
00000010: bca9 ddbc 0068 24bc 0da6 8cbd 9e1d 933d
00000020: 4d9e 0abe 0795 99bd 20e7 c63c 0b34 30be
00000030: deb3 99be c6a7 babd 78ed 7ebe 3766 9fbe
00000040: bbc1 4cbd 8a19 26be 6c30 20bd f2b2 febc
00000050: 5f6b 03bd ee4f d63c f160 2cbe 783e d1bd
00000060: dd3f c740 594a d7bf 8f13 6440 f881 33c0
00000070: 57eb b4bf 659b 2dc0 0e59 d4bf 5bec efc0
00000080: c746 fe3f affd c93f 0322 02be f449 043f
00000090: 7a8d 93bd 89bf 9fc0 bf54 d040 a852 21c1
000000a0: e442 773e 8a97 36bf 21e9 c03e 0374 4040
000000b0: 6235 45c0 7ade 89c0 7824 b9c0 c98d 61c1
000000c0: 0f7f 75bc db73 52bd 5649 193e 690c 06be
000000d0: 261b da3c 2c3a 37be cd58 5ebe 5fc5 57be
000000e0: 6960 5fbe c456 9b3d 66b8 023e 8d16 4fbe
000000f0: bb7d 00bd e6d1 48be d4c8 43bb d6f7 91be
00000100: 2857 9e3d 5085 19be d453 ec3d bcef 1abd
00000110: f32b 413d bb33 393d 4bdb 4abd 5792 3b3d
00000120: 297e a0c0 2452 d2c0 e497 f8bf 3fe9 fd3e
00000130: 1f72 22c1 7bf1 083e fce6 8fbf 17e6 75be
00000140: 7f17 29be a7f9 8d40 4704 10be c609 c83e
00000150: dda5 be3f 5a9a 0640 4b51 2b40 f096 1cc0
00000160: 8e53 1ec1 1c28 1840 0a9b 96c0 5687 21c0
00000170: 1158 ff40 0981 febe d0e5 31c1 a578 18c0
00000180: 0adf b340 b914 bcbf 9088 d53f 5bbb a0bf
00000190: 7f1f 9bbe 547e f33e 64ce 13bf 5f7b 25c1
000001a0: e789 cc3f 4162 2940 fdc0 e3bd 00f6 35c0
000001b0: 36e9 7a40 1504 e8c0 9df6 48bd deaa 04c1
000001c0: 2d17 1940 bc7e 4c40 99f7 3b40 a299 4f40
000001d0: f3a8 83c0 229b 59c0 3397 bbc0 0935 c7c0
000001e0: 6d76 95be 77c9 51be 92af 5cbd c1e8 a5bd
000001f0: 4c8e afbd bc4d 0bbe 1701 72be 46e2 df3c
00000200: 03e3 a6be 87e8 203d 4421 eb3d e96c 853d
00000210: 09e3 8dbe 2667 c4bd 6976 883d a85d 50be
00000220: 5d6e 81bd 7a81 1fbe a167 a93d b82e a43c
00000230: 0855 683d e24b 37be 4d19 63be 1bcb 08bf
00000240: 2cce a1c0 2a96 cbbf 47df c0bf 06ff 81be
00000250: 959b 40c0 4265 27c0 7d81 5bc0 8eeb 0ec1
00000260: 44e2 acbf e595 c940 ec22 84bd 3315 ce3e
00000270: 0082 0d40 0f2e e8c0 dc9d c440 c5ec 343f
00000280: 3f7b 16c1 bf85 adbf eeea 2abf e3ae 3e40
00000290: 188b 9b40 8e3a 4040 0f47 1ac1 0f3e c4c0
000002a0: b3d6 b8c0 c40d 0bc1 bddf 39c0 cc26 313a
000002b0: fa72 6dc0 4f7c 84bf c437 8bc0 839b 7dc0
000002c0: 0bde a1bf 0dbd 1cbe 80c2 55be e251 033f
000002d0: 62b7 b83e 38fe afc0 6681 17c0 008c 1b3e
000002e0: 55ae 01c1 02a7 babf 4c61 64c0 e98e fc3f
000002f0: 3553 3940 355f a53f 3532 efc0 38e8 23c0
00000300: 6e12 24be b2b8 90be c64f 81bd c699 91be
00000310: 6d83 2fbe b3b3 8dbd 8a51 83bc c96c 0dbd
00000320: e6fb a2be c612 dfbd c032 01bd 3237 22be
00000330: 4b40 cebe 634b 1ebe 4c77 4bbd 7f13 43bd
00000340: 0705 73bd e6ce d1be 6f76 b9be 3174 17be
00000350: 6286 5abe bdcc 073b 6faa 9b3c 706d 9bbe
00000360: 4d81 b6c0 e291 ddc0 e16e 52c0 bfa9 3d3f
00000370: e9e7 86c0 903a 5bbf 7c2b 99c0 39f2 42c0
00000380: 6b85 c2bf f5e8 383f 6a6b 2dbe 32d0 90bf
00000390: f80f 9f3f a384 9dc0 0f4b f9bf bb97 c7be
000003a0: f8e7 1fc1 ef55 e6bf 297b f3bf 0297 d33f
000003b0: 802f 2140 5261 c03f f9cb 09c1 5258 41c0
000003c0: 9606 9d40 f6d0 2c3c 8aa5 a23f aa5e 33c0
000003d0: 3758 4440 2855 1abf 957f 8fc0 5fa0 37c0
000003e0: 959e d93e d893 92be ec41 de3d 2e4a 41c0
000003f0: f837 8d40 43a2 a5c0 fd8e 8fc0 332f 76c0

2.bias f4 [24]
-0.018549325 0.059249386 -0.07987927 -7.1685586 0.9740883 -0.20335032 -0.8358443 -3.155592
-0.25293538 -3.0172815 0.31372833 -0.30037516 -0.00017930788 -3.5607677 -1.9246907 -0.45172828
4.880888 5.074725 -0.20271666 -3.1963913 -0.63491267 2.818384 -4.013771 -3.8318853
00000000: c1f4 97bc 7caf 723d be97 a3bd d564 e5c0
00000010: da5d 793f 113b 50be e4f9 55bf 38f5 49c0
00000020: bf80 81be 241b 41c0 00a1 a03e c6ca 99be
00000030: 9804 3cb9 9ee3 63c0 445c f6bf ee48 e7be
00000040: 3c30 9c40 2664 a240 f594 4fbe ad91 4cc0
00000050: a389 22bf 6760 3440 d070 80c0 9c3d 75c0

4.weight f4 [4, 24]
-0.061929736 7.295055 0.15065598 3.076292 0.6920895 0.0021377206 -4.64219 1.5400422
-0.22783084 3.9013526 4.9566827 -2.7338684 0.100877695 1.7003696 6.864341 5.227753
1.1696843 7.729453 -0.047592197 1.73705 -4.5440464 -6.262958 -1.7152569 6.466015
-0.09851427 7.953519 0.009390053 2.5071895 4.540916 -0.02304865 7.910997 7.241036
-0.22171232 6.391103 -2.5290446 6.9415913 6.011703 2.3170936 13.275391 4.2820086
-1.9432502 1.3137454 0.12739854 10.086251 0.8564951 -1.6752995 4.445584 -4.5997057
0.058640316 -6.1609163 0.014055432 -2.8327951 1.3609622 -0.05959416 -4.7001863 0.90126795
0.21349609 -0.19875823 5.4525514 3.5290785 -0.46561933 0.61462563 3.524756 4.112652
4.5661125 2.399123 -0.038227037 5.900307 5.611997 -3.2889197 4.2143245 6.4305415
-0.059678156 5.718312 -0.044150192 -9.146683 5.0649714 0.08599597 -14.720799 -4.1453037
0.118692756 -6.961912 7.3702765 12.81073 2.0106704 3.3879702 4.1126614 6.585176
1.7137372 0.7275586 -0.032825503 -5.133409 2.9937086 -6.3739305 3.73075 8.111459
00000000: 09aa 7dbd 1771 e940 9045 1a3e f8e1 4440
00000010: c72c 313f 0019 0c3b d28c 94c0 1a20 c53f
00000020: 7d4c 69be c3af 7940 259d 9e40 b3f7 2ec0
00000030: f798 ce3d b6a5 d93f aea8 db40 c149 a740
00000040: 37b8 953f ae57 f740 09f0 42bd a857 de3f
00000050: d468 91c0 276a c8c0 8a8d dbbf 98e9 ce40
00000060: d9c1 c9bd 3a83 fe40 bdd8 193c cb75 2040
00000070: 2f4f 9140 86d0 bcbc e326 fd40 91b6 e740
00000080: 8e08 63be ea83 cc40 dedb 21c0 8421 de40
00000090: df5f c040 434b 1440 0068 5441 3706 8940
000000a0: 6cbc f8bf cf28 a83f c374 023e 4961 2141
000000b0: 4343 5b3f 3770 d6bf 3942 8e40 ca30 93c0
000000c0: d430 703d 3a26 c5c0 c148 663c 844c 35c0
000000d0: 0234 ae3f 0219 74bd ed67 96c0 7fb9 663f
000000e0: b89e 5a3e 4787 4bbe 4d7b ae40 6cdc 6140
000000f0: a865 eebe 1b58 1d3f 9a95 6140 d89a 8340
00000100: 981d 9240 3b8b 1940 f493 1cbd 51cf bc40
00000110: 7b95 b340 a97d 52c0 bfdb 8640 ffc6 cd40
00000120: 1571 74bd 69fc b640 d5d6 34bd d058 12c1
00000130: 3f14 a240 a81e b03d 6588 6bc1 54a6 84c0
00000140: 3015 f33d fcc7 dec0 4ed9 eb40 c0f8 4c41
00000150: d3ae 0040 81d4 5840 ec9a 8340 c3b9 d240
00000160: be5b db3f 4841 3a3f 0974 06bd e344 a4c0
00000170: ec98 3f40 3df7 cbc0 9cc4 6e40 89c8 0141

4.bias f4 [4]
3.4621277 4.722923 4.6231446 -0.7590034
00000000: 8093 5d40 2f22 9740 cdf0 9340 0c4e 42bf
