logs/target_params_A_50_onehot.pt (torch, 6375 bytes, 6 tensors)

0.weight f4 [24, 12]
00000000: 2309 e1c0 cb84 763e 00e9 85c0 1609 983f
00000010: e022 23c0 7c45 4dbf c19d 50bf ee13 8f3f
00000020: dd28 f03e dbfb ba3f 7b89 f8c0 3571 8140
00000030: bd3f 2bc0 f364 1040 9def b03f 4077 15c0
00000040: 9f41 4e3f bcf1 99bf 17ca c73f 161c dcbf
00000050: 6c0a 983f 5e31 c53e a31f d9bf ff17 ca3f
00000060: a76a aec0 81b2 f43f 83e8 7dbf 0885 803f
00000070: f84d 47c0 8132 00bf 0727 76c0 509e 6dbe
00000080: 0bef 0140 2924 f6bf 8f5c fbc0 4693 d13e
00000090: 252a ccbf d36d 2640 4dec 0ebe 9bcb e73f
000000a0: a13e f1be 3828 c43e d7e2 a63e 076e 9cbf
000000b0: 941c ce3f 3633 30c0 d285 db3e bf7c 4b40
000000c0: af1c 04c0 d3a1 09c0 b67a 1e3d 3d0e 5dbd
000000d0: 1c0c 253e 89bc 363f f234 f13e 0c60 4a3e
000000e0: f122 29c1 9eab b9be 57f6 97be c66c 7a3f
000000f0: f231 ed3f eb44 b5c0 f2e2 973e 92c1 333e
00000100: f9b7 a63d dc67 713f e940 00bd 8a18 c43e
00000110: f8f4 003f bd3a febd d249 de3f ac31 8d3f
00000120: 8c7e f5bf 1a56 bb3e 4a8d fabe c0e0 d4be
00000130: 11a3 b53f cf72 d6be 9f21 443f de1b f33f
00000140: 1e7f 85c0 6bfd 8140 11f2 8b40 5744 47bf
00000150: 145a 2740 d5a3 55c0 1c00 a2bf 12ef 1140
00000160: 770e abbf ef5b 4c3e 9dff 8dbf 52f0 2e3d
00000170: d68d 6dbf 409e 0440 7e7e 7dbe 2658 20c0
00000180: 8770 5a3f f7be 38bf 685d e5be 1e80 b33f
00000190: 9ff8 6b3f 2e75 c43f 8274 473f 85d2 153f
000001a0: e01e 8640 066b b8bf 81c9 0d40 8b53 083f
000001b0: 1614 5c3f 0c08 e23e 2fe6 923e 6bb3 a93f
000001c0: 8c9c 97bf c1cd 38bf ca83 bcbe 7aae e1bf
000001d0: 7058 3b40 a0f8 23c0 f626 1b40 dfc5 c7bf
000001e0: a3a0 3cbe 0f1d 95be a219 b9be 2fec f8bd
000001f0: d5d2 8fbe 62f2 d9be e855 b2be 6865 7dbe
00000200: d420 e63d 8e96 09be c09d 093c 1889 9bbd
00000210: 76b6 87be 7a86 5640 4902 bcbe 44f5 063f
00000220: 38be 43bf 750b f03f 05f1 333f e810 9dbb
00000230: 51e4 8140 773c 96bf c7ba 0ec0 94b3 35bf
00000240: 3c24 64bf 224b 153f 86d7 fd3e 12b5 0540
00000250: 7bd6 33bf 9705 333f 518a bebf 1ea7 e1bf
00000260: 2cab 3640 46b7 94c0 721f 8b3f c2c8 a8c0
00000270: 078e db3f 4d67 0440 f776 a13f 936c 703e
00000280: 3e65 01bf 2b3b 913e b900 c6bf f329 5bbf
00000290: 80ad 6ec0 96db 9f3f 8d1c 8a3e 7222 9840
000002a0: cbc9 58bf 4802 25c0 828d 923f f20c 6b3f
000002b0: b732 0ac0 875e babf eceb 9ec0 f98a 2f3f
000002c0: 3bd8 a440 7ce8 5dbf c727 51c0 15a4 2fc0
000002d0: 4e3d b83c 878c 723e 7b8d 003f 68cd da3f
000002e0: 356b f0bf aec4 d23f 9c0e 573c 7b22 e73e
000002f0: 2e6c a6be 5589 98c0 0acf c0bf 3654 6fbf
00000300: 1f9c 25bf 4a91 823e 808b 2cc0 b2ce 6940
00000310: 797b 80bf ad6d 38be a043 b03d df58 fabf
00000320: a400 f5bd d7f7 8040 39a9 c63f ff98 853f
00000330: d010 2040 8996 843f 2304 983e 7c75 cbbe
00000340: 4657 08bf ad16 9cbe 00b7 a4bb c993 33bc
00000350: c775 c240 9b1d f6be 74b0 0bc0 d087 0cbe
00000360: 484c 80be 904d d1bf c174 b83f 5b48 903f
00000370: 770e d13f 4964 bfbf 30a7 63bf 0beb e9bf
00000380: 8a7a fd3f 105a 73c0 7aa6 8abe 035b 8bc0
00000390: 6fc2 89bf b808 b3c0 ecf7 30bf db97 7c3e
000003a0: e15e b3bf c889 f7bf 7279 d43f 0482 b23f
000003b0: 235e a73f 1aa7 44c0 897a 08c1 ddd3 4140
000003c0: 2afb 99bf cca9 06c0 17e6 c93e 5b07 d63e
000003d0: d10d 09c0 ec10 cebf 4630 5f3f a859 893e
000003e0: e5b7 5540 be62 58bf 054a 7f3f d092 b9bf
000003f0: f36e 313f 2069 e83e 5238 1cbf 24af 8d3f
-7.0323653 0.24074094 -4.1846924 1.1877773 -2.5490036 -0.8018415 -0.81490713 1.1177957
0.46906176 1.460811 -7.7667823 4.045069 -2.6757653 2.2561615 1.3823124 -2.3354034
0.8056888 -1.2026896 1.5608548 -1.7196071 1.187818 0.38514227 -1.696278 1.5788573
-5.450519 1.9116975 -0.9918291 1.0040598 -3.1141338 -0.5007706 -3.846132 -0.23204923
2.030215 -1.9229785 -7.8550487 0.40932673 -1.5950361 2.6004531 -0.13957329 1.810901
-0.47118095 0.38311934 0.3259494 -1.2221078 1.6102471 -2.7531257 0.42875534 3.179489
-2.0642507 -2.150502 0.038691245 -0.053968657 0.161179 0.7138143 0.47110707 0.19763201
-10.571031 -0.36263746 -0.2968013 0.97822225 1.8530867 -5.664663 0.29665333 0.1755431
0.08140559 0.942991 -0.031311903 0.38299972 0.5037379 -0.12413547 1.7366278 1.1030784
-1.9179244 0.36589128 -0.4893592 -0.4157772 1.4190389 -0.41884467 0.766138 1.8992879
-4.171767 4.062185 4.373299 -0.77838653 2.614873 -3.3381245 -1.2656283 2.2802167
-1.3363789 0.19956945 -1.1093632 0.042709656 -0.9279455 2.0721588 -0.24755284 -2.5053802
0.85327953 -0.7216639 -0.44797826 1.4023473 0.9217624 1.534826 0.7791215 0.5852435
4.191269 -1.4407661 2.2154238 0.53252476 0.8596815 0.44146764 0.2869124 1.3257879
-1.1844649 -0.72188956 -0.36819297 -1.7631371 2.9272728 -2.5620499 2.424253 -1.560726
-0.18420653 -0.29123732 -0.3615237 -0.121544234 -0.2809054 -0.42567736 -0.34831166 -0.24745715
0.1123673 -0.13436338 0.008399427 -0.07594508 -0.26506394 3.3519578 -0.36720493 0.52717996
-0.76462126 1.8753496 0.7028964 -0.004793275 4.0591207 -1.1737202 -2.23015 -0.7097714
-0.8911779 0.5831777 0.49578494 2.0891767 -0.70249146 0.69930404 -1.4885961 -1.7629125
2.8541975 -4.6473722 1.0868971 -5.2745066 1.7152718 2.068805 1.261443 0.23478918
-0.5054511 0.28365454 -1.546897 -0.85610884 -3.7293396 1.2488887 0.26974908 4.7542048
-0.8468291 -2.5782642 1.1449435 0.9181663 -2.1593454 -1.4560097 -4.966299 0.6857143
5.1513953 -0.8668287 -3.2680528 -2.7443898 0.02249017 0.2368642 0.5021588 1.7093935
-1.8782717 1.6466272 0.013126042 0.45143494 -0.3250441 -4.766764 -1.5063183 -0.9348787
-0.64691347 0.25501472 -2.6960144 3.6532407 -1.0037681 -0.18010588 0.086066484 -1.9558371
-0.11963013 4.030254 1.5520393 1.0437316 2.5010262 1.035844 0.29690656 -0.3973807
-0.5325817 -0.3048605 -0.005026698 -0.010960528 6.076877 -0.48069462 -2.1826448 -0.13723683
-0.25058198 -1.6351795 1.441063 1.1272081 1.6332539 -1.495248 -0.8892698 -1.8274854
1.9803021 -3.802372 -0.27080137 -4.35486 -1.0762461 -5.5948143 -0.691283 0.24667303
-1.401333 -1.9338923 1.6599562 1.3945928 1.3075603 -3.072699 -8.529916 3.028556
-1.2029774 -2.1041136 0.39433357 0.41802487 -2.1414683 -1.6098914 0.87183034 0.26826215
3.339349 -0.8452567 0.9972232 -1.4497929 0.6930992 0.45392704 -0.6102344 1.1069074

0.bias f4 [24]
00000000: 2efd 943f 2c1b 823f abc2 893f d0ea 30bf
00000010: 9da6 0441 338c 5d40 0722 113f 5ab4 c03f
00000020: 038c cfbf 57be 90be 977c fbbe 5d29 24c0
00000030: 8eb8 713f 0aa7 9f3f 6e5f e93d ff50 0440
00000040: b624 df3f 55d1 32c0 7493 6440 7ddd 9a3e
00000050: 7e81 bb3f 4864 ba3e b206 183f 932b 823e
1.1639764 1.0164542 1.0762533 -0.69108295 8.290677 3.461682 0.56692547 1.5055039
-1.6214603 -0.28270218 -0.49118492 -2.5650246 0.94422233 1.2472851 0.11395155 2.0674436
1.7433078 -2.7940266 3.5714998 0.30247107 1.4648893 0.36404634 0.59385216 0.2542387

2.weight f4 [24, 24]
00000000: 3f2c 21bb f120 b6bd dc23 b43d 2618 83be
00000010: bca9 ddbc 0068 24bc 0da6 8cbd 9e1d 933d
00000020: 4d9e 0abe 0795 99bd 20e7 c63c 0b34 30be
00000030: deb3 99be c6a7 babd 78ed 7ebe 3766 9fbe
00000040: bbc1 4cbd 8a19 26be 6c30 20bd f2b2 febc
00000050: 5f6b 03bd ee4f d63c f160 2cbe 783e d1bd
00000060: b3f6 b840 6cba 18c0 2ad2 6b40 b958 99bf
00000070: 7d9a 6940 01b9 bbbf 0f67 48c0 5567 0ac1
00000080: 6930 a23f ce7d 353f 0322 02be e9e9 07bf
00000090: 7c3e 503f a920 2bc1 b769 c940 df81 81c0
000000a0: 199a a63f 682b c93f 5810 2440 f39d fe3f
000000b0: 0030 6bbe 0a1d 4abf 5ab3 b6c0 9ad7 adc0
000000c0: 0f7f 75bc db73 52bd 5649 193e 690c 06be
000000d0: 261b da3c 2c3a 37be cd58 5ebe 5fc5 57be
000000e0: 6960 5fbe c456 9b3d 66b8 023e 8d16 4fbe
000000f0: bb7d 00bd e6d1 48be d4c8 43bb d6f7 91be
00000100: 2857 9e3d 5085 19be d453 ec3d bcef 1abd
00000110: f32b 413d bb33 393d 4bdb 4abd 5792 3b3d
00000120: c168 6cc0 c66a 79c0 8106 56c0 c82d dbbf
00000130: 0b0e d8c0 08fb 38be dabb 86c0 bdb3 43c0
00000140: 8363 ed3e 0880 37bd 4704 10be aec2 b13f
00000150: d0fe 3140 96bf 67c0 0a60 5a40 d457 4bbf
00000160: 68b3 05c1 e091 1340 4594 94bf 7f0e ec3f
00000170: 25d2 8340 cb7b 6c3f a462 c1c0 6a5d 2cbf
00000180: ab9c c040 fbe4 01c0 07ce e23f d3bf 90bf
00000190: 7d22 c13f 6c70 d2be 9bf1 75c0 d5fb 27c1
000001a0: ad92 433f ca0d 8e3f fdc0 e3bd 6213 a8bf
000001b0: e8d9 383f caac 0cc1 6cdf 5240 2aa2 80c0
000001c0: 6d4f df3f 96ee d43f 3119 3c40 896e 4f40
000001d0: ffea 32bf f345 92bf 22df b9c0 4621 b0c0
000001e0: 6d76 95be 77c9 51be 92af 5cbd c1e8 a5bd
000001f0: 920a f43d ed7f 17bd 5816 a3bc c85b 8cbc
00000200: 0d52 50be 87e8 203d 4421 eb3d e96c 853d
00000210: 09e3 8dbe 2667 c4bd 6976 883d 255a 52be
00000220: 5d6e 81bd 7a81 1fbe a167 a93d b2e2 d73d
00000230: 751f a13d e24b 37be 4d19 63be 7262 76be
00000240: ab68 6fc0 0b79 b4c0 b96a 45c0 feda c8bc
00000250: aa68 b4bf fecd 68bf 4e3f 03c0 6691 9ec0
00000260: c25e 96be 31d0 173f ec22 84bd 37e4 153f
00000270: 255b cd3f 16b5 c0c0 995e 6c40 6a95 6b3f
00000280: c50c 0dc1 b46a 2ebf f8ea 7fbf f89e 0d40
00000290: 82cc 8540 ec3f 803f 493e 15c1 5929 39c0
000002a0: fa1e 78c0 0b58 c4c0 bddf 39c0 511c 843f
000002b0: 7494 58c0 741c 083d 1972 62c0 d19b 22c0
000002c0: 8a7a 2bbf 9ba6 613f 80c2 55be c1e6 353f
000002d0: 3b56 f13f 837d a4c0 3b4a 11c0 2f34 c53e
000002e0: de98 eac0 a77a 88bf ae3a 2fc0 d6bd 1640
000002f0: dcbd 6c40 3642 c93f 497e 05c1 ff57 e7bf
00000300: 6e12 24be b2b8 90be c64f 81bd c699 91be
00000310: 6d83 2fbe b3b3 8dbd 8a51 83bc c96c 0dbd
00000320: e6fb a2be c612 dfbd c032 01bd 3237 22be
00000330: 4b40 cebe 634b 1ebe 4c77 4bbd 7f13 43bd
00000340: 0705 73bd e6ce d1be 6f76 b9be 3174 17be
00000350: 6286 5abe bdcc 073b 6faa 9b3c 706d 9bbe
00000360: 2591 64c0 6da9 d7c0 e16e 52c0 c53d 353f
00000370: 95b5 6fc0 1247 133e 799c 89c0 b5d6 ccbf
00000380: a232 0ebf 691d b43f 6a6b 2dbe 6edc b03e
00000390: 7ccb 0240 b246 aac0 8d36 adbf 66b8 273f
000003a0: b4e3 00c1 4629 9bbf f347 08c0 1165 1a40
000003b0: c2a3 6c40 99e8 bf3f 66f3 03c1 7d10 05c0
000003c0: 2d98 d140 03b5 cfbf 46a0 b63f c08a 4abf
000003d0: cb54 1340 f05d e5bc 6110 85c0 8446 2bc1
000003e0: 02ad e43e a445 a53f ec41 de3d 0283 b0bf
000003f0: 9609 7d3f 4c99 0ac1 60b8 3840 808d 45c0
-0.0024593023 -0.08893002 0.08795902 -0.2560436 -0.027058475 -0.010034561 -0.06867609 0.071833834
-0.1353695 -0.07499128 0.02428013 -0.17207353 -0.3002004 -0.091140315 -0.24895275 -0.3113267
-0.049989443 -0.1622068 -0.03910868 -0.031091187 -0.03208482 0.02616116 -0.16833855 -0.10216993
5.7801147 -2.3863783 3.6847024 -1.1980201 3.6500542 -1.4665834 -3.1312902 -8.650228
1.2671024 0.7089509 -0.12708287 -0.53091294 0.81345344 -10.695474 6.2941546 -4.0471034
1.3015777 1.5716372 2.5634975 1.9891952 -0.2296753 -0.7895056 -5.7093935 -5.4325686
-0.014983906 -0.05138002 0.14969382 -0.13090672 0.026624274 -0.17893285 -0.21713562 -0.21071385
-0.21814121 0.075849086 0.12765655 -0.20223446 -0.031369906 -0.1961132 -0.0029874342 -0.28509396
0.077314675 -0.14992261 0.115394264 -0.037826285 0.047161054 0.04521535 -0.04952554 0.045793857
-3.6938937 -3.897142 -3.344147 -1.7123346 -6.751714 -0.18064511 -4.210431 -3.0578454
0.46364984 -0.044799834 -0.14064132 1.3887537 2.7811775 -3.6210685 3.4121118 -0.7943089
-8.3563 2.3057785 -1.1607748 1.8441924 4.1194024 0.92376393 -6.043291 -0.6733004
6.0191245 -2.0296009 1.7719125 -1.130854 1.508865 -0.41101396 -3.8428714 -10.498982
0.76395684 1.1097958 -0.11120794 -1.3130915 0.722075 -8.792185 3.2948866 -4.0197954
1.7446114 1.6635311 2.9390376 3.2411215 -0.69889826 -1.1427597 -5.808488 -5.5040617
-0.29191914 -0.20487009 -0.053878374 -0.08101035 0.119160786 -0.036987234 -0.019908115 -0.017133608
-0.203438 0.039284255 0.11480954 0.065149136 -0.27712277 -0.095899865 0.0666321 -0.205422
-0.06319878 -0.15576735 0.08271719 0.105412856 0.07867328 -0.17900041 -0.2217762 -0.24060991
-3.7407634 -5.6397758 -3.0846388 -0.024518486 -1.4094441 -0.9093932 -2.0507388 -4.955249
-0.2936917 0.5930205 -0.06451973 0.58551353 1.604344 -6.022105 3.6932738 0.9202486
-8.815618 -0.68131566 -0.9996791 2.2128277 4.1812143 1.0019507 -9.327706 -2.8931487
-3.8768907 -6.1357474 -2.904281 1.0321141 -3.3840609 0.03323026 -3.538214 -2.5407603
-0.66983855 0.88144845 -0.20874977 0.7105523 1.885444 -5.1403213 -2.2701557 0.38516375
-7.3311605 -1.066243 -2.7379565 2.3553367 3.699088 1.5723331 -8.343331 -1.8073729
-0.16022655 -0.2826591 -0.06314044 -0.28437632 -0.17139979 -0.069190405 -0.016030092 -0.034527574
-0.31832808 -0.108922526 -0.03154254 -0.15841368 -0.40283427 -0.15458445 -0.049674317 -0.047626015
-0.059330966 -0.40978163 -0.3622317 -0.14790417 -0.21340325 0.0020721399 0.019002168 -0.30356932
-3.571359 -6.739432 -3.2880175 0.7079738 -3.745458 0.1438258 -4.3003507 -1.6003023
-0.5554601 1.4071475 -0.16935506 0.34543175 2.0436697 -5.32113 -1.3532273 0.65515745
-8.055592 -1.2121971 -2.1293914 2.4124186 3.697495 1.4992858 -8.246923 -2.0791314
6.549826 -1.6227115 1.4267662 -0.79117966 2.3020504 -0.027998894 -4.1582494 -10.704716
0.44663244 1.2911878 0.10852417 -1.378998 0.9884275 -8.662426 2.8862534 -3.0867615

2.bias f4 [24]
00000000: c1f4 97bc 1c22 873e be97 a3bd 3437 c4be
00000010: 6ba3 103e 3b3f 3bbe fb3f d2bf 538f 06c0
00000020: bf80 81be fc24 f0bf 39d7 3e3d e95a 283e
00000030: 74bc 2b40 a279 fabf da4c 86bf 5e74 b9bf
00000040: b41d fb3f 95f5 b540 f594 4fbe bedc dbbf
00000050: 7ebf 36be a620 d43f a867 3ec0 d370 3ac0
-0.018549325 0.2639321 -0.07987927 -0.38323367 0.14124839 -0.1828584 -1.6425775 -2.1024978
-0.25293538 -1.8761287 0.04659197 0.1644093 2.6833773 -1.9568369 -1.0492203 -1.4488637
1.961844 5.6862283 -0.20271666 -1.717674 -0.17846486 1.6572464 -2.9750767 -2.9131362

4.weight f4 [4, 24]
00000000: 09aa 7dbd 8398 f840 9045 1a3e 54eb 323f
00000010: c97b b140 0019 0c3b 815a 923f cf83 9b3f
00000020: 7d4c 69be 3361 4540 6c61 a140 0bcd 9140
00000030: d7c0 cd3f 6cea 2c40 b48f 0641 b186 1f40
00000040: e383 b13e f2c3 0d41 09f0 42bd 4491 2440
00000050: c98d 6bc0 30fd 17c0 4c89 2d40 c9b8 c840
00000060: d9c1 c9bd d75e 7440 bdd8 193c 35d3 9340
00000070: 7a19 7a40 ea34 9cbc 43e1 b740 20eb c240
00000080: 8e08 63be 45c4 be40 0d3a 8c40 9b51 d63f
00000090: e4ae 5140 af59 5e40 76e7 8f3e 1554 8840
000000a0: 5e0f 6d3e 1450 3e3f c374 023e ec7d b340
000000b0: 45c5 57be ed9a 38c0 e963 f83f 6955 9e40
000000c0: d430 703d d4b0 dbbf c148 663c 0756 463f
000000d0: cee7 8240 0219 74bd d733 88c0 73c9 073e
000000e0: b89e 5a3e 062d 35bf 1e9f 9240 a3fa 9140
000000f0: 13c5 efbf b7d4 6e40 593a 9640 3de7 f73f
00000100: 177f af40 f83d 0240 f493 1cbd 07a1 6bc0
00000110: 13aa 8340 891a ebbf cc32 8d40 9633 ac40
00000120: 1571 74bd 5a43 3f40 d5d6 34bd 4c06 a3c0
00000130: 33d1 b040 a81e b03d fd20 a5c0 fdb1 aec0
00000140: 3015 f33d 79f1 b4c0 a4d7 b940 df94 e340
00000150: aaca 9440 8ba2 e140 c213 aa40 638b ad40
00000160: 272c 543e b69a 463f 0974 06bd 8462 91c0
00000170: 5932 983e 6f17 34c0 9f65 0541 7996 eb40
-0.061929736 7.768617 0.15065598 0.6989033 5.5463605 0.0021377206 1.143387 1.21496
-0.22783084 3.0840576 5.0431423 4.5562797 1.6074475 2.701808 8.410084 2.492596
0.34670934 8.860338 -0.047592197 2.5713663 -3.6805289 -2.3748283 2.711505 6.272557
-0.09851427 3.8182886 0.009390053 4.619532 3.907805 -0.0190682 5.746248 6.091202
-0.22171232 5.9614587 4.3820863 1.6743654 3.2762995 3.4742239 0.28106278 4.260264
0.23150393 0.7434094 0.12739854 5.6091213 -0.21071346 -2.884456 1.940549 4.947926
0.058640316 -1.7163339 0.014055432 0.7747502 4.0907965 -0.05959416 -4.256328 0.1326044
0.21349609 -0.70771825 4.5819235 4.5618453 -1.8732017 3.731733 4.6946225 1.9367443
5.484264 2.0350323 -0.038227037 -3.6817033 4.114511 -1.8367473 4.412451 5.381297
-0.059678156 2.9884858 -0.044150192 -5.0945187 5.525537 0.08599597 -5.160277 -5.459227
0.118692756 -5.6544766 5.8075733 7.1119227 4.6497393 7.0510917 5.314912 5.423265
0.20719968 0.7757982 -0.032825503 -4.543276 0.29725912 -2.8139303 8.33731 7.3621182

4.bias f4 [4]
00000000: 17e1 6040 53da 4e3e 2669 c13f 7c34 36c0
3.5137384 0.20200472 1.5110214 -2.8469534
