logs/target_params_B_50_onehot.pt (torch, 6375 bytes, 6 tensors)

0.weight f4 [24, 12]
0.6474618 1.0931923 0.34376532 -0.29916415 0.15619601 -0.3474264 -0.1199627 -0.34286857
1.722633 -0.6246569 1.1629177 -0.06958009 0.362019 1.1332443 -0.14938818 -0.41603523
0.98671025 -0.24219902 0.32503363 -0.12473767 1.2923518 -0.31882006 -1.06039 -0.38216278
0.51594996 0.7724105 -0.5085649 -0.30514875 -0.566088 -0.95266515 -0.17517588 0.96479875
2.5932415 1.0843543 -0.34576002 -0.5547358 -0.7934919 1.0390047 1.4457352 -0.4536591
-0.35365957 -1.209777 -1.54681 1.0140357 -0.8329853 0.5736247 0.7847428 -6.2273803
-1.5097623 0.5812327 0.20356488 -1.1486934 0.14083916 -3.4853585 -0.3947232 1.5884124
1.9965439 0.27314046 -1.6525378 -2.046897 0.06915283 -1.5001143 0.48867399 0.11277716
1.2391249 -0.27937925 1.0864683 -0.29054475 -1.2330098 -0.36695418 0.73205924 -4.0351567
0.38206783 -0.6754042 0.059240047 0.25855428 0.57997763 0.2728396 0.20690677 -0.22498909
-0.5451638 -0.25957897 -0.30959365 -0.28596765 0.49562624 0.755006 0.12989101 -0.1016121
-0.3868936 -0.15108597 0.23559074 0.18035077 2.4811084 0.067421675 -0.5914639 1.0295966
-0.2269835 -0.2501616 -0.1747571 -0.2881751 -0.1437323 0.102702074 -0.17459582 -0.22174248
0.1901427 -0.07297915 -0.24073382 -0.27988315 0.2399501 1.703772 0.5689809 0.28208637
-1.3261197 0.42572635 -1.1251076 -0.29181358 -2.3173814 -1.2198792 -0.03341789 1.3945789
-0.20176171 1.3535441 -0.67704976 -1.6106943 -0.23198017 -0.80644715 0.2037515 -1.9405172
1.6367366 -0.62013686 -1.9433123 -1.0674942 -0.31922415 -0.40828973 1.2467309 0.9967583
-1.2256322 -0.6464494 -1.7706965 0.29738122 1.1029552 1.4025009 0.12428749 3.974943
-1.415226 2.1032822 0.93702596 0.68637496 -0.91955715 -0.64653206 -0.24296366 -0.33761773
-2.25019 1.0133308 -1.6494908 -0.3506791 0.19083624 -0.63865745 0.47133088 0.256075
0.6970302 -0.5393107 -0.9945036 0.5479833 2.0081158 -2.0050635 -1.2489847 -5.1610413
3.9103487 -2.366989 0.09356053 -0.19919126 -0.030073557 -0.40132046 -0.36225718 -0.06361827
-1.040064 -0.12022992 -1.2741985 0.48487833 0.41615674 -0.76514745 -0.077326156 0.3990491
-1.3704631 -0.08617806 0.12532103 0.014550801 -3.1134462 0.92617935 0.8762223 0.1723831
1.0283023 1.3471308 -0.18302791 0.31548873 -0.3353221 0.22684497 -0.109462485 -0.22552472
2.2093208 0.35629523 -0.49418923 -1.5225598 1.2183657 0.64315647 0.26556438 0.17613837
-0.011425011 0.039695345 -0.33660302 0.0009693352 2.1440492 -0.018667778 0.8852236 -0.9540354
0.8990106 0.7125968 -0.88051516 -0.38841346 0.29330215 0.8283954 -0.1174206 -0.24020672
1.6513485 -0.81558967 0.19733016 0.4659477 0.21221717 -0.88003653 -0.016850974 0.41028574
-0.24556758 -0.21449828 0.69356984 0.6177093 -1.4175531 -0.4312617 0.94427866 1.9163809
-0.19416761 -0.21979845 -0.098218694 -0.12044789 0.052587926 -0.12494677 -0.092681125 -0.14026368
-0.16397555 0.17638996 -0.09758976 0.044591248 0.5883406 0.77082527 0.07794749 0.22400108
00000000: 0ec0 253f baed 8b3f 0202 b03e 0b2c 99be
00000010: d9f1 1f3e e0e1 b1be 01af f5bd 788c afbe
00000020: 3d7f dc3f 84e9 1fbf 7dda 943f 0280 8ebd
00000030: 8e5a b93e 260e 913f 37f9 18be 9202 d5be
00000040: 0b99 7c3f 0503 78be cf6a a63e 7776 ffbd
00000050: c96b a53f 623c a3be dcba 87bf d7aa c3be
00000060: 4c15 043f b2bc 453f 4f31 02bf 753c 9cbe
00000070: 25eb 10bf dde1 73bf 4e61 33be 0dfd 763f
00000080: abf7 2540 1fcc 8a3f 7507 b1be 2a03 0ebf
00000090: 4922 4bbf 1bfe 843f da0d b93f 0146 e8be
000000a0: de12 b5be f9d9 9abf dffd c5bf eccb 813f
000000b0: 863e 55bf 11d9 123f e7e4 483f b346 c7c0
000000c0: e43f c1bf abcb 143f 5073 503e 6308 93bf
000000d0: 2438 103e 1d10 5fc0 2919 cabe 1951 cb3f
000000e0: c08e ff3f 11d9 8b3e 5c86 d3bf 5c00 03c0
000000f0: 00a0 8d3d bf03 c0bf 7a33 fa3e b6f7 e63d
00000100: a59b 9e3f cc0a 8fbe 6511 8b3f 48c2 94be
00000110: 44d3 9dbf 6be1 bbbe 3c68 3b3f 0120 81c0
00000120: 659e c33e 4ae7 2cbf b1a5 723d 3a61 843e
00000130: 6a79 143f a2b1 8b3e 5edf 533e 8a63 66be
00000140: db8f 0bbf 89e7 84be 0f83 9ebe 5a6a 92be
00000150: b9c2 fd3e 1348 413f 2602 053e 011a d0bd
00000160: eb16 c6be 48b6 1abe b33e 713e dfad 383e
00000170: 7bca 1e40 6014 8a3d 2e6a 17bf d2c9 833f
00000180: 5d6e 68be 2e15 80be 86f3 32be b08b 93be
00000190: 8f2e 13be 7755 d23d 3fc9 32be 7610 63be
000001a0: c5b4 423e 1876 95bd ed82 76be d84c 8fbe
000001b0: 7bb5 753e 3315 da3f bba8 113f a06d 903e
000001c0: 4abe a9bf cef8 d93e 8703 90bf 9768 95be
000001d0: fa4f 14c0 0025 9cbf 33e1 08bd 9081 b23f
000001e0: 9f9a 4ebe ef40 ad3f 2253 2dbf 3b2b cebf
000001f0: 368c 6dbe 5273 4ebf 3ca4 503e de62 f8bf
00000200: 9680 d13f 4ac1 1ebf 75be f8bf a6a3 88bf
00000210: 5971 a3be 5a0b d1be e194 9f3f 8d2b 7f3f
00000220: 84e1 9cbf b57d 25bf 2fa6 e2bf 5a42 983e
00000230: a32d 8d3f 2685 b33f 718a fe3d 7765 7e40
00000240: 2026 b5bf 2d9c 0640 efe0 6f3f 45b6 2f3f
00000250: 1968 6bbf 2083 25bf 77cb 78be 3bdc acbe
00000260: 1d03 10c0 d3b4 813f 8422 d3bf 368c b3be
00000270: 936a 433e 0e7f 23bf 4852 f13e 431c 833e
00000280: 9270 323f 4410 0abf ca97 7ebf a248 0c3f
00000290: f884 0040 f652 00c0 bbde 9fbf 4027 a5c0
000002a0: 2743 7a40 bf7c 17c0 aa9c bf3d cbf8 4bbe
000002b0: d25c f6bc e079 cdbe c679 b9be 4c4a 82bd
000002c0: d120 85bf 1b3b f6bd f018 a3bf f941 f83e
000002d0: 7f12 d53e b4e0 43bf 2d5d 9ebd 2a50 cc3e
000002e0: 566b afbf 1f7e b0bd 2854 003e 7c66 6e3c
000002f0: b442 47c0 171a 6d3f 1b50 603f 3285 303e
00000300: 699f 833f c86e ac3f ab6b 3bbe bd87 a13e
00000310: 57af abbe 0c4a 683e de2d e0bd f4ef 66be
00000320: 8365 0d40 546c b63e 5f06 fdbe 3de3 c2bf
00000330: 68f3 9b3f e7a5 243f 0ef8 873e 9e5d 343e
00000340: f82f 3bbc 9697 223d 3b57 acbe fc1a 7e3a
00000350: 1a38 0940 2bed 98bc 049e 623f aa3b 74bf
00000360: 8f25 663f be6c 363f 7169 61bf 21de c6be
00000370: b32b 963e b911 543f 367a f0bd c0f8 75be
00000380: 635f d33f 7cca 50bf eb10 4a3e b290 ee3e
00000390: 754f 593e 134a 61bf 0e0b 8abc f910 d23e
000003a0: 1176 7bbe 70a5 5bbe cb8d 313f 3222 1e3f
000003b0: 6172 b5bf 55ce dcbe 3fbc 713f f84b f53f
000003c0: e0d3 46be d812 61be e226 c9bd 62ad f6bd
000003d0: 7066 573d 18e4 ffbd 9acf bdbd 48a1 0fbe
000003e0: 35e9 27be 929f 343e 24dd c7bd 50a5 363d
000003f0: 7d9d 163f ce54 453f efa2 9f3d 8a60 653e

0.bias f4 [24]
-4.5226774 -4.257997 -4.1630926 1.0695198 -0.7479407 3.7881675 2.0570846 -5.195705
-0.3239876 2.890377 -0.15027812 1.5458285 1.7189566 -1.5845519 -0.10968431 2.855753
-4.961094 -4.702544 -4.184478 2.6346147 -0.25090206 -5.163548 2.2801397 -4.884956
00000000: c6b9 90c0 8341 88c0 0e38 85c0 06e6 883f
00000010: 0b79 3fbf 5671 7240 46a7 0340 3743 a6c0
00000020: b4e1 a5be f0fb 3840 82e2 19be b5dd c53f
00000030: c506 dc3f 99d2 cabf 2ba2 e0bd a8c4 3640
00000040: 48c1 9ec0 3e7b 96c0 3ee7 85c0 879d 2840
00000050: 3c76 80be c93b a5c0 cfed 1140 8f51 9cc0

2.weight f4 [24, 24]
-0.70085007 -0.35864338 0.13451576 -0.06566167 -0.5110316 -0.7875326 -0.61284965 -0.035036463
-0.09207247 -0.26846522 -0.19963866 -0.24963848 -0.026867356 -0.16826276 -0.41725174 -0.49315718
0.12353474 -0.3147364 -0.25958747 -0.7977782 0.011922389 -0.18034565 -0.10133028 0.16674638
0.23674342 0.5533172 1.3915147 -1.7018787 1.2383823 -2.8477757 -0.68824697 0.7798397
0.07432105 -3.5591824 0.9703081 -3.4517205 -2.1985307 -0.09910274 -0.24105325 -1.516191
0.81238776 0.7746938 0.5166833 -1.1231687 0.028113708 0.37138912 -4.565408 1.1281879
-0.107104436 -0.2384342 -0.22295617 -0.37899193 0.027241655 -0.06185709 -0.27323306 -0.09487936
0.16399089 -0.19923842 -0.04787969 -0.12725599 -0.12957749 0.07381202 0.0527803 -0.025794817
-0.11996287 -0.14514996 -0.17824346 -0.2631732 -0.11005393 -0.065095015 -0.27770805 0.06171061
-0.38237122 -0.015411948 -0.5779885 -0.09056807 -0.35575297 -0.32832542 -0.3854455 -0.854019
-0.11456494 -0.24157694 0.23210421 -0.29146668 0.28331628 -0.5448937 -0.4929294 -0.570413
-0.38830468 -0.67369545 -0.59238225 -0.39223826 0.15191028 -0.6454296 -0.073598854 -0.23087072
-1.5280674 0.7443722 0.5419299 -1.3751537 0.3901149 -3.6635888 0.55267525 0.6241027
-0.12948015 -2.4670484 -0.8891935 -2.8600388 -4.74412 -0.7884378 -0.59152067 -2.3370986
2.0863435 1.4197025 2.1623807 -0.17269035 -0.19131342 1.4745629 -0.79382044 1.6395066
-0.23793627 -0.19810261 -0.1424137 -0.13419849 -0.10554486 -0.36668006 -0.17399095 0.005296249
-0.09630322 -0.32335526 0.026554022 -0.10161184 -0.25844717 -0.06864137 -0.113218725 -0.19071734
-0.12507705 -0.2392533 -0.20456515 -0.24439086 0.09028256 -0.22686532 -0.27698794 0.12956071
2.55787 3.0181434 2.4271 1.4682835 -2.1462607 0.121915594 1.051596 4.0236225
-0.10269609 1.3592746 -2.0258782 1.1563296 0.7597814 -1.3241838 -1.1952842 0.46301544
1.9578007 2.4648693 1.718952 1.414275 0.074514896 3.1736073 1.5392978 1.759969
0.07154857 -0.09225562 -0.0911281 0.13008007 -0.25471997 0.051548578 -0.16169906 -0.071519196
-0.015271261 0.07002919 -0.14426693 -0.23481582 -0.087577686 -0.07524066 -0.24189825 -0.12288167
0.07999673 -0.22205606 0.08752854 -0.3353539 -0.11888433 -0.22287112 -0.12001872 0.10196559
-0.29949147 0.35676888 0.99416053 -1.6820252 1.2951605 -3.2905056 -0.30040035 0.7069657
0.18972859 -2.584619 1.2085233 -3.134211 -2.107064 -0.0007751082 0.30038708 -0.37111828
0.95726967 0.91939646 1.5651469 -0.5033618 0.109237194 0.47502244 -4.56577 0.88585305
3.8286445 0.60181195 2.8101788 -2.0079718 -1.1211821 -1.1381918 0.2714724 6.1801004
-0.27633622 -2.1337528 -1.4623216 -0.42245764 -3.4669986 -1.5083908 -1.7285857 -2.8053632
3.5287313 4.0964093 2.6653955 -0.27873197 -0.12561795 5.634421 -5.278608 4.545245
-0.28984362 1.4773214 -0.084698975 -3.7177794 0.5778814 -2.1493413 0.14435971 1.7927468
0.15388297 -4.477763 -1.8426323 -3.9482684 -3.5200918 -2.722877 1.5269808 -2.9461672
00000000: e96a 33bf 1ba0 b7be 80be 093e a079 86bd
00000010: f8d2 02bf bd9b 49bf b7e3 1cbf 6582 0fbd
00000020: 7e90 bcbd 4674 89be 146e 4cbe 3ba1 7fbe
00000030: ee18 dcbc 134d 2cbe 05a2 d5be 197f fcbe
00000040: c8ff fc3d 2125 a1be a6e8 84be 313b 4cbf
00000050: 2056 433c 88ac 38be 4086 cfbd 90bf 2a3e
00000060: de6c 723e 32a6 0d3f 271d b23f 29d7 d9bf
00000070: 5083 9e3f f541 36c0 f430 30bf 93a3 473f
00000080: a235 983d a5c9 63c0 1d66 783f fde8 5cc0
00000090: bab4 0cc0 61f6 cabd aad6 76be 8c12 c2bf
000000a0: a5f8 4f3f 5552 463f 5b45 043f fec3 8fbf
000000b0: b84e e63c b726 be3e d317 92c0 7668 903f
000000c0: 9259 dbbd 1828 74be 9f4e 64be 3b0b c2be
000000d0: e429 df3c dc5d 7dbd 34e5 8bbe 1c50 c2bd
000000e0: 3aed 273e 2805 4cbe 7e1d 44bd 654f 02be
000000f0: f6af 04be c22a 973d 2830 583d a74f d3bc
00000100: 18af f5bd 31a2 14be 7485 36be a3be 86be
00000110: f463 e1bd 8950 85bd c02f 8ebe 44c4 7c3d
00000120: 29c6 c3be 6582 7cbc 0ef7 13bf c17b b9bd
00000130: 4125 b6be 451a a8be 1d59 c5be fda0 5abf
00000140: 06a1 eabd f25f 77be baac 6d3e 1f3b 95be
00000150: d50e 913e 277e 0bbf 3e61 fcbe 9606 12bf
00000160: dfcf c6be 4e77 2cbf 5da6 17bf 74d3 c8be
00000170: 5e8e 1b3e e03a 25bf ffba 96bd 6069 6cbe
00000180: b697 c3bf 2d8f 3e3f ebbb 0a3f 0905 b0bf
00000190: 24bd c73e 3d78 6ac0 207c 0d3f 32c5 1f3f
000001a0: 7296 04be 1fe4 1dc0 2fa2 63bf e00a 37c0
000001b0: d5cf 97c0 0fd7 49bf e66d 17bf 0693 15c0
000001c0: a786 0540 d0b8 b53f 7264 0a40 bdd5 30be
000001d0: aae7 43be 7abe bc3f d137 4bbf 5adb d13f
000001e0: 91a5 73be 69db 4abe e6d4 11be 546b 09be
000001f0: e727 d8bd 7dbd bbbe af2a 32be 288c ad3b
00000200: 9f3a c5bd d28e a5be d287 d93c de19 d0bd
00000210: 3053 84be d993 8cbd 38df e7bd 684b 43be
00000220: 3314 00be d1fe 74be 8779 51be 9941 7abe
00000230: 10e6 b83d 624f 68be 5dd1 8dbe 90ab 043e
00000240: 24b4 2340 4329 4140 9b55 1b40 b7f0 bb3f
00000250: 565c 09c0 e2ae f93d b39a 863f 84c1 8040
00000260: 5452 d2bd b6fc ad3f fda7 01c0 9c02 943f
00000270: 0981 423f db7e a9bf 13ff 98bf 5c10 ed3e
00000280: 3799 fa3f 6bc0 1d40 9e06 dc3f f706 b53f
00000290: 449b 983d 621c 4b40 b607 c53f aa46 e13f
000002a0: 0f88 923d 84f0 bcbd 5fa1 babd b633 053e
000002b0: a86a 82be 9a24 533d 7094 25be a878 92bd
000002c0: 5034 7abc 776b 8f3d b6ba 13be 8f73 70be
000002d0: ee5b b3bd c617 9abd 2db4 77be 63a9 fbbd
000002e0: 53d5 a33d aa62 63be 2a42 b33d 82b3 abbe
000002f0: a179 f3bd 5438 64be 60cc f5bd 56d3 d03d
00000300: f256 99be 69aa b63e 4e81 7e3f 9a4c d7bf
00000310: d2c7 a53f a597 52c0 13ce 99be b4fb 343f
00000320: 3648 423e 666a 25c0 e4b0 9a3f ea96 48c0
00000330: 23da 06c0 a130 4bba 56cc 993e 3703 bebe
00000340: a00f 753f 915d 6b3f bc56 c83f 52dc 00bf
00000350: c0b7 df3d 2436 f33e ca1a 92c0 44c7 623f
00000360: 8308 7540 5910 1a3f f8d9 3340 9c82 00c0
00000370: e582 8fbf 45b0 91bf 6efe 8a3e 62c3 c540
00000380: f17b 8dbe 688f 08c0 5b2d bbbf 5e4c d8be
00000390: 4ee3 5dc0 f312 c1bf 4c42 ddbf 128b 33c0
000003a0: bcd6 6140 c915 8340 d795 2a40 f5b5 8ebe
000003b0: fea1 00be 2d4d b440 5bea a8c0 a672 9140
000003c0: 6266 94be de18 bd3f a876 adbd 19f0 6dc0
000003d0: 09f0 133f cf8e 09c0 08d3 133e ba78 e53f
000003e0: 7f93 1d3e d649 8fc0 60db ebbf 6eb0 7cc0
000003f0: 2f49 61c0 9e43 2ec0 1b74 c33f 018e 3cc0

2.bias f4 [24]
-0.66926765 -1.8492079 -0.025186554 -0.51211655 -2.3457315 -0.19061495 0.77676564 -0.29579836
-1.5759163 -2.547425 -2.4880092 -1.2764256 -1.5267313 -1.7862283 2.242307 0.8135012
2.0450017 -0.3980221 0.037389595 -0.26924697 2.4863892 1.3676946 -0.64760214 0.7532304
00000000: 2055 2bbf d8b2 ecbf 0854 cebc 121a 03bf
00000010: 7720 16c0 9130 43be 1dda 463f e272 97be
00000020: a0b7 c9bf 0309 23c0 8b3b 1fc0 ea61 a3bf
00000030: ee6b c3bf 21a3 e4bf f581 0f40 9d41 503f
00000040: 4fe1 0240 8dc9 cbbe d525 193d bdda 89be
00000050: 0021 1f40 9e10 af3f 41c9 25bf b5d3 403f

4.weight f4 [4, 24]
-0.40222535 -1.1798193 -0.030343736 0.034275167 3.4216943 0.08591148 0.07185926 -0.27869397
-2.3957353 0.5461383 0.39948624 -3.0318964 -1.7957201 2.0213118 -0.021622512 0.19047914
0.24528348 1.3825794 0.08222319 -0.029771985 -0.30053538 -0.30400527 0.75865006 -0.07555917
-0.04071027 2.255805 -0.0951094 -0.58267576 2.6379824 -0.19062087 0.38475862 -0.057904698
1.9910274 7.8492146 2.4608645 1.7984948 1.9961518 0.50484264 -0.405291 0.19869879
0.6198193 -0.11249316 0.10746899 -0.073100656 -1.1257968 -1.5553936 1.3487623 1.0300685
-0.64483094 1.7256147 -0.047310945 -0.4812864 2.5094643 -0.113827735 0.033497922 -0.23778328
4.2833734 1.0979663 0.16890328 4.818541 -0.81543124 2.3982723 -0.12438894 0.14464803
0.18149333 -0.13159268 -0.22272949 -0.21232663 -0.18535088 -0.23714814 -0.24907494 0.047430463
0.21267688 0.6367671 -0.12594232 -0.18158855 1.2341294 0.1169921 2.4649658 -0.08405469
1.0332605 0.54850286 -5.3219714 0.5545678 0.99198437 1.518974 -3.523935 2.9140475
6.9967628 4.1141114 -0.14714493 -0.062999 -2.8191926 -5.250545 2.478601 -4.175404
00000000: 7bf0 cdbe 5204 97bf 6d93 f8bc 1e64 0c3d
00000010: 0afd 5a40 5cf2 af3d f32a 933d fab0 8ebe
00000020: ba53 19c0 b8cf 0b3f 7689 cc3e 970a 42c0
00000030: 28da e5bf 2c5d 0140 b221 b1bc f70c 433e
00000040: 982b 7b3e 5df8 b03f a264 a83d 61e4 f3bc
00000050: c6df 99be 94a6 9bbe e436 423f c4be 9abd
00000060: d0bf 26bd 1c5f 1040 b8c8 c2bd 3d2a 15bf
00000070: b4d4 2840 1e32 43be 15ff c43e 7a2d 6dbd
00000080: fcd9 fe3f c42c fb40 ce7e 1d40 1435 e63f
00000090: e781 ff3f 5e3d 013f 4d82 cfbe b277 4b3e
000000a0: 7aac 1e3f d062 e6bd b418 dc3d ccb5 95bd
000000b0: 1c1a 90bf 2317 c7bf 3ea4 ac3f 49d9 833f
000000c0: a413 25bf f1e0 dc3f 1fc9 41bd 2c6b f6be
000000d0: 109b 2040 841e e9bd 1e35 093d 767d 73be
000000e0: 6511 8940 298a 8c3f fbf4 2c3e 7d31 9a40
000000f0: 1ac0 50bf 4b7d 1940 a1bf febd 9d1e 143e
00000100: 63d9 393e 3bc0 06be 3313 64be 276c 59be
00000110: 9fcc 3dbe f6d6 72be 800d 7fbe 7246 423d
00000120: f8c7 593e 2b03 233f 06f7 00be 59f2 39be
00000130: f4f7 9d3f 8e99 ef3d 00c2 1d40 de24 acbd
00000140: e141 843f af6a 0c3f 974d aac0 28f8 0d3f
00000150: b0f2 7d3f bd6d c23f 2788 61c0 c17f 3a40
00000160: 7be5 df40 cda6 8340 29ad 16be 9f05 81bd
00000170: a76d 34c0 7704 a8c0 66a1 1e40 e99c 85c0

4.bias f4 [4]
-7.137084 -0.3711752 -8.197086 0.08904604
00000000: fe62 e4c0 ad0a bebe 4427 03c1 c55d b63d
