logs/target_params_B_25_onehot.pt (torch, 6375 bytes, 6 tensors)

0.weight f4 [24, 12]
00000000: 20c7 a0bd 2ac7 06bf 51a6 553e 2db4 9cbe
00000010: 4b61 a33e 362e 063f 86ce ea3d ee77 e23d
00000020: ea36 8cbf eae7 d63f 579e 44bf f015 483c
00000030: 21c9 913f 0e31 453f 1041 c6bd 4f4a 113f
00000040: 86da 32bf 8d2d a8bf a88b 84bf e0d8 43bf
00000050: 174b 2040 e80c a4bf 2576 cebf 7d2a 7fc0
00000060: 8acb 54be adba 54be 0322 79be 9fee 01bd
00000070: df60 02be b1d8 30be e802 35be 1aac 233e
00000080: fa0f 4e3e 3e6b 2fbe d6ec 813e 4619 a1bd
00000090: b7ec 94bf 3709 8a3e b47c 463f 48a9 e8bd
000000a0: bb75 573f c3f5 d3be c988 a2be 316a 5f3f
000000b0: b514 07bf 1c4c 3b3f 7741 53bf a1db cebe
000000c0: ff8b 3d3f b8db 223f fc4c 59bd 383b 723f
000000d0: ea73 b53e 4297 593e cc49 ba3d e309 503e
000000e0: 4679 d83f 2caa 22bf 939e 643b 464f e0be
000000f0: 34fb afbe 1066 413f c8a1 87bf 8c2b d13e
00000100: 4b32 8e3e 6160 8fbf 14ca 35bf c09a 35bc
00000110: 816e 02bf 4757 963f 69b7 35bd 0a82 8dbf
00000120: 7c2f cdbd 7fe7 623e cf72 9fbe b150 2d3f
00000130: 6fa7 113e 2e51 b23d 860e 08be 1e7e b73e
00000140: 3f8b 583e 4e5e 4bbf aeac 58bf 7728 0f3f
00000150: 66fe 5f3f c664 0d3f a7e0 eebd 5cdf 283f
00000160: 71b8 cb3e f144 b9be 59b9 2dbc 2c9c 9abe
00000170: d4ba ad3f 9fb1 ad3e 65c9 2c3f 239b 3d3f
00000180: 1507 ddbf ddbe b6bd c7fc bcbc fee1 573f
00000190: c879 1ebf 30f4 9a3e f609 5f3f 5d75 e23e
000001a0: c2b8 ec3d 0862 b2bf 17d9 9b3f cb2b 6d3f
000001b0: 57a2 533f 4f0f 173f 10b2 b0be 6ea3 543f
000001c0: 7a00 a13e 4610 8f3e ddc0 233e 0acd d6bd
000001d0: bbc1 b83f 4d32 b0bf b53e 963e 9cce e9bb
000001e0: 3c2b 643e 80e6 e23c bc32 d63f aceb 08bf
000001f0: c05f 0ebf dc37 c63e 65f4 023f d6ba 38bf
00000200: 2810 7f3d 51a1 acbf 5125 2ac0 7637 61c0
00000210: b1c1 223f 1460 49bf ef71 813f 3923 433d
00000220: 8df2 3f3f 1664 c9be aafc 0b3f 002d 4bbf
00000230: e7d2 60be c857 d53f dbdf 893c b1c8 9ebf
00000240: a178 a3be cf11 133f d9ee 2e3f fcb8 08bf
00000250: 0631 f83e 8ff7 1cbe f5d3 dfbf 9cb4 1d3f
00000260: 6d83 bebe bc96 523f 66b2 d4bf 7370 eebe
00000270: be87 4c3f ab48 e53e 8dfa 593d bca7 4d3f
00000280: 6146 063f e706 9f3d 9c7a a7bc e9e4 bb3d
00000290: 0530 c53f a9ce 1bbf a9ce c83e 6c38 663f
000002a0: 6709 eb3f ad48 55bf 36d3 9a3e 336d 41be
000002b0: 1721 2c3e 181c 88be 1ec0 17bf 9780 d5bd
000002c0: 9dee 8cbf d647 09be c917 c0bd 799b 74bf
000002d0: d388 843f 8038 1b3e afef 46be 294c 5a3f
000002e0: 7e27 003f 2fe6 283e 023b c23e 86f9 75be
000002f0: 8ab8 ae3f 0c84 b4be 7369 913f 8635 8d3f
00000300: d29f 913f 968a c7be ab42 4bbf e2ac b73d
00000310: 30e8 8fbf 4dd8 2ebd 03f7 623f ceeb 23bf
00000320: 95e4 79bf ed3a c0bf 88d6 8c3f de07 853f
00000330: 82ce 103f 207b e13e 937f cf3e 7897 a1be
00000340: f558 44c0 a0e8 063f a864 28bf 7503 8bbe
00000350: b34e 473f c94c d3bf 6464 24c0 5d38 01c0
00000360: e976 acbf c309 4ebf 789d cd3e c355 513c
00000370: 7615 253f 539b 2a3f 03e5 0a3f 649f 193f
00000380: ce82 62bf 8fea d43f b149 353f ccdd 613f
00000390: c36e 833e 1c69 0c3f 96ff fb3e 0572 7ebe
000003a0: 6d4c 3ac0 d761 053f 130f 62bf 5e77 223e
000003b0: 729b 863f 4a97 d7bf c9ac 07c0 b192 b7bf
000003c0: d9fe 383f 93ac 3e3f 5690 9bbe 3921 4e3f
000003d0: 8663 e43e a4ca b03e 36f8 a13e 1992 f0bd
000003e0: 1ac1 bc3f d90c 72bf 1ad3 3cbf d45f 24bf
000003f0: 53b0 c3be 066e a9be 6e3f ffbc 596d c7bc
-0.0785048 -0.5264765 0.20864226 -0.30606213 0.31910166 0.5241426 0.114651725 0.11058031
-1.0954258 1.6789525 -0.7680411 0.012212262 1.1389505 0.77027977 -0.096803784 0.5675401
-0.6986469 -1.3138901 -1.035512 -0.765028 2.5045831 -1.2816439 -1.6129805 -3.9869683
-0.20780769 -0.20774336 -0.2432938 -0.031721707 -0.12732266 -0.17270161 -0.1767689 0.1598362
0.20123282 -0.17130753 0.25376004 -0.07866149 -1.163474 0.26960155 0.7753403 -0.11360413
0.8416402 -0.4139844 -0.31744984 0.8727141 -0.5276597 0.7316301 -0.82521766 -0.4040194
0.7404174 0.63616514 -0.053051934 0.9462161 0.35439998 0.21249107 0.09096107 0.20316271
1.691201 -0.6354091 0.0034884557 -0.4381048 -0.3437134 0.7554636 -1.0596247 0.40853536
0.27772745 -1.1201288 -0.7101147 -0.011084259 -0.50949866 1.1745385 -0.044364367 -1.105531
-0.100188226 0.22158621 -0.3114228 0.6770125 0.14224027 0.0870689 -0.1328679 0.35838407
0.21146868 -0.7944077 -0.8463849 0.5592112 0.87497556 0.55231893 -0.11663943 0.6596582
0.39789155 -0.3618541 -0.010603272 -0.30197275 1.357264 0.33924577 0.67494804 0.74064845
-1.7267786 -0.08923123 -0.023069752 0.8432921 -0.61904573 0.30264425 0.87124574 0.44230166
0.11558677 -1.3936167 1.2175626 0.9264495 0.82669586 0.59007734 -0.3451085 0.83061874
0.31445676 0.27942103 0.1599154 -0.10488327 1.4434122 -1.376535 0.29344717 -0.0071352255
0.22282118 0.027697802 1.6734233 -0.53484607 -0.5561485 0.38714492 0.51154166 -0.7216009
0.062271267 -1.348673 -2.6585276 -3.51901 0.635768 -0.7866223 1.0112895 0.047641013
0.7497948 -0.39334172 0.5468241 -0.7936554 -0.21955453 1.6667414 0.016830375 -1.2404996
-0.3192797 0.5744905 0.683332 -0.53407264 0.48474902 -0.15328811 -1.7486559 0.61603713
-0.37209645 0.8226125 -1.6616943 -0.46570167 0.79894626 0.44782004 0.05321746 0.8033407
0.5245114 0.077649884 -0.020444207 0.091745205 1.5405279 -0.60862213 0.3922017 0.8992984
1.8362244 -0.8331402 0.30239266 -0.18889312 0.16809498 -0.26583934 -0.5927752 -0.10424917
-1.1010319 -0.1340631 -0.09379537 -0.9554973 1.0354255 0.15158272 -0.1942737 0.8527246
0.5006026 0.16494058 0.37935644 -0.24020967 1.3650067 -0.35256994 1.1360306 1.1031959
1.1376898 -0.3897292 -0.793986 0.08968522 -1.1242733 -0.04268675 0.8865816 -0.64031684
-0.97614413 -1.5017983 1.100297 1.0393026 0.56565106 0.4403925 0.4052702 -0.31560874
-3.0679295 0.5269871 -0.6577859 -0.27151075 0.7785446 -1.6507808 -2.5686274 -2.0190651
-1.3473788 -0.80483645 0.40159202 0.012776795 0.6448587 0.66643256 0.54255694 0.60008836
-0.8848084 1.6634082 0.7081557 0.8822906 0.25670442 0.54847884 0.49218434 -0.24848182
-2.9109147 0.52102417 -0.8830425 0.15865847 1.0516188 -1.6843045 -2.119921 -1.4341642
0.72263867 0.7448208 -0.30383557 0.80519444 0.4460718 0.34529603 0.31634682 -0.11746616
1.474643 -0.94550854 -0.73759615 -0.6420872 -0.38220462 -0.33091754 -0.031158175 -0.024344133

0.bias f4 [24]
00000000: 81cf c43f 2468 ecbf d952 68be f05e 923f
00000010: 0239 72bf 9afc 12bf 72ed ebbe bb8f 2ebf
00000020: c6f2 573f 0baa b9bf 8623 a8bf f8e5 853f
00000030: 2519 733f 4806 26bf adf5 753f 844a d5be
00000040: 793c 6e3f b514 9abf 1286 ce3f 4d1b 8dbf
00000050: c7be d3bf ffc0 3a3c abe0 823f 1eff cbbf
1.5375825 -1.8469281 -0.22687854 1.1435223 -0.94618237 -0.5741669 -0.46079594 -0.68188065
0.8435482 -1.4505018 -1.3135841 1.0460806 0.9496024 -0.64853334 0.96077996 -0.41658413
0.93061024 -1.2037569 1.6134665 -1.1023957 -1.6542596 0.011398553 1.0224813 -1.593723

2.weight f4 [24, 24]
00000000: c7ac 84be 5242 0cbe 05ee f13d 00b1 48bd
00000010: 9932 9ebd 8ab8 453e bd20 38bd 4695 80be
00000020: 07eb 5bbe 7667 163c 906e 61be 8eb2 6d3d
00000030: 0081 88bd 3829 f3bd ec01 293d 3943 363d
00000040: 767f 903d 8397 3fbe 075e d4bd 1d78 5ebe
00000050: 04aa 65be adcf 50bd 2b89 59bd 61da 4c3d
00000060: d361 3cbe 328f 6fbd e16f a2bd 6d0e 24bd
00000070: b923 1fbe 8865 12be c6a0 96be b4b5 aa3c
00000080: 5151 b0bd b52a 7bbe a66e b23d 44b0 87bc
00000090: 2232 7dbd d09f 7f3d 0803 743d d471 19bd
000000a0: b4ee 62be 4f2a 1ebe b385 13be 2499 73be
000000b0: cd70 66be e5d1 55be 8f5a 52be bd9f 01b8
000000c0: f962 c03e bcf1 37c0 d319 d13b b6a5 78bd
000000d0: 9d48 e63e 0c5e db3f 04f5 113f cb97 babd
000000e0: 8c55 8ebf 7acd c33e ace2 8f3f fffe 27be
000000f0: ee9e 7bbf d6ba 503e feb4 88bf c9e2 4a3e
00000100: e6ed 2c3e bb67 0d40 3b3a dd3c 7878 b53f
00000110: 45e4 d43e 81c8 babd b8b5 0fbe 85b3 1b3f
00000120: 9203 643e 0f7d 27c0 3a6b 1b3e 25fe 183f
00000130: fafc 813e ef2d e63e ed18 9d3e f995 703c
00000140: a303 473f 37d9 403e 1d43 8dbe 7b5e 0a3f
00000150: e8a1 8a3f bf91 393d 4ff6 363f 419e 803d
00000160: 79d6 473f ebf1 6dbf 8888 22bc e7fa 30bf
00000170: eef4 523e 9f46 ccbc 8d64 353f e5f9 e7bd
00000180: c691 473e a61b 3b40 c016 f43c 9874 f03e
00000190: 04b2 e83d d8f8 33bf 0197 5a3e 0507 b03e
000001a0: 1f44 943f fff4 6bbe 37d8 1abe 19cb 123f
000001b0: ebd2 e43f edb1 423e e483 fa3f 8c1b 263e
000001c0: 403b 333f 3023 72bf e212 fd3e e402 4fbf
000001d0: 84e0 87be eace 6b3e c80a 933f 328e 64bd
000001e0: 9fc3 9f3e 5e90 e93f e657 ef3d 60c5 3d3f
000001f0: b023 ab3e 6167 4fbe 2a2b dd3d e280 9c3d
00000200: 8912 a93f c0fc 12be 3f3f 88be 387c 723f
00000210: d679 eb3f 9d08 82bd 5dd2 0340 b1fd d4bd
00000220: cdd3 b13f 074e 90bf d13d 413f 194b 2bbf
00000230: 2916 a2bc 82ee b53b 3b1e 783f 459f bc3c
00000240: 3748 743b 9893 873d 607d c7bb 8609 e2bd
00000250: 2a3f 71be f862 bbbc bff3 5cbe a7c9 b2be
00000260: 705c 683d 35c1 3abe 33e1 97be aaf6 14be
00000270: 5242 05bc efbb 8dbe 84f5 31be 63f4 65be
00000280: ccde cebc eb1b 06be 6203 aabe b261 b7bc
00000290: 0b3c debd dd84 21be bb0e a2bd ecd1 bdbd
000002a0: d3d4 72bc c19f 78be dd88 4a3c 1d6b b3bb
000002b0: 9637 28be e4fe 213e 4574 9f3d 9b48 30be
000002c0: 0bdb 21bd f625 29be 342e 1abd 58d0 90bd
000002d0: 83da 0d3c cd45 3dbe 004d 41bb 5517 a73d
000002e0: a1e3 a4bd 1f9c 88bd ef5e bcbc a419 3f3e
000002f0: 5ba8 0d3d b78c 8ebe 4ce5 f1bd f670 0ebe
00000300: b4a1 57bf 41e4 d6be b68a d93d 0f42 0ac0
00000310: e40e 833e 841a 0b40 b1b1 f23e 3412 e83d
00000320: 1153 89c0 b38a 413f fdcc b63f d7c4 b2bf
00000330: d569 93c0 257c c83e 7cdb b7c0 9a02 0f3f
00000340: 3ea5 56c0 22b7 0b40 5d57 f3bf 041f df3f
00000350: 7fc8 513f af0d 8c3d f3e6 2ec0 2854 af3f
00000360: 235a dbbd 62ec 3b40 e985 bb3d acbd a8be
00000370: 1ab2 d83e 254f e0be 4b11 9b3e 39d6 363f
00000380: e716 34bf 3db2 353f fb36 733f 87e0 62be
00000390: 316e 6dbf 5c07 333f 7eed 7ebf d9c7 343f
000003a0: 9814 b7bf 3da1 893f 297f 183e cc8a ac3f
000003b0: 437d 4f3f ddc5 343c 35ef 37bf 0fe8 753f
000003c0: a600 19bd 87f6 4fbe 01ef 44be 4923 49be
000003d0: 314a 62be b8ce ee3d f0a7 1d3d 8c16 fabd
000003e0: ccd5 e53d 8d2d fc3c 5613 fdbd 4d15 33be
000003f0: 2966 67bd b5ad debd f892 14bd 6de8 0ebe
-0.2591307 -0.13697174 0.11812977 -0.048996925 -0.077244945 0.19308677 -0.044953097 -0.25113887
-0.21476375 0.00917994 -0.22014832 0.05803161 -0.0666523 -0.11873096 0.0412616 0.044497702
0.07055561 -0.18710141 -0.10369497 -0.21725507 -0.22428137 -0.050979305 -0.05310933 0.05001295
-0.18396692 -0.05848617 -0.079314955 -0.04005282 -0.15540971 -0.14296544 -0.29419535 0.020838596
-0.0860926 -0.2452801 0.08712511 -0.016563542 -0.06181539 0.06240827 0.059573203 -0.03746207
-0.2216137 -0.15445827 -0.14406471 -0.23788887 -0.22503968 -0.2088085 -0.20542358 -3.0904765e-05
0.3757551 -2.8741293 0.0063812523 -0.06070491 0.44977275 1.7138076 0.5701449 -0.091109835
-1.1119857 0.38242704 1.124105 -0.16405867 -0.9828938 0.20383772 -1.0680234 0.19813074
0.16887626 2.2094562 0.027005306 1.4177389 0.41580406 -0.09120274 -0.14034164 0.608208
0.22266987 -2.617008 0.15177622 0.59762794 0.25388318 0.4495692 0.3068308 0.014684194
0.77739924 0.18832861 -0.27590266 0.54050416 1.083066 0.04530501 0.7146959 0.062801845
0.78061634 -0.9294726 -0.009920247 -0.69132847 0.20601246 -0.024936019 0.70856553 -0.113269605
0.19489202 2.9235625 0.029796004 0.46963954 0.11362079 -0.7030158 0.21346666 0.34380355
1.1583289 -0.23042677 -0.15121542 0.5734115 1.7876867 0.19013186 1.95715 0.16221446
0.70012283 -0.9458494 0.4942847 -0.80863786 -0.2653848 0.2302815 1.1487665 -0.05579967
0.31203935 1.8247182 0.11686687 0.74129295 0.33425665 -0.2025428 0.107992485 0.0764177
1.3208781 -0.14354229 -0.26610753 0.9472079 1.8396556 -0.06349299 2.0597146 -0.1039995
1.3892761 -1.1273812 0.7548495 -0.66911465 -0.019785957 0.005552114 0.9692113 0.023025164
0.0037274489 0.06619948 -0.006087944 -0.11036973 -0.23559251 -0.02287434 -0.21577357 -0.34919474
0.05672878 -0.18237765 -0.29664 -0.1454722 -0.008133488 -0.27682444 -0.17378813 -0.22456507
-0.025252722 -0.13096587 -0.33205706 -0.022385452 -0.10851296 -0.1577334 -0.07912966 -0.09268555
-0.014821249 -0.24279691 0.012361732 -0.0054754154 -0.16427454 0.1581989 0.077858485 -0.17215197
-0.039515536 -0.16518387 -0.03764172 -0.070709884 0.008658054 -0.18483658 -0.0029495358 0.08158747
-0.08051229 -0.06670403 -0.022994487 0.18662125 0.034584384 -0.27841732 -0.11811313 -0.13910279
-0.84231114 -0.4197102 0.1062216 -2.160282 0.25597298 2.1734934 0.47401193 0.11331597
-4.29139 0.75602263 1.4281307 -1.3966321 -4.606669 0.39157215 -5.7455425 0.55863345
-3.3538356 2.1830525 -1.9011036 1.743134 0.8194656 0.068385474 -2.732846 1.3697557
-0.107105516 2.9363027 0.09156401 -0.32957208 0.4232338 -0.43810382 0.3028663 0.7142063
-0.70347446 0.70975095 0.9500577 -0.22155963 -0.92746264 0.69933105 -0.99581134 0.70617443
-1.430316 1.0752331 0.14892258 1.3479857 0.8105051 0.011033502 -0.71849376 0.9605722
-0.037354134 -0.20308886 -0.19231798 -0.19642366 -0.22098614 0.11660522 0.038490236 -0.12211332
0.11222419 0.030783439 -0.12357204 -0.17488594 -0.056493912 -0.10872976 -0.036272973 -0.13955851

2.bias f4 [24]
00000000: 85a7 033c 3a88 ae3d a21c c93c 50e3 c63e
00000010: cd8b 0b3f 211b 753f 2988 b8be 2592 4bbe
00000020: fbd0 8cbf 189a 893d b171 503d 1794 b63e
00000030: c1c5 1ebe a6f3 28be 459e 4a3e aa4a acbd
00000040: c78d 20bf 67ce e6bb 371b c4bf 7495 123f
00000050: 4df2 50be 4b5d d23e 5cc5 473f 0d3e c63e
0.008035545 0.08522077 0.024549786 0.388453 0.54510194 0.9574452 -0.36041382 -0.19879968
-1.1001276 0.06718844 0.050889675 0.3565986 -0.15505125 -0.16499195 0.19786938 -0.084126785
-0.62716335 -0.007043648 -1.5320805 0.572593 -0.2040493 0.41086802 0.7803552 0.38719216

4.weight f4 [4, 24]
00000000: d17f 483d 1829 093b 1171 e3bd 3b62 7c3d
00000010: 42c8 80bc a575 2cbd 9022 68bc 819d c1bd
00000020: c64a e9bc b632 5c3d 64a6 a93d 7824 d6bd
00000030: 1b3c bb3d 263a e4bd 4728 cfbc 92f7 cabd
00000040: f23f f7bc b781 31bd d019 fd3c a646 7a3d
00000050: 34f9 e2bd 5333 0b3c 4c7f 0bbe 8943 573c
00000060: 2640 ef3c 80fb 1fbc 9592 03c0 5cad b8bf
00000070: cdde 903f 4028 813f fa73 163e a5a5 28be
00000080: 00b2 bebf 8818 5c3f 121e 0a3e 8536 633f
00000090: 10f1 ae3c 1a0f bcbd 55fe 3a3e 416f 873d
000000a0: 63f6 593f 7213 9fbf 1539 4f3f cba0 853f
000000b0: 0266 403d 5d99 d1bf 0579 2bbf 0a39 debf
000000c0: af29 af3d 7447 c53d 32d9 ecbc 1334 f43d
000000d0: d7a6 15be 5068 7b3d a03e 33be 7ec7 773d
000000e0: 35ed 483d 7d1b 653c 0242 a13d ab91 00be
000000f0: a7ac b5bd 6b47 1fbe 7f38 05be 9a49 52bd
00000100: 5b0e afbc 4e20 ea3b 67b9 f33b ef50 473e
00000110: a06f 8fbc ab4f fdbd b894 dfbd 5088 983c
00000120: b432 6f3b 6354 17be 9eb6 303f 0893 83bf
00000130: b6b9 00bf 8663 78bf 380a 50be 41aa 6f3c
00000140: 85ac 3e40 21b3 683f 28f3 40bd a472 443f
00000150: 86c2 29be 0ffd 863c ed78 1a40 0b5f babe
00000160: 7a66 d33f 4702 cc3f abad 9f40 90ac 50bf
00000170: 3306 203d 50aa 58bf e970 80bf fcbe 4dbf
0.04895002 0.0020929035 -0.1110555 0.061617117 -0.01572049 -0.042104382 -0.014168397 -0.094538696
-0.028478038 0.0537593 0.082836896 -0.104561746 0.091423236 -0.111439034 -0.02528776 -0.099105015
-0.030181859 -0.043336596 0.030896097 0.06110253 -0.11082688 0.008496123 -0.13622779 0.01313866
0.029205393 -0.009764552 -2.0558217 -1.4427905 1.1317993 1.0090408 0.14692679 -0.16469438
-1.4898071 0.8597493 0.13488033 0.88755065 0.021355182 -0.09182568 0.18261082 0.06613017
0.8514158 -1.2427809 0.80946475 1.0439695 0.046972282 -1.6374928 -0.66981536 -1.7361157
0.085528724 0.09632769 -0.02891216 0.11923995 -0.14614426 0.061378777 -0.17504358 0.060492985
0.049054343 0.0139836045 0.07873918 -0.12555568 -0.088708214 -0.15554588 -0.13009833 -0.051339723
-0.02136915 0.0071449643 0.007437873 0.19464467 -0.017509282 -0.12368711 -0.10917038 0.018619686
0.0036498727 -0.14778285 0.6902865 -1.0279245 -0.5028337 -0.9702686 -0.20316398 0.014627994
2.9792798 0.9089833 -0.047106892 0.7673743 -0.16578111 0.01647809 2.4136307 -0.36400637
1.6515648 1.5938195 4.9899497 -0.8151331 0.039068412 -0.84634876 -1.0034457 -0.80369544

4.bias f4 [4]
00000000: e409 8bbf eb2c 9e3e 144d c7bf 0866 ce3d
-1.0862393 0.30893645 -1.5570397 0.10078055
