logs/target_params_A_375_onehot.pt (torch, 6383 bytes, 6 tensors)

0.weight f4 [24, 12]
00000000: 288d 42c0 0e8c 0a3b c148 e9c0 6d88 97c0
00000010: fee6 d1bf 8372 a3bf 055c 11bf 2ac4 9b3f
00000020: 1c8a bd3f 490d 1b40 f72f 04c1 588b 3340
00000030: e32f 4cc0 9894 933f 7b49 cbbe ce5d 77bb
00000040: 7f25 0e40 04ff 6dbf 92d4 863e 2258 26bf
00000050: 08a4 7540 845c 5ebf 3414 fabe fde6 51bf
00000060: 10e2 b7c0 918c d93f 23f1 fcbf 5878 7f3f
00000070: 5cb8 89c0 de3f ecbf 8d86 67c0 aa00 75bf
00000080: b5ac f43f b0fd 21c0 20e5 0ec1 874d f5be
00000090: 2778 36c0 88ad 3540 9e1d 8cbf 550f b9be
000000a0: 6d25 a8be 435b 30bf 0495 0b40 26c7 15c0
000000b0: 86cf 0f40 f395 c8bf 711e 0e3f bbb9 f43f
000000c0: 2997 c9bf 9b54 cd3e bd65 363d 661c c3bd
000000d0: 54e4 7b3e 786b 433f 8d53 023f fbde 9b3e
000000e0: 6798 54c1 8fcf 97bd 58d6 37bf 42c7 9b3e
000000f0: 042d 353f 5f4e 9dc0 02ef 03bf 1156 4cbf
00000100: d20d edbd a91e 803f 7093 473f b3e6 733f
00000110: b991 8e3e ed81 b03e 1a79 c13e 0bc9 9fbf
00000120: deb1 0dc0 6d95 01be f17a cabe bf6b 96be
00000130: eba8 d23f f55e 0dbf 087b 623c 2c81 2440
00000140: 1273 3dc0 6429 fa3f a387 2240 0727 63c0
00000150: 61d0 0740 2156 babf 13aa ff3e bfff fcbe
00000160: 9701 6dc0 e780 1fbf ca87 96bd 9f37 0940
00000170: 00b3 07bf cc3e 453e 9e1a 7440 fbae 793f
00000180: 05fb bebe 5b92 26bf a656 d13b 08fd 5bbe
00000190: 9d1d a53f c1c9 423f 0b23 7e3f 72e5 7f3f
000001a0: 0d08 de40 a745 f7be 5537 2140 e57e 0940
000001b0: d09f 1f3f 91a3 58c0 8328 5e3f 12ee f7bf
000001c0: c306 2fc0 2409 40be 3343 06c0 4672 70c0
000001d0: d914 ac40 05d3 dac0 59dc a43e 7700 48c0
000001e0: a3a0 3cbe 0f1d 95be a219 b9be 2fec f8bd
000001f0: d5d2 8fbe 62f2 d9be e855 b2be 6865 7dbe
00000200: d420 e63d 8e96 09be c09d 093c 1889 9bbd
00000210: 6019 12bf cfc7 9b40 6a17 153e 3d3a b0be
00000220: 8dad 0d3f 5abe 0540 e205 533f 8fa1 3d3e
00000230: 85eb 7b40 42b1 363f 22a6 03c0 148c 83bd
00000240: 82c3 11c0 fc21 15c0 a228 533f cd37 453f
00000250: 65e7 e4bf e749 1c3f 5bb9 5fbf 6ad4 b5be
00000260: ce06 4f40 f16a 54c0 c8f1 8c3f 9659 f8c0
00000270: cac5 0c40 75da 2340 9321 03bf 08eb ba3e
00000280: 9318 4fbe a34e 9ebe 26b7 84bf 91f2 3ac0
00000290: 8599 46c0 67d2 053f d346 ddbe 4ff4 ed3f
000002a0: 2dc4 90bf 6487 e7c0 ad9d ce3f 49ee a1bf
000002b0: a8de 0bbf 0f76 6ec0 10ef f4c0 82ef a9bf
000002c0: fc16 c43f 67d3 13c0 cae5 64c0 b2a3 94c0
000002d0: a785 1ec0 0123 a83f 7f10 95bd 550a e13e
000002e0: 0f52 27c0 d6cc 6340 8106 13bf 5696 263f
000002f0: 7a23 f03f eba6 f73a 5139 6ec0 376a 8740
00000300: 4bea bdbe 4a97 2340 1287 d7bf 8b4a b33f
00000310: 6478 3fc0 1be5 9abf ccd8 0b3f 6c29 11c0
00000320: 7ebf ee3d dfab 9640 304c b040 e8ce 1940
00000330: e618 1140 73d5 95bf 95d5 efbe 5cbb e13d
00000340: 408c 823f 7810 443f 3f1e 1b3f 6357 2ebe
00000350: 62e9 ca40 1ab8 cf3d 1070 a1c0 a213 0abf
00000360: 7a15 0dc0 95ce cfbf 2c40 fbbc 311c 71bd
00000370: cf04 173f fccf 1e3f 018b 30be 5428 eabf
00000380: 9ac3 a03f f189 60be 9a1a e0be f70f 7fc0
00000390: c61d 0ebf f7d0 0bc1 4ab4 06be 122b 1fc0
000003a0: f523 10c0 c7b5 86bf eb9d 2f3e 0b0f 953f
000003b0: 7c74 3d40 e64e cabf c02e 49c1 af8b c640
000003c0: a78a 72c0 1243 e2c0 e2d8 7cbd 6ea1 11c0
000003d0: b64e d7bf ff8a fabe fbc4 76bf e855 52bf
000003e0: 92db 8940 a807 393e 1d88 9f3e 1225 d840
000003f0: 6575 aa3f 821f 2cc0 9565 1f3f f1af 913f
-3.0398655 0.0021140608 -7.290131 -4.7354035 -1.6398618 -1.2769321 -0.56781036 1.216924
1.4807773 2.4226859 -8.26171 2.8053799 -3.1904228 1.1529722 -0.397045 -0.003774512
2.2210386 -0.9296725 0.26334053 -0.6497823 3.8381367 -0.8685992 -0.4884354 -0.81993085
-5.7463455 1.6996022 -1.9761089 0.99793005 -4.303755 -1.8456991 -3.6175873 -0.9570414
1.9115206 -2.5311089 -8.930939 -0.4791071 -2.8510835 2.8387165 -1.0946538 -0.3614451
-0.32841054 -0.68889254 2.1809702 -2.34028 2.2470412 -1.5670761 0.555152 1.911918
-1.5749255 0.4010361 0.04453062 -0.09526901 0.24598819 0.7633586 0.5090874 0.30443558
-13.287208 -0.074126355 -0.7181144 0.3042546 0.70771813 -4.915817 -0.5153657 -0.79818827
-0.11574902 1.0009357 0.77959347 0.95273894 0.27845553 0.34474126 0.37787706 -1.2483228
-2.2139812 -0.12654658 -0.39546922 -0.2937908 1.64578 -0.5522302 0.013823278 2.570384
-2.9601483 1.9543881 2.5395286 -3.549257 2.1220934 -1.4557534 0.49934444 -0.4941387
-3.703222 -0.62306064 -0.073501185 2.1440198 -0.5300751 0.19262236 3.8141246 0.97532624
-0.37300888 -0.6506707 0.006388503 -0.21483243 1.2899662 0.760891 0.9927222 0.9995948
6.9384828 -0.48295328 2.5190022 2.14837 0.6235323 -3.3849833 0.86780566 -1.9369528
-2.7347877 -0.18753487 -2.0978515 -3.7569747 5.377545 -6.838259 0.32199362 -3.1250284
-0.18420653 -0.29123732 -0.3615237 -0.121544234 -0.2809054 -0.42567736 -0.34831166 -0.24745715
0.1123673 -0.13436338 0.008399427 -0.07594508 -0.5706997 4.8681407 0.14559713 -0.34419432
0.5534294 2.0897431 0.8243085 0.18518661 3.93625 0.71364224 -2.057015 -0.06423202
-2.2775578 -2.3301992 0.82483876 0.7703827 -1.7883116 0.61050266 -0.87392205 -0.35513622
3.2347903 -3.3190272 1.1011286 -7.760936 2.199572 2.5602086 -0.51223105 0.3650744
-0.20224218 -0.3091937 -1.0368392 -2.921055 -3.10312 0.52274173 -0.43218097 1.8590182
-1.1309868 -7.235277 1.6141869 -1.2650844 -0.5463662 -3.7259557 -7.6541824 -1.3276217
1.5319514 -2.309778 -3.5765252 -4.6449823 -2.4769075 1.3135682 -0.07278537 0.43953195
-2.6143835 3.5593772 -0.574318 0.65073144 1.8760827 0.001889435 -3.7222483 4.2317157
-0.37092814 2.556109 -1.6838095 1.4007124 -2.991723 -1.2101167 0.5462768 -2.2681532
0.11657618 4.7084804 5.5093 2.4032536 2.2671447 -1.1705765 -0.46842638 0.11022064
1.0199051 0.7658763 0.60593027 -0.17025523 6.340989 0.101425365 -5.0449295 -0.5393621
-2.2044358 -1.6234919 -0.030670248 -0.058864776 0.5899171 0.6203611 -0.17240526 -1.8293557
1.2559693 -0.2192762 -0.43770295 -3.9853494 -0.5551418 -8.738517 -0.13154712 -2.4870038
-2.2521946 -1.0524224 0.17150085 1.1645216 2.9602346 -1.5805328 -12.573914 6.204551
-3.7897127 -7.0706873 -0.061730273 -2.275478 -1.6820896 -0.4893417 -0.9639432 -0.8216233
4.308053 0.18069327 0.31158534 6.754525 1.3317076 -2.689423 0.62264377 1.1381818

0.bias f4 [24]
00000000: 5b34 903f ca0e 4a40 3f0d ae3e bb57 e03f
00000010: 0e3c 1a41 5cf0 9d40 24e7 2f40 f477 b33d
00000020: d359 7cbf b770 833f 977c fbbe fd24 91bf
00000030: f68f d640 9b20 3040 0696 fa3f 5163 3e40
00000040: f2d1 3640 6b51 4dc0 a4a8 de40 1103 443f
00000050: b0f4 1440 e1a8 703e 36bf 6b3f 7cd8 0f3f
1.1265978 3.1571527 0.3399448 1.7526773 9.639662 4.9355907 2.7484827 0.087631136
-0.9857456 1.0268773 -0.49118492 -1.1339413 6.7050734 2.75199 1.9577034 2.9748118
2.856564 -3.2080944 6.958086 0.7656718 2.3274345 0.23501922 0.9208864 0.56189704

2.weight f4 [24, 24]
00000000: 3f2c 21bb f120 b6bd dc23 b43d 2618 83be
00000010: bca9 ddbc 0068 24bc 0da6 8cbd 9e1d 933d
00000020: 4d9e 0abe 0795 99bd 20e7 c63c 0b34 30be
00000030: deb3 99be c6a7 babd 78ed 7ebe 3766 9fbe
00000040: bbc1 4cbd 8a19 26be 6c30 20bd f2b2 febc
00000050: 5f6b 03bd ee4f d63c f160 2cbe 783e d1bd
00000060: dd3f c740 fea2 e7bf 8f13 6440 0e3f 26c0
00000070: 98a2 b7bf 804d 1ec0 8032 cabf b0df fec0
00000080: 3de4 f63f ed78 ea3f 0322 02be 46da 033f
00000090: de62 7b3e 7224 bac0 997c d740 5417 26c1
000000a0: 8aea bd3e 32a4 3abf 50eb 053f 0e76 4040
000000b0: b064 3ac0 6818 85c0 7824 b9c0 8f6d 55c1
000000c0: 0f7f 75bc db73 52bd 5649 193e 690c 06be
000000d0: 261b da3c 2c3a 37be cd58 5ebe 5fc5 57be
000000e0: 6960 5fbe c456 9b3d 66b8 023e 8d16 4fbe
000000f0: bb7d 00bd e6d1 48be d4c8 43bb d6f7 91be
00000100: 2857 9e3d 5085 19be d453 ec3d bcef 1abd
00000110: f32b 413d bb33 393d 4bdb 4abd 5792 3b3d
00000120: 297e a0c0 08e2 ccc0 e497 f8bf 964e cb3e
00000130: f066 22c1 cb09 343e 46b1 94bf bd7e 7d3e
00000140: 01db a8bc 4bfe 8d40 4704 10be b3e8 e53e
00000150: 07df c93f cc3d 0640 4b51 2b40 0336 2ec0
00000160: b937 20c1 fa02 1940 e86c 83c0 9888 2cc0
00000170: 1158 ff40 f29b f3be c236 32c1 3bd7 0fc0
00000180: 847b ad40 e752 a8bf 9088 d53f 7355 b4bf
00000190: 6fd0 db3d bf7c b23e f9c6 47bf 6e53 2bc1
000001a0: 2fa9 c23f b04f 0b40 fdc0 e3bd 2e82 38c0
000001b0: 7411 7c40 7aff dbc0 1383 3abe 413b fbc0
000001c0: ee0b 0540 8045 4f40 253c 3840 dec9 6840
000001d0: 7ed1 8dc0 2eb6 52c0 3397 bbc0 5e5b d5c0
000001e0: 6d76 95be 77c9 51be 92af 5cbd c1e8 a5bd
000001f0: 4c8e afbd bc4d 0bbe 1701 72be 46e2 df3c
00000200: 03e3 a6be 87e8 203d 4421 eb3d e96c 853d
00000210: 09e3 8dbe 2667 c4bd 6976 883d a85d 50be
00000220: 5d6e 81bd 7a81 1fbe a167 a93d b82e a43c
00000230: 0855 683d e24b 37be 4d19 63be 1bcb 08bf
00000240: 2cce a1c0 3945 e6bf 47df c0bf dac2 ccbe
00000250: 959b 40c0 ccaf 32c0 5f03 60c0 32ea 0ec1
00000260: f803 bcbf e8b3 bd40 ec22 84bd ebee 9d3e
00000270: 399c f53f 0f2e e8c0 fee2 ca40 186a 333f
00000280: 8b91 16c1 7515 c0bf 992b 6abf cc32 3f40
00000290: 29c3 9840 4085 3940 0f47 1ac1 6302 c3c0
000002a0: b3d6 b8c0 c40d 0bc1 bddf 39c0 cc26 313a
000002b0: fa72 6dc0 4f7c 84bf c437 8bc0 839b 7dc0
000002c0: 0bde a1bf 0dbd 1cbe 80c2 55be e251 033f
000002d0: 62b7 b83e 38fe afc0 6681 17c0 008c 1b3e
000002e0: 55ae 01c1 02a7 babf 4c61 64c0 e98e fc3f
000002f0: 3553 3940 355f a53f 3532 efc0 38e8 23c0
00000300: 6e12 24be b2b8 90be c64f 81bd c699 91be
00000310: 6d83 2fbe b3b3 8dbd 8a51 83bc c96c 0dbd
00000320: e6fb a2be c612 dfbd c032 01bd 3237 22be
00000330: 4b40 cebe 634b 1ebe 4c77 4bbd 7f13 43bd
00000340: 0705 73bd e6ce d1be 6f76 b9be 3174 17be
00000350: 6286 5abe bdcc 073b 6faa 9b3c 706d 9bbe
00000360: 4d81 b6c0 e291 ddc0 e16e 52c0 bfa9 3d3f
00000370: e9e7 86c0 903a 5bbf 7c2b 99c0 39f2 42c0
00000380: 6b85 c2bf f5e8 383f 6a6b 2dbe 32d0 90bf
00000390: f80f 9f3f a384 9dc0 0f4b f9bf bb97 c7be
000003a0: f8e7 1fc1 ef55 e6bf 297b f3bf 0297 d33f
000003b0: 802f 2140 5261 c03f f9cb 09c1 5258 41c0
000003c0: 05f5 9540 2568 0bbe 8aa5 a23f afcd 1bc0
000003d0: 83b1 3d40 718d f2be f1f3 8ac0 f677 30c0
000003e0: 1ec5 0d3f c2e4 363c ec41 de3d 3a1e 39c0
000003f0: 7a84 8b40 9012 aec0 0447 90c0 f393 62c0
-0.0024593023 -0.08893002 0.08795902 -0.2560436 -0.027058475 -0.010034561 -0.06867609 0.071833834
-0.1353695 -0.07499128 0.02428013 -0.17207353 -0.3002004 -0.091140315 -0.24895275 -0.3113267
-0.049989443 -0.1622068 -0.03910868 -0.031091187 -0.03208482 0.02616116 -0.16833855 -0.10216993
6.226546 -1.8096616 3.5636938 -2.5975986 -1.4346495 -2.4734802 -1.5796661 -7.9648056
1.9288403 1.8318154 -0.12708287 0.51504934 0.24549434 -5.816949 6.7339597 -10.380695
0.37093002 -0.7290679 0.52312183 3.0072055 -2.9123955 -4.1592293 -5.7857018 -13.339248
-0.014983906 -0.05138002 0.14969382 -0.13090672 0.026624274 -0.17893285 -0.21713562 -0.21071385
-0.21814121 0.075849086 0.12765655 -0.20223446 -0.031369906 -0.1961132 -0.0029874342 -0.28509396
0.077314675 -0.14992261 0.115394264 -0.037826285 0.047161054 0.04521535 -0.04952554 0.045793857
-5.0154004 -6.4025917 -1.9421353 0.39708394 -10.150131 0.1758186 -1.16166 0.24755378
-0.020612242 4.4372916 -0.14064132 0.44904098 1.5771188 2.0975218 2.6768367 -2.7220466
-10.013604 2.3908067 -4.107044 -2.695837 7.9795003 -0.47579914 -11.138369 -2.2475116
5.4213276 -1.31503 1.66823 -1.4088577 0.10733115 0.348608 -0.78037983 -10.707869
1.5207881 2.1767387 -0.11120794 -2.8829455 3.9385653 -6.874936 -0.18214063 -7.850983
2.0788531 3.238617 2.878671 3.637321 -4.431823 -3.2923694 -5.862207 -6.667403
-0.29191914 -0.20487009 -0.053878374 -0.08101035 -0.08572063 -0.13603872 -0.23633228 0.027329575
-0.3259507 0.039284255 0.11480954 0.065149136 -0.27712277 -0.095899865 0.0666321 -0.20348227
-0.06319878 -0.15576735 0.08271719 0.020041808 0.056721717 -0.17900041 -0.2217762 -0.53434914
-5.0564175 -1.7989875 -1.5068139 -0.3999241 -3.009496 -2.7919798 -3.5002058 -8.932177
-1.4688711 5.928211 -0.06451973 0.30846342 1.91883 -7.2556224 6.340209 0.7008376
-9.410533 -1.5006548 -0.91472775 2.9874754 4.7738233 2.898758 -9.642348 -6.0940413
-5.7762084 -8.690861 -2.904281 0.00067577953 -3.7101426 -1.0350436 -4.3505573 -3.9626167
-1.2645887 -0.15306492 -0.20874977 0.5129682 0.3607741 -5.4997826 -2.3672729 0.15190125
-8.105062 -1.4582217 -3.5684385 1.9731113 2.8957036 1.291968 -7.474879 -2.5610485
-0.16022655 -0.2826591 -0.06314044 -0.28437632 -0.17139979 -0.069190405 -0.016030092 -0.034527574
-0.31832808 -0.108922526 -0.03154254 -0.15841368 -0.40283427 -0.15458445 -0.049674317 -0.047626015
-0.059330966 -0.40978163 -0.3622317 -0.14790417 -0.21340325 0.0020721399 0.019002168 -0.30356932
-5.703284 -6.924058 -3.2880175 0.74087137 -4.2158093 -0.85636234 -4.786558 -3.046034
-1.5196966 0.72230464 -0.16935506 -1.1313536 1.2426748 -4.922441 -1.9476031 -0.3898295
-9.994133 -1.7994975 -1.902196 1.6530459 2.5185242 1.50297 -8.612298 -3.0210156
4.6861596 -0.13613947 1.2706769 -2.434429 2.9639595 -0.47373536 -4.342278 -2.7573218
0.553789 0.011162939 0.10852417 -2.89247 4.3599215 -5.439766 -4.508669 -3.54028

2.bias f4 [24]
00000000: c1f4 97bc 85fb 6abd be97 a3bd ce28 dec0
00000010: f5d4 703f 113b 50be 64cd 80bf 38f5 49c0
00000020: bf80 81be 241b 41c0 28de 883e b6dc 30be
00000030: 4a5f f53d 54d0 64c0 e853 f3bf 7eeb 0abf
00000040: ea3e 9940 5a7d a140 f594 4fbe 84b9 41c0
00000050: e905 34bf 3bf1 3740 afce 82c0 dce6 74c0
-0.018549325 -0.057368774 -0.07987927 -6.942481 0.94074947 -0.20335032 -1.006268 -3.155592
-0.25293538 -3.0172815 0.26731992 -0.17271695 0.119810656 -3.5752153 -1.9009981 -0.5426558
4.78893 5.0465517 -0.20271666 -3.026948 -0.7032152 2.8740985 -4.08773 -3.8265905

4.weight f4 [4, 24]
00000000: 09aa 7dbd 9e75 e940 9045 1a3e 5773 5040
00000010: 3b90 da3f 0019 0c3b d28c 94c0 1a20 c53f
00000020: 7d4c 69be c3af 7940 e5f8 9a40 076f efbf
00000030: 863b 8a3c 9531 983f aea8 db40 1a19 a840
00000040: 6378 8b3f 0504 f740 09f0 42bd 37a3 853f
00000050: eabd 98c0 daf6 a8c0 4e42 a4bf 98e9 ce40
00000060: d9c1 c9bd 4c6d f140 bdd8 193c 40a6 1a40
00000070: 8536 8d40 86d0 bcbc 8ab0 0141 91b6 e740
00000080: 8e08 63be ea83 cc40 1130 2ac0 488b d240
00000090: 4142 c040 d38e 0640 b759 5041 5888 8a40
000000a0: 66ef fcbf 26c4 b03f c374 023e a38b 2441
000000b0: d02e 533f d9e5 d7bf c317 8340 acd5 8bc0
000000c0: d430 703d e51e aac0 c148 663c b2f5 1bc0
000000d0: b4ec d83f 0219 74bd cb77 7cc0 7fb9 663f
000000e0: b89e 5a3e 4787 4bbe f6c5 a040 1be2 8540
000000f0: 53fa f2be d4ea 873f 9a95 6140 8684 7f40
00000100: 4767 9340 0e21 1940 f493 1cbd 07a7 9d40
00000110: 9cb0 b540 751b 48c0 1728 8640 ffc6 cd40
00000120: 1571 74bd a6a8 c340 d5d6 34bd 59fa 0dc1
00000130: 6645 ae40 a81e b03d c28d 6bc1 54a6 84c0
00000140: 3015 f33d fcc7 dec0 f74c df40 7d90 4f41
00000150: 3bf9 0340 f2d6 5240 47a6 8340 5600 d240
00000160: 1fa0 d23f f46e 083f 0974 06bd 3d53 92c0
00000170: 0aad 4240 38c0 d1c0 8d83 7640 7447 f440
-0.061929736 7.2956076 0.15065598 3.2570398 1.7075266 0.0021377206 -4.64219 1.5400422
-0.22783084 3.9013526 4.8428826 -1.8705758 0.016874086 1.1890131 6.864341 5.253064
1.0896114 7.7192407 -0.047592197 1.0440434 -4.773183 -5.2801332 -1.2832735 6.466015
-0.09851427 7.544592 0.009390053 2.416397 4.412905 -0.02304865 8.1056 7.241036
-0.22171232 6.391103 -2.6591837 6.579502 6.0080876 2.1024673 13.021903 4.3291435
-1.9760559 1.380986 0.12739854 10.284091 0.82493305 -1.6867019 4.0966506 -4.369833
0.058640316 -5.3162713 0.014055432 -2.436871 1.6947236 -0.05959416 -3.9448116 0.90126795
0.21349609 -0.19875823 5.024165 4.183851 -0.47456607 1.0618539 3.524756 3.9924636
4.606357 2.3926425 -0.038227037 4.926639 5.677809 -3.1266758 4.192394 6.4305415
-0.059678156 6.114337 -0.044150192 -8.87362 5.4459715 0.08599597 -14.722109 -4.1453037
0.118692756 -6.961912 6.978145 12.972775 2.0620868 3.2943692 4.1140475 6.562541
1.6455115 0.532943 -0.032825503 -4.572661 3.0418115 -6.554714 3.8517792 7.6337223

4.bias f4 [4]
00000000: 9b81 4840 39e6 9b40 5d4c 8c40 eb3c 51bf
3.1329105 4.8718534 4.3843217 -0.8173358
