logs/target_params_A_50_onehot.pt (torch, 14823 bytes, 6 tensors)

0.weight f4 [24, 100]
0	0xc0e8c45b	-7.273969
1	0x408fea8b	4.4973807
2	0x40a9f8ff	5.311645
3	0xc0fbaf97	-7.8651843
4	0xc08c19ca	-4.378148
5	0x4171840a	15.094736
6	0x4128f65e	10.560148
7	0xc0f53d63	-7.6637435
8	0xc08f79e6	-4.48363
9	0x40aa0b2c	5.3138638
10	0x40ad09cd	5.4074464
11	0xc01f1915	-2.485906
12	0xc0438ce5	-3.0554745
13	0xbfcbfca0	-1.593647
14	0x414cf329	12.809365
15	0x40ca366e	6.3191442
16	0xc10b97a7	-8.7245245
17	0xc0a3efca	-5.123021
18	0x40dbc238	6.8674583
19	0xbece355f	-0.40275094
20	0x3ec17cb8	0.37790465
21	0xc011c1f0	-2.277462
22	0x408caf13	4.3963714
23	0xc099afbf	-4.8027034
24	0xbf725885	-0.9466632
25	0xc080750a	-4.014287
26	0x3fb68e7c	1.4262233
27	0xbeb76dd1	-0.3582597
28	0xc1006788	-8.025276
29	0x41187c2b	9.530314
30	0xc076d000	-3.8564453
31	0xc04086c8	-3.0082264
32	0xc006752f	-2.1009023
33	0xbe203ff9	-0.15649404
34	0x3febca81	1.8421174
35	0x408f23eb	4.4731345
36	0xc0681e68	-3.6268559
37	0x409147ca	4.5400133
38	0x40eed353	7.4632964
39	0xc100e09c	-8.054836
40	0x414bd503	12.739505
41	0xbdd07da9	-0.10180218
42	0x411f698c	9.963268
43	0x3e80d6cb	0.25163874
44	0xc0c59e5e	-6.175582
45	0x404f4229	3.238413
46	0xc0043ae3	-2.0660942
47	0xc0255595	-2.5833485
48	0xc101018c	-8.062878
49	0x3fc7e81f	1.5617713
50	0x40f9a45e	7.8013144
51	0x3e967d37	0.29392406
52	0xc0c57d48	-6.171543
53	0xc05943b9	-3.3947585
54	0x3f9de155	1.2334391
55	0xc07a3469	-3.9094489
56	0x3e81c0e2	0.2534247
57	0x401db3cd	2.4640992
58	0x3f9466c5	1.1593863
59	0xbeb5c67c	-0.35502994
60	0x40a99f45	5.300692
61	0xc0a23e71	-5.0701222
62	0x3f79fe52	0.97653687
63	0xbed498fd	-0.4152297
64	0xbfc74b14	-1.5569787
65	0x4085ce5b	4.18144
66	0x40b86f7e	5.76361
67	0x40a1b986	5.053897
68	0xc119e428	-9.618202
69	0x404843b9	3.1291335
70	0x414cfaea	12.811258
71	0x40804c14	4.009287
72	0xbfe4db2b	-1.7879385
73	0xc0843754	-4.131754
74	0xbee8c6e5	-0.45464244
75	0xc05d3ffd	-3.4570305
76	0xbfb68502	-1.4259341
77	0x40f230bb	7.5684485
78	0x3f651ff7	0.895019
79	0x3fc94b81	1.5726167
80	0xc0e2759b	-7.076856
81	0x40a19bcd	5.0502687
82	0x3ec6ac07	0.3880312
83	0xc009a5b2	-2.1507382
84	0xc10c5714	-8.771259
85	0x404052c9	3.0050528
86	0xc07ab0a0	-3.9170303
87	0x402dbaf7	2.7145364
88	0xbd8802e3	-0.066411756
89	0xc028ce5e	-2.6375957
90	0x3ed3a3b5	0.41335836
91	0x40b86a6e	5.762992
92	0xbdd0e3d0	-0.10199702
93	0xbf19c7c9	-0.6007047
94	0x3f8ce0ad	1.1006066
95	0x414faf66	12.980322
96	0xbf4f2fd8	-0.8093238
97	0x3ef3b418	0.47598338
98	0x3f77fb29	0.96867615
99	0x412418f7	10.256095
100	0xc05d880d	-3.4614289
101	0xc08fe9e2	-4.4973
102	0x403d1c44	2.9548502
103	0xc122625f	-10.149016
104	0xbfdfd0c8	-1.748559
105	0x4102d069	8.175881
106	0x40c7e03b	6.246122
107	0xc11e0b70	-9.877792
108	0xc0ddb279	-6.928036
109	0x40b875b4	5.764368
110	0x40b6179c	5.690382
111	0x40429011	3.040043
112	0xc1219bde	-10.1005535
113	0xc08f9497	-4.4868884
114	0xc0cf49a0	-6.4777374
115	0x415e7d49	13.905587
116	0x401cbb6c	2.4489393
117	0x405536ae	3.3314624
118	0x40f340f9	7.601681
119	0xc0ba64db	-5.8248115
120	0xc0d2379f	-6.5692897
121	0xc0f93037	-7.7871356
122	0x3fa336a9	1.2751056
123	0xc00e2f8b	-2.2216518
124	0x40c1bb4e	6.0541143
125	0x4082bd7a	4.0856295
126	0x40ef9453	7.486856
127	0xc11cca29	-9.7993555
128	0xc0132cc3	-2.299607
129	0x40aa3de2	5.320054
130	0x40957058	4.669964
131	0xc1021210	-8.12941
132	0x40013925	2.0191128
133	0x403c836a	2.9455209
134	0x40876839	4.2314725
135	0xc10a8ef7	-8.659904
136	0xc0f14faa	-7.5409746
137	0xc0647ccb	-3.5701168
138	0x4109f2a7	8.621741
139	0x3f9d3c38	1.2284002
140	0xc00ae485	-2.1701977
141	0xc064fb0b	-3.5778224
142	0xc04ececa	-3.2313714
143	0xc0ac8c6b	-5.392141
144	0xc07db2f9	-3.9640486
145	0x4048215f	3.1270368
146	0x402b1fb1	2.6738093
147	0xc0ec56b1	-7.3855824
148	0xc09c9596	-4.89326
149	0x3f54073b	0.8282353
150	0x403449ec	2.8170118
151	0x406b4b5e	3.676475
152	0xc01c044a	-2.4377618
153	0x412e063b	10.876521
154	0x40389e5b	2.8846653
155	0xbf9e26b7	-1.2355565
156	0xc0e4211b	-7.129041
157	0xbfba62f4	-1.4561448
158	0xbddf1753	-0.108931206
159	0xbfd63c58	-1.6737165
160	0x3e477ec7	0.19481955
161	0xbd0b8d55	-0.03407033
162	0xc0810d20	-4.032852
163	0x4013c472	2.308865
164	0xc10c0048	-8.750069
165	0x40ab55ef	5.35424
166	0x40aedde8	5.464588
167	0x40a69a06	5.2063017
168	0xc0884042	-4.257844
169	0x4033d73d	2.810012
170	0x408d6013	4.417978
171	0x4010e463	2.2639396
172	0xc085df5a	-4.1835146
173	0x40816806	4.043948
174	0x40a0e06d	5.0273957
175	0x417508b6	15.314627
176	0xc0baf344	-5.8421955
177	0xc03645ea	-2.8480172
178	0x4025ce3b	2.5907123
179	0x40173abb	2.3629596
180	0x40271fd8	2.6113186
181	0x411852bb	9.520198
182	0x3ff4b09e	1.9116399
183	0xc001a420	-2.0256424
184	0xc076f728	-3.8588352
185	0x410cf716	8.810324
186	0x405336f8	3.30023
187	0x407f91ed	3.9932816
188	0xbf007f55	-0.50194293
189	0x413f2cb1	11.948411
190	0x4021f543	2.5305946
191	0x402196eb	2.5248363
192	0xc0e8f46b	-7.279836
193	0x4038cd59	2.8875334
194	0x40ca03c3	6.312959
195	0x40fbf5c9	7.873753
196	0xc0090f0b	-2.1415431
197	0x3dcf4763	0.10121038
198	0x3e1a9319	0.15095176
199	0x404d5e2c	3.2088728
200	0xc16f8d8f	-14.97206
201	0x407b0100	3.921936
202	0xbf071690	-0.527688
203	0x4002e3b7	2.0451486
204	0xbfb7eba7	-1.436879
205	0x4168d0d5	14.550984
206	0x40d24270	6.57061
207	0x40ab35ce	5.350318
208	0xc02b5436	-2.6770148
209	0x409ff7c8	4.9989967
210	0x409d9848	4.924839
211	0xc07f8e48	-3.9930592
212	0xc10323f9	-8.196282
213	0x4053300d	3.2998078
214	0x403b9fc3	2.931626
215	0x3e4a3607	0.19747172
216	0xc10f6f11	-8.964616
217	0xc0897d63	-4.296556
218	0x40c6bc69	6.2104993
219	0xc0ae3c34	-5.444849
220	0x414ba977	12.728873
221	0xc0cc923f	-6.3928523
222	0xc08ad531	-4.3385243
223	0x3fff086d	1.9924446
224	0xc076647c	-3.849883
225	0x40862875	4.1924386
226	0x409c34b7	4.881435
227	0xbe2d208e	-0.1690695
228	0xbc08b891	-0.008344785
229	0xc0a02806	-5.0048857
230	0x4063f5c6	3.5618758
231	0x3fbd2d38	1.4779425
232	0x411da250	9.852127
233	0x4120a494	10.04018
234	0xc05fd976	-3.4976478
235	0xc107711f	-8.465117
236	0xbfa6d755	-1.3034464
237	0x40241423	2.563729
238	0x4108a42d	8.540082
239	0xc0555f3f	-3.3339384
240	0x40c3bddf	6.1169276
241	0x3f1c4c75	0.61054164
242	0x413cf8d1	11.810746
243	0xbfffa368	-1.9971743
244	0xc14bc11a	-12.734644
245	0xc12125c9	-10.071725
246	0x4159dd3c	13.616512
247	0xc0773817	-3.8627985
248	0xbf62de96	-0.8862089
249	0xc0815302	-4.041383
250	0x4099986c	4.799856
251	0xc0dddcf4	-6.933222
252	0x408cb91a	4.3975954
253	0xc08a54f8	-4.322872
254	0x3b1ef9fa	0.0024257884
255	0xc0ef89cc	-7.485571

0.bias f4 [24]
0	0xc15bb71c	-13.732204
1	0xc1601bdc	-14.006802
2	0x412222b4	10.133472
3	0xc16a3800	-14.638672
4	0xc1619131	-14.097947
5	0xc11cf922	-9.810823
6	0xc1394e27	-11.58158
7	0xc15ae4f8	-13.680901
8	0xc19af288	-19.368423
9	0xc17cf2c0	-15.809265
10	0x3ef61b10	0.48067522
11	0xc186f3e1	-16.869081
12	0xc1819b43	-16.200811
13	0xc1919a0b	-18.200216
14	0xc16a552a	-14.645792
15	0xc1857820	-16.683655
16	0xc1897aff	-17.185057
17	0xc1732764	-15.197117
18	0xc1843265	-16.524607
19	0xc1919711	-18.198763
20	0x40f082c3	7.515962
21	0xc15043f0	-13.016586
22	0xc14a7dd2	-12.655718
23	0xc1912b11	-18.146029

2.weight f4 [24, 24]
0	0xbf50250b	-0.81306523
1	0x40e8d06b	7.2754416
2	0xc0d939e8	-6.7883186
3	0x40b8445c	5.7583447
4	0xc00aa083	-2.1660469
5	0xc0453e4c	-3.0819273
6	0x408266ad	4.0750337
7	0x41081787	8.505744
8	0x419b5c72	19.42014
9	0x40d1452f	6.5396953
10	0xc122664e	-10.149977
11	0x3f84e53d	1.0382458
12	0x4119269d	9.571927
13	0x4149261d	12.571805
14	0x4094801c	4.6406384
15	0x411c3212	9.762224
16	0x415e2e5d	13.886319
17	0x417c959e	15.786528
18	0x4091cdf2	4.55639
19	0x414dc35e	12.860197
20	0xc10a5ff7	-8.648429
21	0x3d86fab3	0.06590786
22	0x403efd5f	2.9842145
23	0x41724119	15.140893
24	0xc0ff1966	-7.9718504
25	0xc10281c1	-8.156678
26	0x4071388c	3.7690763
27	0xc08a244d	-4.3169312
28	0xc0ac952f	-5.393211
29	0xc00caa95	-2.1979115
30	0xc0b3aa28	-5.614521
31	0xc07a263d	-3.9085839
32	0x4121067a	10.064081
33	0x4166bad0	14.4206085
34	0x4051fee3	3.281182
35	0xc08675df	-4.2018886
36	0x406047bd	3.5043786
37	0x40d51881	6.659241
38	0xc0cc1e4c	-6.3786983
39	0x407c6162	3.9434438
40	0x40ad1417	5.4087024
41	0xc0f50a93	-7.657541
42	0x40dfce37	6.9939227
43	0xc00a02d7	-2.1564233
44	0x409a3ca5	4.819903
45	0x411e50ac	9.894695
46	0xbffa8b7c	-1.9573817
47	0x4025fb21	2.5934527
48	0x41230d4c	10.190746
49	0x41461b0a	12.381601
50	0xc0895398	-4.2914543
51	0x40f11647	7.5339694
52	0x40a87f08	5.2655067
53	0x3fc6ba85	1.5525671
54	0x40d36249	6.6057477
55	0x415f4dce	13.956495
56	0x41807d47	16.06117
57	0x41264282	10.391237
58	0xc1363de9	-11.390115
59	0x4112ddc2	9.17914
60	0x41480938	12.502251
61	0x4124ab5f	10.291839
62	0x4143ba43	12.232974
63	0x41995370	19.165741
64	0x415007e7	13.001929
65	0x417a75f8	15.653801
66	0x413857b4	11.521412
67	0x41867e3d	16.81164
68	0xc0f48c81	-7.6421514
69	0x40bc4d53	5.884439
70	0x40f7360f	7.725349
71	0x4143aa1d	12.229032
72	0x40df6273	6.9807677
73	0x4107f138	8.496391
74	0xc0f581d3	-7.6720977
75	0x40ef00a4	7.468828
76	0x40ccf9c2	6.405488
77	0x4012c7fc	2.293456
78	0x41175001	9.457032
79	0x410372e4	8.215549
80	0x413ea552	11.915361
81	0x40f3d02c	7.6191616
82	0xc0ed7ddf	-7.421615
83	0x411642e1	9.391328
84	0x411c7fe3	9.781222
85	0x418d62d9	17.673265
86	0x411298f9	9.162347
87	0x418dec3a	17.740345
88	0x3e26c862	0.16287377
89	0x40a5cde1	5.1813817
90	0x40fde1b6	7.9338026
91	0x418edf51	17.859041
92	0xc1361dc3	-11.382266
93	0x40c03ffc	6.0078106
94	0x40e81134	7.2521
95	0x4189586d	17.168177
96	0x40ef0a76	7.470027
97	0x410856f3	8.521228
98	0xc12694e4	-10.41135
99	0x4125c03e	10.359434
100	0x40a7e138	5.2462425
101	0x40918998	4.548046
102	0x412f6117	10.961204
103	0x411c2bfb	9.760737
104	0x4103ebc3	8.245059
105	0x40ec8e8b	7.3924003
106	0xc15be5e2	-13.743624
107	0x41073e24	8.452671
108	0x412c512f	10.76982
109	0x40a048ea	5.0089006
110	0x413e7485	11.903447
111	0x41879207	16.946302
112	0x3f4484b3	0.7676498
113	0x40daa2d0	6.8323746
114	0x40fd8fdb	7.9238105
115	0x4140b713	12.044696
116	0xc15ee4e3	-13.930881
117	0x40fe0303	7.9378676
118	0x41002c84	8.010868
119	0x41406a7b	12.025996
120	0x40da8727	6.828998
121	0x413a0dfa	11.628412
122	0xc0a5eac8	-5.18491
123	0x40c0f6a9	6.03011
124	0x40839f80	4.11322
125	0x3fc3eb3d	1.5306164
126	0x40df574c	6.9794064
127	0x41415fac	12.085857
128	0x41782424	15.508823
129	0x40f31d23	7.5973067
130	0xc0f4c43d	-7.648955
131	0x411ef070	9.933701
132	0x412ac34a	10.672678
133	0x41686844	14.525455
134	0x41152f75	9.324086
135	0x4181bf50	16.218414
136	0x413008bd	11.002133
137	0x413dc193	11.859759
138	0x40d875c2	6.7643747
139	0x418201c4	16.250862
140	0xc10efee7	-8.937232
141	0x40a94a37	5.2903094
142	0x40dd7443	6.920442
143	0x418d4dc7	17.662977
144	0x411c6093	9.773578
145	0x4151e78a	13.119028
146	0xc0d730ad	-6.724692
147	0x41006bea	8.026346
148	0x411567f8	9.337883
149	0x40a45c6e	5.136283
150	0x4105397a	8.326532
151	0x41394823	11.5801115
152	0x4172a846	15.166082
153	0x412a87e3	10.658175
154	0xc126e8fe	-10.431883
155	0x413db1af	11.85588
156	0x4147461a	12.454615
157	0x40caef82	6.341737
158	0x412b544f	10.708083
159	0x419273de	18.306576
160	0x411a5d06	9.647711
161	0x412b3121	10.699494
162	0x413e778d	11.904187
163	0x418ed2a8	17.85286
164	0xc127aa8a	-10.4791355
165	0x40c5c29c	6.180006
166	0x4108f7d0	8.560501
167	0x41518f24	13.097446
168	0xbe49588f	-0.19662689
169	0xbee01139	-0.4376314
170	0xbe72bc77	-0.23704706
171	0xbf00004b	-0.5000045
172	0xbed4b98a	-0.41547805
173	0xbe46020f	-0.19336723
174	0xbe1f1bab	-0.15537898
175	0xbec5de46	-0.38646144
176	0xbe59eca9	-0.21281685
177	0xbdee7a43	-0.11644413
178	0xbe11ab4c	-0.14225501
179	0xbe86834f	-0.26272056
180	0xbe9a1717	-0.3009574
181	0xbecce85d	-0.4002103
182	0xbebed374	-0.372707
183	0xbe90eb29	-0.28304413
184	0xbe9126f7	-0.2835004
185	0xbeb688ad	-0.3565115
186	0xbe259b84	-0.16172606
187	0xbe6c956c	-0.23103875
188	0xbe900934	-0.2813202
189	0xbecb2459	-0.3967617
190	0xbee4f365	-0.44716945
191	0xbec753e5	-0.38931194
192	0x40d1ba78	6.5540123
193	0x41169f48	9.413887
194	0xbff2b80e	-1.8962419
195	0x3f1ec5c3	0.6202051
196	0x3edb72cf	0.4286103
197	0x4004ecde	2.0769572
198	0x40d04566	6.5084715
199	0x41401e03	12.007327
200	0x41378f4d	11.472486
201	0x40ed1155	7.4083657
202	0xc0866160	-4.1993866
203	0x4182c607	16.346693
204	0x41237e49	10.218331
205	0x41944fee	18.539028
206	0x40d70181	6.7189336
207	0x411ff960	9.998383
208	0x4088521c	4.260023
209	0x410b71b4	8.71526
210	0x40bf1fd4	5.9726353
211	0x4134f405	11.309575
212	0xc151ff4d	-13.124829
213	0x3fd51263	1.6646236
214	0x411afcf6	9.686758
215	0x41abcf0e	21.4761
216	0x4183b5aa	16.463703
217	0xc111e65e	-9.118742
218	0xc149613b	-12.586238
219	0x40eb16e6	7.346545
220	0x418df89b	17.74639
221	0x40d02e38	6.505642
222	0x409e03df	4.9379725
223	0x41210431	10.063523
224	0x41299506	10.598883
225	0x41c33e34	24.405373
226	0xc12faa71	-10.979112
227	0x41529262	13.160738
228	0x41a6a993	20.8328
229	0x401a8948	2.414629
230	0x401644af	2.347942
231	0x416bb148	14.730782
232	0x3fd0b359	1.6304733
233	0x40b510f8	5.6583214
234	0x41459ee1	12.351289
235	0x41534e13	13.206561
236	0xc127b60e	-10.481947
237	0x3ffb7d9e	1.964771
238	0x3c059df7	0.008155338
239	0x41b546d7	22.65959
240	0x41b8d799	23.105272
241	0x40c96f64	6.2948475
242	0xc21efabf	-39.74487
243	0x3e92035c	0.28518188
244	0x41bbcc85	23.474863
245	0x41197f72	9.593615
246	0x41a4b2df	20.58734
247	0x41a1fafd	20.247553
248	0xc1066bb5	-8.401296
249	0x41bd6807	23.675795
250	0xc1f4f6ad	-30.620447
251	0x40e6cd16	7.212535
252	0x41acc163	21.594427
253	0x40d8725f	6.7639613
254	0xc2059f47	-33.405544
255	0xc18e15a0	-17.76056

2.bias f4 [24]
0	0x40ec375b	7.3817573
1	0x42dc582e	110.172226
2	0xc208ea3a	-34.228737
3	0xc204bf0b	-33.186565
4	0xc2208405	-40.128925
5	0xc1cfe0cf	-25.98477
6	0xc20e015a	-35.50132
7	0xbe575f41	-0.2103243
8	0xc0ae920f	-5.4553294
9	0xc20e1ff9	-35.531223
10	0x3e8919e7	0.26777574
11	0xbf9c0fcc	-1.2192321
12	0xc1dcb0d9	-27.586351
13	0xc1aee190	-21.860138
14	0xbed304f6	-0.41214722
15	0xbe33872b	-0.17532031
16	0xc118738e	-9.528212
17	0x42234cb3	40.8249
18	0xc21afcb2	-38.746773
19	0x42cb55a2	101.66725
20	0x4273841a	60.879005
21	0xc1e79cf9	-28.951647
22	0xc214116f	-37.017025
23	0xc1d23212	-26.274448

4.weight f4 [4, 24]
0	0xc1236999	-10.213281
1	0xc18607a1	-16.753725
2	0xc16ec9ae	-14.924238
3	0xc17e18ec	-15.881084
4	0xc166fa98	-14.43618
5	0xc159180e	-13.568373
6	0xc171ed6f	-15.120467
7	0xbdef2a4f	-0.116779916
8	0xc18fd881	-17.980715
9	0xc18cfcde	-17.62347
10	0xc21943cb	-38.316204
11	0x4191015a	18.12566
12	0xc164e67f	-14.306273
13	0xc21c7e2e	-39.123222
14	0xbe55b9ba	-0.2087163
15	0xbe2e8f4e	-0.17046854
16	0xc1a4649b	-20.549124
17	0xc16558a3	-14.33414
18	0xc1a339c0	-20.403198
19	0xc18de2e0	-17.735779
20	0xc183f271	-16.49338
21	0xc15b9aa4	-13.725254
22	0xc1819639	-16.19835
23	0xc14f4771	-12.954942
24	0xc093342d	-4.600119
25	0xc196a063	-18.828314
26	0xc17761ab	-15.461345
27	0xc12abad6	-10.670614
28	0xc12390c9	-10.222848
29	0xc1452da9	-12.3236475
30	0xc16c4867	-14.767676
31	0xbe1e1ff2	-0.15441874
32	0xbff67161	-1.925335
33	0xc1da4275	-27.28245
34	0xc233c1e6	-44.939354
35	0xc0befc05	-5.968264
36	0xc13bfc57	-11.749106
37	0xc1f3a7d2	-30.456944
38	0xbeeb199b	-0.45917973
39	0xbdd6005e	-0.10449289
40	0xc01b0cbb	-2.422652
41	0xc1b38214	-22.438515
42	0xc1d80974	-27.004616
43	0xc1af991e	-21.949764
44	0xc106dcd1	-8.42891
45	0xc14a6446	-12.649481
46	0xc17aed12	-15.6828785
47	0xc13c9ed5	-11.788777
48	0xc160a0b4	-14.039234
49	0xc1903dd7	-18.030195
50	0xc17d0341	-15.813294
51	0xc17294dc	-15.161343
52	0xc1903932	-18.027927
53	0xc1607c2f	-14.030318
54	0xc17eedfd	-15.933103
55	0xbe45def5	-0.19323333
56	0xc1386361	-11.524262
57	0xbe3a2fa1	-0.18182231
58	0xbf9c0e17	-1.21918
59	0xc11ed20f	-9.926284
60	0xc20d2b6c	-35.292404
61	0xc23c8db3	-47.13838
62	0xbe4edd64	-0.20201641
63	0xbe7d7bde	-0.24754283
64	0xc0e73173	-7.2247863
65	0xc18a0617	-17.252974
66	0xc18b8f65	-17.445017
67	0xc1a70c2c	-20.880943
68	0xc1248c94	-10.284321
69	0xc143d532	-12.23955
70	0xc17fee47	-15.995673
71	0xc12eabaa	-10.91691
72	0xc112d907	-9.177985
73	0xc185f274	-16.743385
74	0xc18d9dac	-17.701988
75	0xc17f7491	-15.965959
76	0xc19ed9ae	-19.856289
77	0xc14031fd	-12.012204
78	0xc186cf36	-16.851177
79	0xbe2f91f2	-0.17145517
80	0xbfaa9626	-1.3327072
81	0xc1960f07	-18.757338
82	0xc1f6479c	-30.784966
83	0xc1d27184	-26.305428
84	0xc152b6b3	-13.169604
85	0xc20e04ba	-35.504616
86	0x3ea7399b	0.32661137
87	0xbe80e0bb	-0.25171456
88	0xc0c53615	-6.162852
89	0xc144113f	-12.25421
90	0xc1bda674	-23.706276
91	0xc1994ffa	-19.164051
92	0xc1bc96a5	-23.573557
93	0xc163b406	-14.231451
94	0xc18b8f19	-17.444872
95	0xc146d353	-12.426593

4.bias f4 [4]
0	0xc2923b99	-73.1164
1	0xc275e591	-61.474186
2	0xc2806339	-64.193794
3	0xc1d30524	-26.37751
