logs/try1/target_params_A_75_onehot.pt (torch, 14823 bytes, 6 tensors)

0.weight f4 [24, 100]
000000 23 1d 2d c1 1e 7c 46 40 56 29 e9 c1 34 3c ba c1
       -10.819613 3.1013255 -29.145184 -23.279396
000010 7a b1 2c c1 88 3b b7 41 de 2e 9c c1 f2 b2 a5 c1
       -10.793329 22.904068 -19.522884 -20.712376
000020 22 e7 7f c1 55 41 5f c1 2b ed d5 c0 41 bf 7e c1
       -15.993929 -13.95345 -6.685201 -15.921693
000030 83 8f 2f c0 e9 de b8 c1 40 c9 c8 c1 ff 81 36 c0
       -2.7431343 -23.108843 -25.098267 -2.8516843
000040 15 c6 a7 3e 52 78 1f c2 d3 d2 84 c1 26 49 ab bf
       0.32768312 -39.8675 -16.602942 -1.3381698
000050 e1 56 af c1 27 56 03 c0 2d ba d4 c1 35 10 27 41
       -21.917421 -2.0521333 -26.590906 10.441457
000060 3f 8d 97 c1 ff 79 31 40 e6 3f 84 c1 1d a7 87 c1
       -18.943968 2.773071 -16.5312 -16.956598
000070 8d 7d f5 c1 18 7b 87 c0 13 11 49 c1 ba 0a 20 c1
       -30.686304 -4.233776 -12.5666685 -10.002619
000080 71 63 e1 41 37 c4 cc c1 a7 cc 65 c1 3a c2 9d c1
       28.173555 -25.595808 -14.362464 -19.719837
000090 2d 85 c3 41 d5 a3 c7 c1 59 e8 83 c0 c6 1c 00 c1
       24.440027 -24.954996 -4.1221128 -8.007025
0000a0 15 07 6e 3f 5a 98 f2 c0 52 71 93 c0 cd 7f 0b 40
       0.92979556 -7.5810976 -4.607583 2.1796753
0000b0 fb 80 b3 c1 fc 4c 02 c1 3c 39 eb 40 ca be ac c0
       -22.437979 -8.143795 7.3507366 -5.3982897
0000c0 61 ac b7 41 51 b1 35 c1 68 01 fc bf ad 21 d1 c0
       22.95917 -11.35579 -1.9687929 -6.535361
0000d0 1d b5 9c 41 90 ee 5f c1 3e 2d 99 c1 6b 95 91 c1
       19.588434 -13.995743 -19.14709 -18.197958
0000e0 55 6c d0 c0 b1 5d 93 41 76 96 aa c0 18 71 e2 c0
       -6.513224 18.420748 -5.330867 -7.0763054
0000f0 15 01 8a c0 50 b8 bd c0 90 f4 cf c0 fe 17 1d 41
       -4.312632 -5.928749 -6.498604 9.818357
000100 da 57 73 40 2b 77 9a bf e5 7a 20 c1 ec 4d 9a 40
       3.802237 -1.2067617 -10.030004 4.822012
000110 b9 18 f6 be 07 bb f6 41 16 b1 7d c1 2f 21 57 c1
       -0.48065737 30.841322 -15.855734 -13.445601
000120 bf e2 b4 c0 36 4f 93 41 ff e1 c2 c1 9b a2 87 c1
       -5.652679 18.413677 -24.36035 -16.954397
000130 0d 67 12 c0 d1 1c a6 41 ee 12 cd c1 f0 37 43 c1
       -2.2875397 20.76407 -25.634243 -12.201157
000140 d4 2c bd be 3b 9d 65 c1 1b 5f ff c0 e6 e1 12 41
       -0.36948264 -14.350886 -7.9803596 9.180151
000150 b9 3b e6 bf 4b e6 69 40 f0 97 4d bf ee b4 8a 41
       -1.7986976 3.654681 -0.80309963 17.338345
000160 7d 93 ec 41 1b 8e 2c c1 a7 94 4a c1 1c e4 39 c1
       29.572016 -10.784694 -12.661292 -11.618191
000170 cc 50 5c 41 fa 6b b8 be 81 81 51 c1 3b 99 7b 40
       13.769726 -0.3601988 -13.094117 3.9312274
000180 de 26 24 c0 e3 9b e4 41 5e 47 36 41 c2 c9 9b c1
       -2.5648723 28.576117 11.392424 -19.473515
000190 c5 f3 ba c1 54 8f 14 41 54 ce 62 40 97 1b 48 40
       -23.369028 9.284992 3.5438433 3.126684
0001a0 3b 65 0b c1 e9 47 1e 41 dd fa 20 41 94 ea 35 c1
       -8.712214 9.892556 10.061246 -11.36977
0001b0 a6 03 ee 41 6c 97 dd c0 a7 4d 2c 41 52 c2 38 c1
       29.751781 -6.924734 10.768958 -11.5474415
0001c0 33 f0 93 41 e5 8f fe 40 04 42 26 c1 58 8f 0d 42
       18.492285 7.9550653 -10.391117 35.389984
0001d0 99 48 5a c1 65 6b 69 41 f5 aa 2c bf 92 12 10 41
       -13.642724 14.588719 -0.6744836 9.004534
0001e0 a2 1d 11 c1 72 47 09 c0 a3 fe de c1 42 88 d6 41
       -9.069735 -2.1449857 -27.874334 26.816532
0001f0 c6 51 d7 c0 57 5e d6 3f a7 7f 1e 40 e1 bc e3 40
       -6.728732 1.674754 2.4765413 7.1168065
000200 f6 16 c9 41 6e f5 14 41 62 ae c6 40 3f e8 ed bf
       25.136211 9.309919 6.208787 -1.8586501
000210 5e fa 6e 40 af 95 2a 41 b6 bd 27 c1 6c 35 51 c0
       3.7340312 10.661544 -10.483816 -3.2688856
000220 00 4c 97 3f a9 30 c4 41 c3 9d 8d c0 48 44 a7 c0
       1.1820068 24.52376 -4.425508 -5.227085
000230 dd b8 09 c1 fb 49 94 c1 c8 1e af c1 c0 d7 ee 41
       -8.607633 -18.536123 -21.89003 29.855347
000240 50 ac a0 40 60 cc 9a c1 f5 f4 ed c0 fa 5e 73 40
       5.0210342 -19.349792 -7.436152 3.802672
000250 22 2c 67 41 f7 05 12 42 9f 90 37 c0 08 7a ef c1
       14.448275 36.505825 -2.868202 -29.934586
000260 45 0f 80 41 ff f6 bb 41 45 7f 1f bf e8 c3 99 c1
       16.007456 23.495604 -0.6230357 -19.220657
000270 cc 7b 05 c0 89 0d 96 41 82 b2 21 c1 e5 aa 25 41
       -2.085681 18.756609 -10.106081 10.354222
000280 af 5a d3 c1 b5 fa aa 3e 5e 4a b5 be 17 c0 01 c2
       -26.41928 0.333944 -0.354083 -32.437588
000290 7d 0e 37 41 37 b1 e9 c0 06 cc c7 c1 63 58 2c c2
       11.441037 -7.3028827 -24.97462 -43.086315
0002a0 43 9d 98 41 75 36 85 c1 6e 2b f6 c1 36 00 b1 c1
       19.076788 -16.65159 -30.771206 -22.125103
0002b0 c1 d4 b2 40 c5 e7 ce 41 b4 c0 fe bf d9 73 10 41
       5.588471 25.863169 -1.9902558 9.028283
0002c0 3d 08 69 40 62 86 f7 41 4d 9c 7c 41 de f9 6f 41
       3.6411278 30.940617 15.788159 14.998503
0002d0 1e cc ca 41 b1 62 85 40 6a 7e 10 c0 d5 b2 b0 c0
       25.349667 4.1682973 -2.2577157 -5.52183
0002e0 77 a6 54 40 a4 d9 62 41 02 80 5e 41 31 72 3f c0
       3.3226602 14.178135 13.906252 -2.9913447
0002f0 ae 7c c3 40 98 98 3a 41 ac 06 31 41 9d 64 0e c2
       6.1089697 11.662254 11.064129 -35.598255
000300 f2 11 11 c0 5b 92 eb 40 5a b2 09 40 c0 f4 ab 40
       -2.2667203 7.3616157 2.1515107 5.3736267
000310 86 57 9c 41 87 8f 8c 41 df 63 2c 41 cc b9 8c 41
       19.542736 17.570082 10.774383 17.590721
000320 65 81 46 c1 ad 3b 7c 40 f4 f6 25 42 b7 a6 63 bf
       -12.40659 3.9411423 41.491165 -0.8892626
000330 09 be ea 40 5e f3 9e bf ab 12 ea 41 d1 1e d5 c0
       7.3356977 -1.241802 29.259115 -6.660012
000340 64 0e 87 3f 65 30 3f 41 5f 1b 99 c1 3f 65 30 3f
       1.0551267 11.949315 -19.138365 0.6890449
000350 8f e5 0d c0 1f c2 a4 41 7f a9 a6 41 c6 e6 fc 41
       -2.2171361 20.594786 20.832762 31.612682
000360 d2 13 31 c1 1b bb b7 c1 ed 08 24 42 20 ef ec 41
       -11.067339 -22.96636 41.008717 29.61676
000370 99 32 cb c1 d4 8e 76 41 59 ae d0 c1 cc 9a 80 c1
       -25.399706 15.40987 -26.08513 -16.075584
000380 04 23 b1 41 d4 bc 45 40 1d a3 d6 c1 4c f4 b6 c1
       22.142097 3.0896502 -26.829645 -22.869286
000390 cd d1 ae 40 f9 3b 88 3f 6e cb f1 c0 a3 9f 5d 41
       5.4631104 1.0643302 -7.5560827 13.851474
0003a0 f9 c7 4f 41 90 d2 23 c1 5d e7 db 41 5a 04 6d 41
       12.986321 -10.238907 27.48797 14.813562
0003b0 d0 34 fa 40 f3 c5 88 c1 72 f5 a2 40 01 97 bc 41
       7.818947 -17.096655 5.0924616 23.573732
0003c0 9d 99 d6 41 b6 f5 62 40 a6 ef 93 c0 df 9b 3b 42
       26.825006 3.546247 -4.623004 46.902218
0003d0 04 21 74 41 e1 c5 7d 40 1e 25 96 41 23 7e 92 c1
       15.25806 3.9652026 18.768124 -18.31159
0003e0 9d d0 90 c0 f6 ce 4f bf 26 68 c2 41 64 2a f7 40
       -4.5254655 -0.8117517 24.300854 7.7239246
0003f0 b1 b3 cf c0 5e bc 95 3e 30 59 9b c0 d1 7f 6a 41
       -6.490685 0.29245275 -4.854637 14.656205

0.bias f4 [24]
000000 05 75 3f c2 7e 20 e2 c1 6b b6 93 c1 19 a4 31 c2
       -47.864277 -28.265865 -18.464071 -44.41025
000010 7e 66 4d 42 43 d2 24 c2 19 b5 68 c2 68 c2 15 c2
       51.35009 -41.205334 -58.176853 -37.43985
000020 41 23 c5 c1 51 c3 83 c2 db 28 76 c2 3e 70 66 c2
       -24.642214 -65.88148 -61.539898 -57.60961
000030 b7 94 a0 c1 80 71 5c c2 61 0f 73 c2 a0 bd f8 c0
       -20.072615 -55.11084 -60.76502 -7.7731476
000040 59 fe f1 c1 2b 9c f3 c1 af ec af c1 f5 30 0a c2
       -30.249193 -30.451254 -21.990568 -34.54781
000050 2c 26 3f c2 6c 20 f3 c1 99 74 63 c2 5c 9a e0 41
       -47.787277 -30.390831 -56.863865 28.07537

2.weight f4 [24, 24]
000000 3a 55 f3 40 3d 97 5d 40 93 b3 19 41 e9 08 01 41
       7.6041536 3.4623559 9.606341 8.064675
000010 c5 29 b7 c1 6b 91 17 40 7d 73 3a 41 2a 33 da c0
       -22.895395 2.3682506 11.653195 -6.8187456
000020 8f b5 c5 40 87 ee 99 3e 65 9a be 41 f7 45 d9 41
       6.178413 0.30064794 23.825388 27.159163
000030 0c 9c c9 c0 34 97 c3 41 27 2f db 40 4d da ef c1
       -6.3002987 24.44883 6.849506 -29.981592
000040 b8 d6 50 be a6 d0 05 40 a4 c1 21 c1 e5 5f fb c0
       -0.20394409 2.09086 -10.109776 -7.855456
000050 cd ae 24 41 eb 19 b3 41 55 e1 33 41 5d 63 f1 c1
       10.292676 22.387655 11.242513 -30.173517
000060 d2 32 91 41 94 e4 6f 41 87 e9 af bf fc d4 f2 40
       18.149815 14.993305 -1.3743142 7.588499
000070 0c ae 0a c2 21 85 2a 41 d3 39 00 42 8d 10 a7 c0
       -34.669968 10.657502 32.05647 -5.2207704
000080 dd 12 d5 40 5c aa ce c0 9f 4d 03 c0 b1 d7 80 c1
       6.6585526 -6.458296 -2.0516126 -16.105318
000090 c2 cf 89 40 31 7e 0f 42 44 da ba 40 6f de fb c1
       4.306611 35.873234 5.8391438 -31.48361
0000a0 b9 83 fa 40 be 36 4c 41 14 01 39 40 e3 75 0f c1
       7.8285794 12.763365 2.8906908 -8.966281
0000b0 fd 44 fd be fe 06 c3 c1 f0 33 88 41 33 b8 91 c1
       -0.49466696 -24.378414 17.02536 -18.214941
0000c0 5d 46 da 41 4e ca 88 41 27 49 4f 41 21 a1 9e 3f
       27.284357 17.098782 12.955359 1.2392923
0000d0 10 76 7a c1 ff b1 86 40 fe 77 78 bf ac d8 df 40
       -15.653824 4.209228 -0.97058094 6.995199
0000e0 f0 67 33 c0 8a 81 84 c1 31 65 86 41 b2 ea d0 41
       -2.8032188 -16.563251 16.79941 26.114597
0000f0 31 0c 13 c1 f0 3c f8 40 6e 0f d4 c0 3f 34 10 c2
       -9.190476 7.7574387 -6.6268835 -36.05102
000100 2f 91 fa c0 16 21 62 c0 ee 88 9e 40 05 1d 65 41
       -7.8302226 -3.5332694 4.954215 14.319585
000110 a9 b1 ab c0 41 8e b0 41 a4 a1 49 41 97 8c d9 c1
       -5.365437 22.06946 12.601963 -27.193647
000120 c0 37 d0 bf 36 0e 08 c0 eb 9a 11 bf 74 08 e7 bf
       -1.6267014 -2.1258674 -0.5687701 -1.8049455
000130 d8 de 43 bf 9d 74 06 c0 06 b0 e0 bf 0d 03 f5 bf
       -0.7651191 -2.1008675 -1.7553718 -1.9141556
000140 88 26 2a c0 1a 12 c9 bf b9 d9 e7 bf df 5f df bf
       -2.6586018 -1.5708649 -1.8113319 -1.7451133
000150 40 64 e0 bf b6 bd 0f c0 36 72 32 bf cf 7b 7a be
       -1.7530594 -2.245954 -0.6970552 -0.24461292
000160 cf ea ba bf 38 f3 20 c0 a7 4d 27 c0 fe 6b f3 3d
       -1.4602908 -2.514845 -2.6141145 0.11885832
000170 fb 02 01 c0 0b 06 9e bf 83 90 fc bf 9a de b7 bf
       -2.015807 -1.2345594 -1.9731601 -1.4364808
000180 89 1c b8 40 ad 20 47 c1 2f 7a 8c bf 28 0b c1 41
       5.7534833 -12.4454775 -1.0974787 24.130447
000190 95 1a ef c1 50 9b 91 41 ce 4f 57 c1 90 1c 2b c2
       -29.88798 18.200836 -13.456984 -42.777893
0001a0 57 d6 1d 41 ba 94 e8 41 b2 e3 2e 42 e2 d6 4b 42
       9.864829 29.07262 43.72236 50.959846
0001b0 10 24 c8 c0 8a b9 08 c2 90 ba c4 c1 5d 55 00 c2
       -6.254402 -34.18119 -24.591095 -32.083363
0001c0 c9 7e 35 c1 df d5 4f c1 38 a8 99 c1 57 92 46 41
       -11.343453 -12.989715 -19.207138 12.4107275
0001d0 6b bb 32 41 12 9d af 41 1e 07 47 c2 c5 54 cc c1
       11.170756 21.951694 -49.75695 -25.541391
0001e0 58 f4 08 bf 16 3a 2b bf a6 1a f1 be 5d 5a 19 bf
       -0.5349784 -0.6688551 -0.47090644 -0.5990351
0001f0 a1 41 f0 be 70 04 26 3d b2 d5 29 bf c8 ad 29 bf
       -0.4692507 0.040531576 -0.663417 -0.66280794
000200 f2 96 a1 bd 09 48 c0 be 90 ea 86 bc 36 da fe be
       -0.07890119 -0.37554958 -0.01646927 -0.49775857
000210 21 0a 30 bf 09 20 2e bf 6e 11 bc be 2a c9 14 be
       -0.68765455 -0.6801763 -0.36732048 -0.14529863
000220 a1 e2 01 bf cc f7 1c bf 98 f6 05 bf 3b 54 a5 be
       -0.50736433 -0.6131561 -0.523294 -0.32290825
000230 ee 00 b4 be 6f c1 29 be 46 0a 38 bf 08 1a ea be
       -0.3515696 -0.16577695 -0.71890676 -0.45722985
000240 e3 3f 17 bf f8 b2 39 bf a8 1a 38 bf 87 8e 3d bf
       -0.5908186 -0.7253871 -0.71915674 -0.74045604
000250 1f 3a 27 bf f8 a1 29 bf 6a b9 2c bf 4e e7 1a bf
       -0.6532306 -0.6626277 -0.6747042 -0.6050919
000260 df 1b cb be eb 37 19 bf ea a1 09 bf ba ce 0c bf
       -0.396697 -0.5985095 -0.53762686 -0.5500294
000270 64 0d 22 bf c2 30 27 bf b5 29 0d bf de 71 3b bf
       -0.6330168 -0.65308774 -0.55141765 -0.7322062
000280 0e 67 1f bf d9 2b 10 bf 84 e0 39 bf 1c d4 0e bf
       -0.62266624 -0.56316906 -0.7260821 -0.55792403
000290 3c 6d d6 be 41 67 0b bf 65 88 05 bf cb 6d f5 be
       -0.41880214 -0.5445443 -0.52161247 -0.47935328
0002a0 af 14 32 41 58 a2 8a 3f fd e8 77 3d 41 d0 12 c1
       11.13005 1.0830793 0.06052493 -9.175843
0002b0 dd f1 13 c2 60 9d bc 41 59 5d 87 41 c2 c0 0e 41
       -36.986195 23.576843 16.92058 8.92206
0002c0 c7 16 94 41 9e 49 87 c1 6d 22 b8 c0 13 90 60 41
       18.511122 -16.910946 -5.7542024 14.035174
0002d0 e1 02 cf c0 bb 08 2b 42 8d 8f 29 41 61 a7 a1 c1
       -6.4691014 42.758526 10.597547 -20.206728
0002e0 93 f7 34 41 5d 21 2e c1 3c ff 13 41 05 7d 88 41
       11.310443 -10.883145 9.249813 17.061045
0002f0 18 16 20 40 15 f1 b5 41 47 3f 17 41 6c 66 ec c1
       2.5013485 22.742716 9.452949 -29.55001
000300 b4 b5 65 c0 3a 43 97 bd 37 65 32 40 4a 8d 08 41
       -3.5892153 -0.07385869 2.7874277 8.534494
000310 b4 95 06 c2 94 d1 ee 41 9d 22 d0 41 3d 1a f7 c1
       -33.646194 29.852333 26.016901 -30.887812
000320 de 6d 33 3f 2b 02 99 c0 fb 32 d4 41 4c 90 65 c0
       0.7008952 -4.7815146 26.524893 -3.5869322
000330 da 62 39 c1 6a a2 e1 41 e7 9f aa 40 4a d5 12 c2
       -11.586634 28.204304 5.3320193 -36.70829
000340 e4 fb 20 40 ef 50 c0 40 2c cc 21 40 da bc 6a c1
       2.5153742 6.0098796 2.5280867 -14.671106
000350 93 9b f4 40 f9 0e 81 41 6a d0 f6 c1 65 02 f9 c1
       7.643991 16.13231 -30.851765 -31.12617
000360 e5 52 0e c1 34 af d5 c1 6e 9a 7f c1 10 f3 1f 40
       -8.895238 -26.710548 -15.975203 2.4992104
000370 83 ef 86 c2 41 11 07 bf b0 ab f4 c0 47 4b 52 41
       -67.4678 -0.527607 -7.645958 13.143378
000380 13 63 0c 42 c2 c2 f1 c0 29 00 0c 42 d6 46 0e 41
       35.096752 -7.555024 35.000156 8.892294
000390 1c be 5e c1 42 cc e4 40 72 4b 55 41 e2 f3 86 c1
       -13.921413 7.149934 13.330919 -16.869083
0003a0 cb 81 00 c0 91 06 33 c1 fb 08 c6 c0 cf 50 76 41
       -2.007922 -11.189103 -6.1885962 15.394729
0003b0 e9 1b 75 c1 22 e5 17 c0 17 00 95 40 f4 06 81 c2
       -15.319314 -2.3733602 4.656261 -64.51358
0003c0 d8 4c 97 c1 9a 81 5a 41 e7 72 96 40 08 1b 85 c1
       -18.912521 13.656641 4.701526 -16.638199
0003d0 86 19 4e c2 9f b0 bf c0 0f a4 c8 41 eb 84 7c 41
       -51.524925 -5.99031 25.080107 15.782451
0003e0 31 af 7a 41 de 6f 1d 41 1d 8a 88 c2 c4 5a c6 41
       15.667771 9.839811 -68.26975 24.79432
0003f0 2a 02 09 c1 26 32 1a 42 69 ea 8e c1 de 88 1b c2
       -8.563028 38.548973 -17.864458 -38.88366

2.bias f4 [24]
000000 e3 b9 f0 c2 e7 32 0a c3 c3 cf dd c2 53 6f 00 c0
       -120.36306 -138.19884 -110.905785 -2.0067947
000010 35 ef f5 c1 9e ce 39 bf 75 03 f5 be 02 7a d1 c2
       -30.7418 -0.725809 -0.478542 -104.7383
000020 8b ee b1 c2 ee a3 6d c2 81 9a 63 c2 56 76 05 c3
       -88.965904 -59.410088 -56.900883 -133.46225
000030 b5 2a 18 c3 86 47 c6 c2 6e 9a bf c2 de ad 8a c2
       -152.16682 -99.139694 -95.80162 -69.339584
000040 57 cd f9 c2 a5 b0 0b bf 43 a8 3f 43 9a a5 24 c0
       -124.901054 -0.54566413 191.65727 -2.5726075
000050 c0 1e 00 c3 16 7c 3e c1 82 dd cb c2 d6 97 1a bf
       -128.12012 -11.905294 -101.93263 -0.60387933

4.weight f4 [4, 24]
000000 ab 5d d4 c1 b8 d2 01 42 fb 47 5e c1 0e d9 50 c0
       -26.545736 32.45578 -13.892573 -3.263248
000010 95 d7 7f 42 20 c0 ff be dc d4 0d bf 1e e4 40 c2
       63.96053 -0.49951267 -0.5540292 -48.22277
000020 8a f9 31 c2 3c d4 59 c2 6b 30 6c c2 e1 97 3c c1
       -44.49369 -54.45726 -59.047283 -11.78708
000030 59 69 de c1 04 00 35 41 d6 8b 05 c2 f8 02 ab c1
       -27.80144 11.312504 -33.38656 -21.37645
000040 b3 13 03 42 f5 7d 10 bf fd 54 97 c2 fa 6c 9c 3e
       32.769238 -0.56442195 -75.66599 0.30551893
000050 a3 05 12 42 63 fa 77 c2 2b 2b 94 40 20 c7 fa be
       36.505505 -61.99452 4.6302695 -0.48980045
000060 56 de a0 c1 38 0e 89 c1 d3 eb 37 c1 ec f8 d3 3f
       -20.108562 -17.131943 -11.495074 1.656034
000070 3b 34 5f 42 14 5a 46 bd 4f 05 f3 be 87 5e 9e 40
       55.801006 -0.04842575 -0.47464988 4.949039
000080 cf 78 8b 40 1f c8 27 c2 8f ce b7 c1 86 62 28 c1
       4.358497 -41.94543 -22.975859 -10.524054
000090 29 67 85 c1 9c c5 fe c1 d8 10 87 c1 60 5b be c1
       -16.675371 -31.846489 -16.883224 -23.794617
0000a0 0b 7e 2f c2 75 04 06 bf 29 5b 99 c2 50 94 8b bd
       -43.87309 -0.5235055 -76.67805 -0.06815398
0000b0 af a9 ec c1 d9 9c 9c c2 5c 6e 4e 41 72 d7 1b bf
       -29.582853 -78.30634 12.901943 -0.6087562
0000c0 0f db e0 c1 2b 19 ed c1 bb e0 7b c1 82 17 2b 3f
       -28.106962 -29.63729 -15.742366 0.66832745
0000d0 23 f3 15 c0 70 68 06 3e 8f 2f 17 bf 93 ef db 41
       -2.342965 0.13125777 -0.59056944 27.49198
0000e0 45 f5 c3 c1 2b f8 dc c1 c0 0a a7 41 e1 46 92 c1
       -24.49476 -27.621176 20.880249 -18.284609
0000f0 5b 5a ac c1 3d 69 aa 41 64 35 9e c1 83 ce b1 c1
       -21.544119 21.301386 -19.77607 -22.225836
000100 b2 46 0c 41 ac 70 23 bf 32 f5 4e c2 e0 b8 29 bc
       8.76726 -0.638438 -51.73945 -0.010359019
000110 ee 45 0c 40 38 1c 5c c2 7b f3 dc c1 7c 7b e2 be
       2.1917682 -55.027557 -27.618887 -0.44234836
000120 4b 64 b6 40 cc fa d3 c1 af 8d f7 c0 7a 1a 1b c0
       5.699743 -26.49746 -7.7360454 -2.423491
000130 a6 f0 80 c2 57 9e a9 be 0d e1 d1 be 37 49 f7 40
       -64.47002 -0.33128616 -0.40992013 7.7276874
000140 1a 34 c8 41 a4 42 80 c1 f3 f9 1a 42 84 0a 15 c1
       25.02544 -16.03254 38.74409 -9.315067
000150 96 ed 56 c2 d0 42 99 c1 83 63 c6 41 95 ca b0 c1
       -53.732018 -19.157623 24.79859 -22.098917
000160 d2 33 55 c2 68 65 e0 be 8c a6 8a c2 80 0f 89 3b
       -53.300606 -0.43827367 -69.32529 0.004182756
000170 50 6e be c1 13 6c 9f c1 78 c3 53 c2 69 3d 2e bf
       -23.803864 -19.92777 -52.940887 -0.68062454

4.bias f4 [4]
000000 bf f0 80 c3 7e 85 eb c2 d7 bd 44 c3 e2 53 2c c3
       -257.88083 -117.76073 -196.74156 -172.32767
