logs/try1/target_params_B_150_onehot.pt (torch, 14831 bytes, 6 tensors)

0.weight f4 [24, 100]
0	0x4187b7e4	16.96479
1	0x41531323	13.192172
2	0xc1ac3196	-21.524212
3	0xc226c49a	-41.691994
4	0x41cf0c66	25.881054
5	0x41c5086b	24.62911
6	0xbde15006	-0.110015914
7	0xbfa24894	-1.2678399
8	0x41c20c22	24.255924
9	0x4153d196	13.238668
10	0xc08f7fb5	-4.484339
11	0xc1d20c26	-26.255932
12	0x4182c1b5	16.344584
13	0x416cb531	14.794236
14	0x411247fd	9.142575
15	0xc24b60af	-50.844418
16	0x41adcf6c	21.72628
17	0x419f56dd	19.917414
18	0x41b1fcb5	22.248392
19	0x41e184e7	28.189894
20	0x41bfb79e	23.964657
21	0x416bd0e0	14.738495
22	0xc2354a91	-45.32282
23	0xc28a9d43	-69.30715
24	0x41ed83a8	29.689285
25	0x41a33624	20.401436
26	0x403be9e8	2.9361515
27	0xc238d4d5	-46.207844
28	0x4193870c	18.44094
29	0x4112092d	9.12724
30	0xc1789a53	-15.537677
31	0xc184c75e	-16.597347
32	0xc1885f6f	-17.046598
33	0xc162837a	-14.157099
34	0xc161833e	-14.094542
35	0x41b5d51f	22.729063
36	0x4103c41b	8.235377
37	0x4183351d	16.400934
38	0x4212ab8e	36.667534
39	0x41c2a91b	24.332571
40	0xc192dd05	-18.35792
41	0x408c83d9	4.3910947
42	0xc1e9134e	-29.134426
43	0xc1b3076e	-22.378628
44	0x417c97d3	15.787066
45	0x4211b3c1	36.42554
46	0xc102aed1	-8.16768
47	0xc1cca6a6	-25.581371
48	0xc10d93f3	-8.84862
49	0x3f9fe56d	1.249189
50	0xc28da5a9	-70.823555
51	0xbeeaa1de	-0.4582662
52	0x4167f973	14.498401
53	0xc1e45a52	-28.544102
54	0x405c9e90	3.447178
55	0x41a6d912	20.855991
56	0x4142b1bf	12.168395
57	0xc0d714f4	-6.7213078
58	0x42582a03	54.041027
59	0x41b4f222	22.618229
60	0xc1a94bf4	-21.162086
61	0xc1213b67	-10.077003
62	0xbf18e37a	-0.597221
63	0xc1296e98	-10.5895
64	0x41e532a5	28.649729
65	0x41b8696d	23.051477
66	0x40912569	4.5358167
67	0x4097baf7	4.741573
68	0xc1f02217	-30.016645
69	0xbebb7234	-0.36610568
70	0xc27e06e0	-63.506714
71	0xc1ca8a07	-25.317396
72	0x410c26b2	8.759447
73	0xc1a2a2d3	-20.329504
74	0xc0f60262	-7.687791
75	0xc210222f	-36.033382
76	0xc1039060	-8.222748
77	0x417006a3	15.00162
78	0x422699e7	41.650295
79	0xc198eeb2	-19.11655
80	0xc15f03a5	-13.93839
81	0xc0fcb31a	-7.896863
82	0xc0a10e29	-5.0329785
83	0xc22b5ba4	-42.839493
84	0x418c32f8	17.524887
85	0x420523b2	33.28486
86	0x400a0567	2.1565797
87	0xc15c0c89	-13.75306
88	0xc1529d02	-13.163332
89	0x40210e9c	2.5165167
90	0xc1dc0cd7	-27.50627
91	0xc19b5115	-19.41459
92	0xc1ea64d3	-29.29923
93	0xc033442a	-2.8010354
94	0x3f9dddf0	1.2333355
95	0xc248a1e6	-50.158104
96	0xc1c40e75	-24.50706
97	0xc1783f2c	-15.515423
98	0x41fc13b5	31.509623
99	0xc11284a7	-9.157386
100	0x4105bbb4	8.358326
101	0xc204396a	-33.05607
102	0x42017371	32.362736
103	0x404a062b	3.1566265
104	0x40dd16cd	6.9090333
105	0x410114fb	8.067622
106	0x420df90f	35.49322
107	0x42080771	34.007267
108	0x41c3d415	24.478556
109	0x41cff51f	25.994688
110	0xc0127852	-2.2885938
111	0x417599ed	15.35008
112	0x41b2708b	22.304953
113	0x40c6cc58	6.2124443
114	0x41c89d2c	25.076744
115	0x3fae28d1	1.3606206
116	0x41086350	8.524246
117	0xc1719e4e	-15.101149
118	0x419e669a	19.800098
119	0xc1b9bb86	-23.216564
120	0x40e87c12	7.2651453
121	0xc19a687b	-19.301016
122	0x4020c550	2.512043
123	0xc13e89b5	-11.90862
124	0xc07d4b33	-3.9577148
125	0x40c488df	6.141708
126	0x40cf8f1a	6.4862185
127	0xc1a62230	-20.766693
128	0x41e86821	29.050844
129	0x41abd9aa	21.481281
130	0x416013b1	14.004807
131	0xc1555a29	-13.334512
132	0x411ebbf8	9.920891
133	0x4168ee01	14.558106
134	0x4069b5fc	3.6517324
135	0x41cf4bb4	25.911964
136	0xc1aa3187	-21.274183
137	0xc283c461	-65.88355
138	0xc09b62fc	-4.855833
139	0xc1b8f5c2	-23.119999
140	0x41d96ca4	27.178047
141	0xc193806e	-18.43771
142	0xc107893d	-8.471005
143	0xc17beeeb	-15.74583
144	0x41b5819e	22.68829
145	0xbe731a25	-0.23740442
146	0x415a044d	13.62605
147	0xc1119c79	-9.100701
148	0x418cafe8	17.585892
149	0x414a8d6d	12.659528
150	0x40fd36d1	7.9129415
151	0x41a5fb56	20.747723
152	0x4205f9a9	33.49381
153	0x40ab49ec	5.3527737
154	0x400a480d	2.1606476
155	0xc1694e30	-14.581589
156	0xc19d3911	-19.652864
157	0xc1973655	-18.90153
158	0x41d464d9	26.549242
159	0xc14e4a7c	-12.893185
160	0x420ae5e6	34.72451
161	0xc1220324	-10.125767
162	0xbff49355	-1.9107462
163	0x41905945	18.043589
164	0x42714697	60.318935
165	0x40f84a06	7.759036
166	0x41eb6d31	29.428316
167	0x3f7663c7	0.96246
168	0x40b3d06c	5.619192
169	0x417ef730	15.9353485
170	0x4145f6a0	12.372711
171	0x4042b7e6	3.0424743
172	0x41426f14	12.152119
173	0x42229a8b	40.65092
174	0x3e5669d2	0.20938805
175	0x41c0a97f	24.082762
176	0xc156f9b5	-13.435964
177	0xc15165c9	-13.08735
178	0x41188c39	9.534234
179	0x40f16b6e	7.544364
180	0x4175c8a6	15.361486
181	0xc11e9ff1	-9.914048
182	0x4157bab7	13.483085
183	0x4219abd6	38.41781
184	0x41b82de1	23.022402
185	0x4056e75c	3.357871
186	0x416fe4ce	14.9933605
187	0x42376cf3	45.856396
188	0xbfd66c80	-1.6751862
189	0x40bfec9d	5.9976335
190	0x42048e15	33.138752
191	0x422a6427	42.597805
192	0x40faa458	7.8325615
193	0x424ca239	51.15842
194	0x418547d6	16.660076
195	0x41b256a4	22.292305
196	0xc230a9de	-44.165886
197	0xc1e9baba	-29.216175
198	0x41e0f7f8	28.121078
199	0xc154e8ce	-13.306837
200	0xc20bebf0	-34.980408
201	0xc15b0a1b	-13.689967
202	0xc048f981	-3.1402285
203	0x3f9937a2	1.1970103
204	0xc1d4de4e	-26.608547
205	0xc1d994e5	-27.197702
206	0x410a1dcc	8.632275
207	0x3f4a56eb	0.79038876
208	0xc16cf741	-14.810365
209	0xc0a1e1fb	-5.0588355
210	0xc0d78bf7	-6.7358356
211	0xc20c9d67	-35.153713
212	0x3f62835e	0.884817
213	0x400b7bad	2.1794236
214	0xc19382ec	-18.438927
215	0xc0c2a6ec	-6.082876
216	0x4226246d	41.535572
217	0xc13667a1	-11.4003
218	0xc190e44d	-18.111475
219	0xc1949d70	-18.576874
220	0xc1a384e8	-20.439896
221	0xc11e27a2	-9.884676
222	0x40a5e14e	5.183753
223	0xc1c7f1ed	-24.993128
224	0xc1bc7c6e	-23.560757
225	0xc12d2c3c	-10.823299
226	0x4188caa3	17.098944
227	0xc1dd6c60	-27.677917
228	0xc1335ec8	-11.21064
229	0x3d68b47c	0.05681275
230	0xc0bda854	-5.926798
231	0xc20d1dea	-35.279213
232	0xbf33c7b4	-0.702266
233	0x413fdecb	11.991893
234	0x412d9856	10.849691
235	0xc1880f2f	-17.007414
236	0xc11e3090	-9.886856
237	0xc10cbfec	-8.796856
238	0x40c996c5	6.2996545
239	0xc229e03b	-42.468975
240	0xc1ed0030	-29.625092
241	0xbf3337c7	-0.70006984
242	0x416ed4fd	14.926999
243	0xc19daa53	-19.708166
244	0xc0e02903	-7.0050063
245	0x3f107391	0.5642634
246	0xc1828bad	-16.318201
247	0xc2016bb7	-32.35519
248	0x41818157	16.188154
249	0xbf4a90fd	-0.79127485
250	0x40801d69	4.00359
251	0xc23da595	-47.4117
252	0xc1cdca2b	-25.723715
253	0x41aaf393	21.368933
254	0xc197d6ff	-18.979979
255	0xc14b7e01	-12.718263

0.bias f4 [24]
0	0xc2a9a3eb	-84.82015
1	0x41f87519	31.057177
2	0xc2723e25	-60.560688
3	0xc2975d19	-75.68183
4	0xc2bab1f3	-93.34756
5	0xc19a4ed3	-19.288488
6	0xc287cfc9	-67.90583
7	0x418119b9	16.13756
8	0xc2ad68e9	-86.7049
9	0x400400b0	2.062542
10	0xc0f2d043	-7.5879226
11	0xc2545838	-53.08615
12	0xc2874d03	-67.65041
13	0x417c784d	15.77937
14	0xc298f851	-76.48499
15	0xc28b8500	-69.759766
16	0xc17881e3	-15.531711
17	0xc1a747c4	-20.910042
18	0x4246ec52	49.73078
19	0xc15fe124	-13.992466
20	0x41c6b422	24.837955
21	0xc2b2240b	-89.0704
22	0x418c4b59	17.53679
23	0xc2c471a3	-98.22195

2.weight f4 [24, 24]
0	0x41050109	8.312753
1	0x41199dd0	9.601028
2	0x3fb868cc	1.4406981
3	0x41bed301	23.85303
4	0xc1ac55bf	-21.541868
5	0xc2d7c85e	-107.89134
6	0x41a945c9	21.159075
7	0xc1e3ede9	-28.491167
8	0xc3054513	-133.26982
9	0x417d2260	15.820892
10	0xc19562c1	-18.67322
11	0xc237f76b	-45.99162
12	0x424f6d49	51.856724
13	0xc1f640de	-30.781673
14	0xbf86aa5f	-1.0520743
15	0xc26deba7	-59.48013
16	0xc11f6b58	-9.963707
17	0xc28b2a7c	-69.58298
18	0xc21e2472	-39.53559
19	0xc11bcec3	-9.737979
20	0xc1b836c9	-23.02675
21	0x41630a70	14.190048
22	0xc22ae122	-42.719856
23	0x41df6d4d	27.92837
24	0xbf19ca3b	-0.60074204
25	0xbf33bae7	-0.70207065
26	0xbf073238	-0.52811
27	0xbf2ef5cf	-0.68343824
28	0xbf170a63	-0.59000224
29	0xbf4cb1e5	-0.79958946
30	0xbf0d975f	-0.553091
31	0xbf415a2f	-0.75528234
32	0xbf21c5e5	-0.6319259
33	0xbf26a063	-0.6508848
34	0xbf30125d	-0.6877802
35	0xbf26de05	-0.65182525
36	0xbf0e4cc9	-0.55585915
37	0xbef5b938	-0.47992873
38	0xbf099ccd	-0.53754884
39	0xbf2de4c4	-0.67927194
40	0xbf3208a9	-0.69544464
41	0xbf3fcfb6	-0.74926317
42	0xbf34c236	-0.7060884
43	0xbf20d81b	-0.6282975
44	0xbef7abfe	-0.48373407
45	0xbf1268c0	-0.57191086
46	0xbf3896c1	-0.7210503
47	0xbf1ff0b4	-0.6247666
48	0x41ba5fbd	23.296747
49	0xc067ac3f	-3.619888
50	0x40994d56	4.7906904
51	0x40e214de	7.0650473
52	0xc1de5953	-27.793615
53	0xc14b7f1f	-12.718535
54	0xc24fd6fd	-51.95995
55	0xc2576641	-53.849857
56	0xc2523e74	-52.56099
57	0xc287f7c9	-67.983955
58	0xc217ec7c	-37.98094
59	0xc1d9f259	-27.243334
60	0x418d0ae4	17.630318
61	0xc1b243b4	-22.283058
62	0x4220d853	40.211254
63	0x41a14768	20.159866
64	0x4218cc27	38.199368
65	0xc1db5d47	-27.420546
66	0xc258622d	-54.095875
67	0xc1769ae3	-15.412814
68	0x413266f8	11.150139
69	0x40d7d3a5	6.7445855
70	0xc1c1bde0	-24.217712
71	0x41463508	12.387947
72	0x41d6b16f	26.836637
73	0xc072b6ca	-3.7924066
74	0x42412db8	48.294647
75	0xc18783e6	-16.939404
76	0x41c25b80	24.294678
77	0xc1d4f1fa	-26.618153
78	0x41754d3e	15.331358
79	0xc18b2b3e	-17.396114
80	0xc270851e	-60.129997
81	0xc1cd7b86	-25.685314
82	0x40f4ded7	7.652202
83	0xc27b1840	-62.77368
84	0x41ac11f0	21.508759
85	0xc156a64b	-13.415599
86	0x41cbc39c	25.470512
87	0xc2aa0af1	-85.02137
88	0xc15a442e	-13.641645
89	0xc16b5fc4	-14.71088
90	0xc29cce46	-78.40288
91	0xc0c6a5f3	-6.2077575
92	0xc1c3ffbf	-24.499876
93	0x41f76111	30.922396
94	0xc1dc5619	-27.54204
95	0x421e4a21	39.57239
96	0xc1418479	-12.094842
97	0xc210301d	-36.046986
98	0xc16f9a0c	-14.975109
99	0xc0a4ed4b	-5.1539664
100	0xc21f9c47	-39.902615
101	0xc1ea2e18	-29.272507
102	0xc154ee1e	-13.308134
103	0xc238be6b	-46.185955
104	0xc1b0288e	-22.019802
105	0xc23b4144	-46.813736
106	0xc28d6527	-70.69756
107	0xc1b76bb0	-22.927582
108	0xc2650a01	-57.25977
109	0xc23dcd52	-47.45051
110	0x41dd4590	27.658966
111	0xc1d8f93f	-27.121702
112	0x41875c92	16.9202
113	0x4216dab0	37.713562
114	0xc173ec7a	-15.245234
115	0xc16556f8	-14.333733
116	0xc1bfd098	-23.976852
117	0xc24f2754	-51.788406
118	0xc24d143c	-51.26976
119	0xc199fcbc	-19.248405
120	0x415c06e6	13.751684
121	0xbf50101a	-0.8127457
122	0xc1cd44db	-25.65862
123	0x40a3561a	5.1042604
124	0xc2278829	-41.88297
125	0xc156f379	-13.434442
126	0xc182c54d	-16.346338
127	0xc2cc1537	-102.041435
128	0x3dd82929	0.10554726
129	0xc251e454	-52.472977
130	0x41a3daba	20.4818
131	0xc204b69d	-33.178333
132	0xc2596121	-54.344852
133	0xc283e863	-65.95388
134	0x4189ce60	17.225769
135	0x41903595	18.026163
136	0xc28e6e48	-71.21539
137	0xc2fe72a0	-127.22388
138	0x4156b604	13.419437
139	0xc2dc33cf	-110.10119
140	0x3f820df8	1.0160513
141	0x4154a770	13.290878
142	0xc0d76007	-6.730472
143	0xc1a968e1	-21.17621
144	0x417a2c04	15.635746
145	0xc106d849	-8.427804
146	0x423b7394	46.86287
147	0x414b2252	12.695879
148	0xc09c9473	-4.8931212
149	0xc2122e18	-36.545013
150	0x40425f8a	3.0370812
151	0xbfcdc251	-1.6074926
152	0x42a186da	80.76338
153	0xc092649c	-4.5747814
154	0xc24dc118	-51.43857
155	0xc1d30987	-26.379652
156	0x419c7fa1	19.562319
157	0xc0cee4c7	-6.465427
158	0xc1bcde75	-23.608622
159	0x421cd6ee	39.209892
160	0xc2a10090	-80.5011
161	0x41646887	14.275519
162	0xc21f30ab	-39.797527
163	0xc26e5809	-59.58597
164	0x402a47be	2.6606288
165	0x41725bb2	15.147387
166	0x4043ac0b	3.0573757
167	0xc09eddaa	-4.9645586
168	0x40eafd3e	7.3434134
169	0xc1f868ca	-31.051167
170	0xbf5fa485	-0.8736041
171	0x4217e2f2	37.971626
172	0x411f1925	9.943639
173	0xc0f5ac47	-7.67728
174	0x41c7bf46	24.968395
175	0xc0969525	-4.705706
176	0x41132420	9.19632
177	0xc1ad11d4	-21.633705
178	0xc18567da	-16.675709
179	0x418cd35a	17.603199
180	0xbef45d0b	-0.47727236
181	0xc2487613	-50.115307
182	0xc1892840	-17.144653
183	0x40a88fb9	5.2675443
184	0xc209a4a4	-34.41078
185	0xc1d8bbce	-27.091702
186	0xc160a393	-14.039935
187	0xc1b8d859	-23.105639
188	0xc203009f	-32.750607
189	0xc17ead20	-15.917267
190	0xc26048da	-56.071144
191	0xc1911207	-18.133802
192	0xbeb9d9c2	-0.3629895
193	0xbf356c31	-0.7086821
194	0xbed6451e	-0.41849607
195	0xbf35c6c8	-0.7100644
196	0xbf3d482e	-0.7393826
197	0xbec37cbb	-0.381811
198	0xbf388c71	-0.72089297
199	0xbf24f03c	-0.6442907
200	0xbebe986e	-0.3722567
201	0xbebeb0ed	-0.3724436
202	0xbf05d54f	-0.5227861
203	0xbf0bafb9	-0.54565006
204	0xbf227aba	-0.63468516
205	0xbf22b531	-0.63557726
206	0xbf100cf1	-0.56269747
207	0xbebbb10a	-0.36658508
208	0xbeba0b64	-0.36336815
209	0xbf1fd3a3	-0.62432307
210	0xbf0e72ad	-0.5564373
211	0xbf25d073	-0.64771193
212	0xbf287af9	-0.6581264
213	0xbee09c9d	-0.43869486
214	0xbf02ee1f	-0.51144594
215	0xbf20c134	-0.62794805
216	0xc1f8b588	-31.088638
217	0xc2264a73	-41.572704
218	0xbcafe2be	-0.021470424
219	0xc0d02f90	-6.505806
220	0xc2014b3f	-32.323483
221	0x40f6a581	7.707703
222	0x41b2bed8	22.343185
223	0xc1a85b07	-21.044447
224	0xc10803dc	-8.500942
225	0xc2213e3a	-40.31077
226	0xc0ee1095	-7.439524
227	0xc20c3b81	-35.05811
228	0x4089eb9a	4.31001
229	0xc1a12e12	-20.147495
230	0x41538b9b	13.221583
231	0xc13e9cee	-11.913313
232	0xbff57140	-1.9175186
233	0xc21e9691	-39.647038
234	0xc212dc00	-36.714844
235	0xc18a6398	-17.29863
236	0xc1cc7b4c	-25.560204
237	0x3faea3b0	1.3643703
238	0xc24f706b	-51.859783
239	0x3e67a8f1	0.2262304
240	0x4101e7e7	8.119117
241	0xc1a1d487	-20.228773
242	0xc19746b3	-18.909521
243	0x3da9f130	0.08297956
244	0xc186e847	-16.863417
245	0xbeadc0bb	-0.33936104
246	0x3f499e05	0.78756744
247	0xc1b0f157	-22.117842
248	0x422089f1	40.13471
249	0xc2188475	-38.129353
250	0xc0f5c12a	-7.6798296
251	0xbfa0e8b7	-1.2571019
252	0x417eb380	15.918823
253	0xc25a2f75	-54.546345
254	0xc19564ea	-18.674274
255	0x40e5f593	7.1862273

2.bias f4 [24]
0	0x43363fb7	182.24889
1	0xbf061d92	-0.5238887
2	0xc1bc975f	-23.573912
3	0x431eaa9a	158.66641
4	0x41aca5de	21.58099
5	0x4205ef31	33.483585
6	0xc22efb20	-43.74524
7	0xc2117f0f	-36.37408
8	0xbf29e8a7	-0.66370624
9	0xc128d6a1	-10.5524
10	0xc2323f5e	-44.561882
11	0xc25568f8	-53.35251
12	0xc24db99f	-51.43127
13	0xc163d3c0	-14.239197
14	0xc1c55f67	-24.671583
15	0x4321de0c	161.86737
16	0xc19654f2	-18.791477
17	0xc1c598b4	-24.699562
18	0x3f617d6b	0.88082
19	0xc25f95fd	-55.896473
20	0x428adde9	69.43342
21	0xc1bff1ad	-23.993006
22	0xc289b2c3	-68.849144
23	0xc01d0652	-2.4535108

4.weight f4 [4, 24]
0	0xc2c14703	-96.638695
1	0xbf21bc87	-0.63178295
2	0x422ecaee	43.698174
3	0xc25c73ae	-55.11297
4	0xc24cfa37	-51.24435
5	0xc2a19bdf	-80.804436
6	0x4290c6be	72.38817
7	0x42085b8e	34.08941
8	0xbf1188b3	-0.5684921
9	0xc16630b8	-14.386894
10	0xc2062e03	-33.544933
11	0x423f6a0e	47.85357
12	0xc212d84a	-36.71122
13	0xc23431ba	-45.04856
14	0xc1bf378a	-23.902119
15	0xc254fdc8	-53.247833
16	0x428279ff	65.23827
17	0x41e60292	28.751255
18	0xc05694e6	-3.352838
19	0xc28456d6	-66.1696
20	0xc199a83d	-19.207148
21	0xc24953fd	-50.33202
22	0x4208e3dc	34.22252
23	0xc218c37e	-38.19091
24	0xc259d16a	-54.454506
25	0xbf1267d5	-0.57189685
26	0xc27e670d	-63.600636
27	0xc2301476	-44.01998
28	0xc26e0d34	-59.512894
29	0xc2690b56	-58.26107
30	0x42759518	61.3956
31	0xc0c0075f	-6.0009
32	0xbebef104	-0.37293255
33	0xc22c7390	-43.112854
34	0xc1cc1b7f	-25.513426
35	0x41bb82f5	23.438944
36	0x42664264	57.564835
37	0xc1484153	-12.515948
38	0xc081a100	-4.0509033
39	0xc231f454	-44.4886
40	0x424ecf78	51.702606
41	0x424882e6	50.12783
42	0x420bc29c	34.94005
43	0xc2076424	-33.847794
44	0xc198d3e7	-19.103468
45	0xc27205ab	-60.505535
46	0x413c8f7b	11.785029
47	0xc22a58fe	-42.586906
48	0xc24c626a	-51.096107
49	0xbee72276	-0.4514348
50	0x422a2a1c	42.541122
51	0xc1f1c910	-30.223175
52	0xc2aa4338	-85.13129
53	0xc22d7497	-43.363857
54	0x42aaa0a0	85.31372
55	0xc20f80b1	-35.875675
56	0xbf0b76eb	-0.5447833
57	0xc201da93	-32.46345
58	0xc1ab22fc	-21.392082
59	0x4252e96a	52.727943
60	0x3fc41867	1.5319947
61	0xc2351202	-45.267586
62	0xc1c205ae	-24.252773
63	0xc251e66e	-52.47503
64	0xc16d4dec	-14.831524
65	0x4259babb	54.432354
66	0xc1fe49fc	-31.786125
67	0xc2591363	-54.268932
68	0xc19c029d	-19.501276
69	0xc24ea0fb	-51.657207
70	0x42179225	37.89272
71	0xc24110f9	-48.266575
72	0xc20bd4d0	-34.957825
73	0xbeff2686	-0.4983408
74	0xc28e15da	-71.04268
75	0xc270f3d5	-60.238117
76	0xc27d26a6	-63.287743
77	0xc20f9075	-35.89107
78	0x4291176c	72.545746
79	0xc1f84f89	-31.038836
80	0xbf0e52ed	-0.55595285
81	0x421bbde5	38.935444
82	0xc201990e	-32.399467
83	0x41bd4928	23.66072
84	0xc0c01204	-6.002199
85	0xc21b7a56	-38.86947
86	0xc163cc15	-14.237325
87	0xc229b25c	-42.42418
88	0xc20c5ef8	-35.092743
89	0x420642e8	33.56534
90	0xc1f751fd	-30.915033
91	0xc1beca2b	-23.848715
92	0xc19cc573	-19.59641
93	0x422a0fc4	42.515396
94	0x4219e163	38.470104
95	0xc251caf9	-52.448215

4.bias f4 [4]
0	0xc425b948	-662.895
1	0xc41cc940	-627.14453
2	0xc42c361c	-688.84546
3	0xc4126eb5	-585.7298
