logs/try1/target_params_A_150_onehot.pt (torch, 14831 bytes, 6 tensors)

0.weight f4 [24, 100]
00000000: e63f 97c1 84e5 13be f94b 1dc0 4aff b2c1
00000010: f54e 30c1 4e7b 66c0 3541 e7c1 544f 4cc2
00000020: 4225 7c41 35c0 4f41 6871 dfc1 41f9 0fc2
00000030: df52 b640 16ba d73f 26ac 8cc1 61bb fbc1
00000040: c404 91c0 908c 0fc0 84ee 17c2 6a38 bfc1
00000050: ebaa d5c1 6724 f6c0 5214 3fc1 8618 abc1
00000060: cb4c cdc1 8bf7 bcc1 ef24 25c2 0c5f 4ec2
00000070: 0a89 f440 adce eac1 b0ae ecc0 ed76 84c0
00000080: 328b bbc1 5fd7 b6c1 159b ecc0 077d cbc1
00000090: 1d7e c2bf 2a73 29c2 f23c 08c2 f9cf fcc1
000000a0: e01f 3ec1 4dc0 9cc0 73ae 0cc2 333e 7f41
000000b0: 083c 0141 f990 c641 d9ab 0d42 b503 c4c1
000000c0: 1e65 3a40 d1de f1c1 7da5 b8c1 2464 0cc1
000000d0: 4adf 0dc1 956b 25c2 cb72 fbc1 b2f6 95c1
000000e0: 9768 59c1 327c 4fc2 0052 03c2 535a a4c0
000000f0: af00 b9c1 11b1 ee41 3778 ac41 9dac bcc1
00000100: 7bcf f4c0 cbd5 2042 c3bf 4c41 333a 4ac1
00000110: de45 fbc1 3e89 5fc2 3bdc 48c0 ba3b c5c1
00000120: 9c44 90c0 3454 2fc2 55b4 adc1 2e05 a93f
00000130: 07fd dec0 f8b0 67c2 7945 f2c0 01a6 34c2
00000140: f372 0742 ca88 bfc0 71b2 f3c1 2716 9ec0
00000150: a48a 32c0 27dd 9d41 a068 14c2 7c10 b7c0
00000160: 8672 d041 fb87 3442 de1a 0140 1d5f d4c1
00000170: 55bc f640 1a8f 19c2 3778 ae40 3fac 8041
00000180: bf0f 56c2 f84e 7ec2 4a32 04c2 5895 30c2
00000190: 0e9f a4c1 1cf0 1e41 b318 88c2 8e8b 0642
000001a0: bdfd 9ec1 31e3 e7be f27c d0c2 2344 8b41
000001b0: ce6b cbc0 7135 b141 0530 aac2 09a4 a941
000001c0: cc31 56c1 192f 8341 7476 68c2 40de 2742
000001d0: 84e7 2dc0 179d e741 d017 b8c1 cd43 2042
000001e0: d692 1dc2 b8e9 c93f 29f0 67c2 7174 d3c1
000001f0: 89ff 23c2 c26a da40 e0b3 18c2 4722 0c41
00000200: ac18 55c0 5913 fd41 cecd c7c1 18c2 bd41
00000210: 973b 2cc1 c3b9 2a42 d40b 56c2 558a ef41
00000220: ac70 2041 6c35 ed41 565d d040 5818 9941
00000230: aac8 f9c1 1931 5241 b078 ddc0 ffc5 3cc2
00000240: fcea c5c1 b756 9a41 74a7 8041 aade c741
00000250: b2a2 81c0 e15c fa41 42c4 b8bf 465a ec3e
00000260: 730e b43f dab1 2342 28a0 03c2 f5d9 6542
00000270: 6129 fa3f 29ec d441 d7a0 06c2 e820 0242
00000280: da26 e2c1 9725 fec1 4bd1 3941 45cd 52c2
00000290: cbd5 9cc1 9541 b1c0 fcec de41 1513 59c1
000002a0: 583b cdc0 31c2 b241 fff3 c841 be17 3a41
000002b0: f5d3 8cc1 8998 c440 84b4 4c41 88fe 0042
000002c0: 31a3 78c1 4130 8a41 556b f5c0 90b2 f241
000002d0: 90a3 e1c1 4500 5bc1 a63c c440 afd2 ebc1
000002e0: 7236 d2c1 e19d 06c1 8823 5541 7feb 29c2
000002f0: 1967 1ac1 45b7 0041 468d 1d42 1919 af40
00000300: c3f8 73c1 a638 0f41 e454 2e42 9aed f441
00000310: 1b83 0fc1 22c8 3141 199f 3ac1 42c2 5a41
00000320: fa89 4b42 30a6 1841 b957 9c42 c0d2 0342
00000330: bee4 ae41 443a 0242 e413 e441 d67e 8fc1
00000340: fa46 8341 1110 2a42 b759 65c1 3b14 5e41
00000350: 6758 2e42 e270 0942 caca bdc1 65c0 c041
00000360: 75df 8042 eee8 0442 e2f2 e640 0bce ff41
00000370: 6a64 4ec1 e5f7 8dc0 4614 23c1 bbf3 4641
00000380: 78a3 e1c0 56bb 2f41 246d b5c1 ab9f 44c2
00000390: d0c5 9141 3b32 8f41 7d2a ddc1 9e15 1fbf
000003a0: 2992 4142 cfbd a241 84b1 afc1 6c46 78c1
000003b0: 48dc 3542 7528 8241 1e94 f240 99fb 0dc1
000003c0: 9e87 4741 44e6 0341 9844 6042 6286 4a41
000003d0: b123 7941 4bf7 dc3f 8dd7 0fc1 7b22 e7c1
000003e0: 2333 9041 2e49 9340 ff9a 7541 87cf 26bd
000003f0: 729c d141 c85c 4141 538d 0b41 dca0 0f42
-18.9062 -0.14443022 -2.457762 -22.374653 -11.019277 -3.601276 -28.90684 -51.07747
15.759096 12.984426 -27.930374 -35.993412 5.697616 1.6853664 -17.584057 -31.466494
-4.5318317 -2.2429543 -37.982925 -23.902546 -26.708456 -7.6919436 -11.942461 -21.386974
-25.662497 -23.62087 -41.286068 -51.59282 7.6417284 -29.350916 -7.396324 -4.1395173
-23.442966 -22.855162 -7.393931 -25.436049 -1.5194737 -42.362465 -34.059517 -31.60155
-11.882782 -4.898474 -35.17036 15.952685 8.077156 24.820787 35.41782 -24.50181
2.9124217 -30.233797 -23.080805 -8.774448 -8.867014 -41.35506 -31.431051 -18.745457
-13.588035 -51.871284 -32.83008 -5.136026 -23.125334 29.836458 21.558699 -23.584284
-7.650327 40.208782 12.796817 -12.639209 -31.409115 -55.884026 -3.1384418 -24.654163
-4.508375 -43.83223 -21.713053 1.3204706 -6.968387 -57.92282 -7.5709805 -45.162113
33.862255 -5.985448 -30.46213 -4.940204 -2.789712 19.732985 -37.102173 -5.7207623
26.05592 45.132793 2.0172648 -26.546442 7.7104897 -38.389748 5.4521747 16.084105
-53.515377 -63.577118 -33.04911 -44.145844 -20.577663 9.93362 -68.04824 33.636284
-19.873896 -0.4529052 -104.24403 17.40827 -6.3569098 22.151094 -85.09379 21.205095
-13.387157 16.397997 -58.115677 41.96704 -2.7172556 28.951704 -23.011627 40.06621
-39.393394 1.577445 -57.98453 -26.431856 -40.999546 6.825532 -38.17566 8.7583685
-3.3296309 31.634447 -24.97549 23.719772 -10.764548 42.681408 -53.51155 29.942545
10.027508 29.651085 6.5113935 19.136887 -31.22298 13.136987 -6.9209824 -47.193356
-24.739738 19.292341 16.081764 24.983723 -4.0511103 31.295351 -1.4434893 0.46162623
1.406691 40.923683 -32.906403 57.46285 1.9543878 26.615313 -33.65707 32.532135
-28.26897 -31.768354 11.613597 -52.70046 -19.604391 -5.5392556 27.865715 -13.567159
-6.413494 22.34482 25.119139 11.630796 -17.603495 6.14362 12.794071 32.248566
-15.539842 17.273561 -7.669352 30.337189 -28.204865 -13.687566 6.1324034 -29.477873
-26.276585 -8.413545 13.321175 -42.479977 -9.65017 8.044744 39.387962 5.4718137
-15.248233 8.95133 43.5829 30.616016 -8.969508 11.111361 -11.663842 13.672426
50.884743 9.540573 78.17133 32.95581 21.86169 32.5569 28.509712 -17.936932
16.409657 42.51569 -14.334403 13.879939 43.58633 34.360237 -23.724018 24.093943
64.43644 33.22747 7.217149 31.975607 -12.899515 -4.4365106 -10.19245 12.4345045
-7.0512047 10.983236 -22.678291 -49.155926 18.221588 17.899527 -27.645746 -0.6214236
48.392735 20.34268 -21.961678 -15.517193 45.46512 16.269754 7.5805807 -8.873925
12.47061 8.243717 56.066986 12.657808 15.571214 1.7262968 -8.990125 -28.891836
18.02497 4.602683 15.350341 -0.040725257 26.20139 12.085152 8.722003 35.90709

0.bias f4 [24]
00000000: 7433 86c2 159b 99c1 d44b 3ac2 d9a8 38c2
00000010: a683 0942 ed72 79c2 01fe abc2 afd7 99c1
00000020: 1da6 06c2 90a8 91c2 73bd 94c2 f07e a9c2
00000030: a7f0 bac1 7318 a1c2 218d 97c2 a255 9ec1
00000040: 8eac afc1 597d 96c2 e9d2 71c2 a7c2 03c2
00000050: 8d86 7ec2 d26f cfc1 9ae3 a6c2 3b27 2d41
-67.100494 -19.200724 -46.57405 -46.16489 34.378563 -62.362232 -85.9961 -19.230314
-33.66222 -72.82922 -74.37002 -84.747925 -23.367506 -80.54775 -75.77564 -19.791813
-21.959255 -75.24482 -60.455967 -32.94009 -63.631397 -25.9296 -83.444534 10.822078

2.weight f4 [24, 24]
00000000: 0b10 4c41 6e96 7dc1 fbaa 9041 e65a 2fc1
00000010: 298a 89c1 b78f 6ec0 4c14 6641 5413 70c2
00000020: 804d 1941 8c2f 09c2 949b 21c1 5070 5b42
00000030: 323d d840 2732 9741 5bce 84c1 fa72 4bc0
00000040: 4d5f 0642 1603 e940 dc84 5cc2 7176 97c2
00000050: 3661 2ac2 2d49 bcc2 3f56 5641 5e97 19c2
00000060: 8131 31c2 317e c040 b15b fa40 c2a2 a5c2
00000070: 16d4 8cc0 4c20 5b3e e0d8 b740 5714 d8c1
00000080: 7e4a 0dc2 248f fac1 7de3 e5c0 31e0 55c2
00000090: d6a5 2fc1 42f7 9a42 dc37 62c2 f745 bac2
000000a0: e093 c641 3282 7c41 c8ca 94c2 0a77 e4c0
000000b0: 6902 27c2 58db a3c1 be5d e441 24ff 11c2
000000c0: 82de afc1 7c2b cdc0 b02b 99c1 e038 20c2
000000d0: 066f da40 7d35 8440 71c7 54c1 6605 b1c0
000000e0: 8f3b 94c1 a86e 92c1 c0fb f641 7977 8841
000000f0: b508 22bf d522 57c1 e581 92c1 2891 e1c2
00000100: 248a 09c2 7d33 98c1 0311 5a41 400d 03c2
00000110: 0f69 b2c1 98be b5c0 cad0 10c1 7df5 48c1
00000120: c037 d0bf a7ad a9c0 eb9a 11bf 7408 e7bf
00000130: d8de 43bf 9d74 06c0 06b0 e0bf 0d03 f5bf
00000140: 8826 2ac0 1a12 c9bf b9d9 e7bf df5f dfbf
00000150: 4064 e0bf b6bd 0fc0 3672 32bf cf7b 7abe
00000160: cfea babf 38f3 20c0 a74d 27c0 c1b1 43c0
00000170: fb02 01c0 0b06 9ebf 8390 fcbf 9ade b7bf
00000180: fff0 be41 f547 4fc1 d654 26c2 d6fc e9bf
00000190: c9c4 b3c2 9d11 6dbf 15f8 00c2 719d 2cc2
000001a0: 3aec 8a41 208a 7741 9502 5842 3fc3 8042
000001b0: 2584 b8c0 1c8a 25c2 1756 1dc1 f1d8 9cc1
000001c0: 5265 e9c1 5dbc f8c1 77c7 3bc2 c184 3841
000001d0: 5dc1 9441 4276 4a41 5c15 2fc1 f355 09c1
000001e0: 58f4 08bf 163a 2bbf a61a f1be 5d5a 19bf
000001f0: a141 f0be 0eb5 48c0 b2d5 29bf c8ad 29bf
00000200: f296 a1bd 0948 c0be 90ea 86bc 36da febe
00000210: 210a 30bf 0920 2ebf 6e11 bcbe 2ac9 14be
00000220: a1e2 01bf ccf7 1cbf c5ca 6cc0 3b54 a5be
00000230: ee00 b4be 6fc1 29be 460a 38bf 081a eabe
00000240: e33f 17bf f8b2 39bf a81a 38bf 878e 3dbf
00000250: 1f3a 27bf f8a1 29bf 6ab9 2cbf 4ee7 1abf
00000260: df1b cbbe eb37 19bf eaa1 09bf bace 0cbf
00000270: 640d 22bf c230 27bf b529 0dbf de71 3bbf
00000280: 0e67 1fbf d92b 10bf 84e0 39bf 1cd4 0ebf
00000290: 3c6d d6be 4167 0bbf 6588 05bf cb6d f5be
000002a0: 83b6 e441 79e0 0cc1 18d1 ac41 0657 17c2
000002b0: f3e0 0941 e69e 4542 95dc adc1 91f3 3b41
000002c0: 64c8 9541 f798 eac1 d658 77c2 49bd bfc1
000002d0: 401e 9441 bb0a eac0 3381 36c2 88e7 2741
000002e0: 8e6f 4e40 2c49 1fc3 8c63 0fc2 4dd0 debf
000002f0: aa18 36c2 b882 cb41 861d bdc1 33ae 3dc1
00000300: 68b2 f0c1 f4a6 ebc1 3a5c 3841 9bf7 01c2
00000310: 2b24 10c2 ac4c 1642 e022 5b41 8cd3 f8c1
00000320: 7f94 e5c1 de4b 72c0 10e4 d841 68f7 d6c0
00000330: 3dc5 4c40 2204 9a41 bbd3 5fc2 2eba 19c2
00000340: 380d 56c1 61cf 6340 84a8 bdc1 e9ad fdc1
00000350: ff72 9ac1 9cb9 7b41 a221 88c1 1e08 0cc2
00000360: ea3b c6c0 04fb 46c2 2b86 1dc2 1427 a040
00000370: 4bb7 c6c2 18af 2541 117a cd41 f671 1440
00000380: 9065 7141 8cbb fc40 f0cd 81c1 0e90 013f
00000390: fe8d b8c1 42cc e440 7836 6e42 2ed4 8b3e
000003a0: 8341 26c2 5a9f 46c2 210c 80c2 75ba 15c1
000003b0: 34ab 2fc1 686f 96c2 412e 3fc1 4716 a1c2
000003c0: 537a 7141 eed9 30c2 bc97 d5c1 5e30 13c1
000003d0: 389b 31c2 7440 06c2 e27b b140 fa94 ff40
000003e0: ae54 9741 ebd9 01c1 1d8a 88c2 cdbe b341
000003f0: 9493 8fc2 d79f 5442 53bc 0f41 34fc 7bc2
12.753917 -15.849226 18.083487 -10.959692 -17.192461 -3.7275217 14.379955 -60.018875
9.581421 -34.296432 -10.100483 54.85968 6.75747 18.899488 -16.60076 -3.1788926
33.593067 7.2816267 -55.129745 -75.73133 -42.594933 -94.14292 13.396056 -38.39782
-44.298344 6.015404 7.823693 -82.81789 -4.4008894 0.21399039 5.745224 -27.009932
-35.322746 -31.319893 -7.1840196 -53.468937 -10.977987 77.482925 -56.55455 -93.13665
24.822205 15.781786 -74.39606 -7.139531 -41.752354 -20.482101 28.545773 -36.49916
-21.983646 -6.411558 -19.146332 -40.055542 6.8260527 4.1315293 -13.298692 -5.531909
-18.529081 -18.304031 30.872925 17.058336 -0.63294536 -13.446004 -18.313425 -112.78351
-34.384903 -19.02514 13.629153 -32.76294 -22.301298 -5.679516 -9.050974 -12.559934
-1.6267014 -5.302448 -0.5687701 -1.8049455 -0.7651191 -2.1008675 -1.7553718 -1.9141556
-2.6586018 -1.5708649 -1.8113319 -1.7451133 -1.7530594 -2.245954 -0.6970552 -0.24461292
-1.4602908 -2.514845 -2.6141145 -3.0577242 -2.015807 -1.2345594 -1.9731601 -1.4364808
23.867674 -12.955068 -41.582848 -1.8280284 -89.884346 -0.92605 -32.242268 -43.15375
17.365345 15.471222 54.00252 64.38134 -5.766131 -41.384872 -9.833518 -19.605928
-29.174473 -31.091974 -46.94479 11.532411 18.594416 12.653872 -10.942715 -8.583484
-0.5349784 -0.6688551 -0.47090644 -0.5990351 -0.4692507 -3.1360507 -0.663417 -0.66280794
-0.07890119 -0.37554958 -0.01646927 -0.49775857 -0.68765455 -0.6801763 -0.36732048 -0.14529863
-0.50736433 -0.6131561 -3.699876 -0.32290825 -0.3515696 -0.16577695 -0.71890676 -0.45722985
-0.5908186 -0.7253871 -0.71915674 -0.74045604 -0.6532306 -0.6626277 -0.6747042 -0.6050919
-0.396697 -0.5985095 -0.53762686 -0.5500294 -0.6330168 -0.65308774 -0.55141765 -0.7322062
-0.62266624 -0.56316906 -0.7260821 -0.55792403 -0.41880214 -0.5445443 -0.52161247 -0.47935328
28.589117 -8.804803 21.602097 -37.834984 8.617419 49.405174 -21.732706 11.746964
18.722847 -29.32469 -61.836754 -23.967424 18.51477 -7.31381 -45.62617 10.494026
3.2255588 -159.28583 -35.847214 -1.7407318 -45.524086 25.438828 -23.639416 -11.855029
-30.087112 -29.45652 11.522516 -32.491802 -36.03532 37.574875 13.696014 -31.103294
-28.697508 -3.7858806 27.111359 -6.717701 3.1995385 19.252018 -55.956768 -38.431816
-13.378227 3.5595324 -23.707283 -31.709917 -19.30615 15.732815 -17.016422 -35.007927
-6.1948137 -49.745132 -39.381023 5.0047703 -99.357994 10.3552475 25.684603 2.3194556
15.087296 7.897894 -16.225555 0.50610435 -23.069332 7.149934 59.553192 0.27310318
-41.563976 -49.655617 -64.02369 -9.358022 -10.979298 -75.21759 -11.948792 -80.54351
15.092364 -44.212822 -26.69909 -9.199308 -44.40158 -33.562943 5.5463724 7.9869356
18.916348 -8.115703 -68.26975 22.468164 -71.78824 53.156094 8.983478 -62.996292

2.bias f4 [24]
00000000: 40e1 24c3 f54a 00c3 ada6 3dc3 37de a5c0
00000010: a4ae b5c2 c8c0 79c0 7503 f5be 6bf6 98c3
00000020: 11c7 a1c2 adf6 a1c2 5996 d7c2 6c5d 3e43
00000030: f011 ecc2 3570 5bc3 4686 fec0 72ec 18c3
00000040: 1b10 1cc3 a5b0 0bbf 44ab 3a43 3520 09c2
00000050: 0b31 0bc3 6c98 74c1 ed3c a8c2 d697 1abf
-164.87988 -128.2928 -189.65108 -5.183376 -90.841095 -3.9023914 -0.478542 -305.92514
-80.8888 -80.98179 -107.79365 190.36493 -118.035034 -219.43831 -7.953891 -152.92361
-156.06291 -0.54566413 186.669 -34.281452 -139.19157 -15.287212 -84.118996 -0.60387933

4.weight f4 [4, 24]
00000000: 4ffb 85c1 a555 54c2 6150 6bc1 0ed9 50c0
00000010: 2b52 1842 20c0 ffbe dcd4 0dbf 4f3f cd41
00000020: 3090 1ac2 a5c4 ebc1 89b6 2a42 7a2e b0c1
00000030: e526 dbc1 4ae5 b541 e8bf 10c2 9ac2 49c2
00000040: 67e3 e641 f57d 10bf 4d5f 87c2 0ec3 80c0
00000050: d0b3 1942 9199 8dc2 409f dd41 20c7 fabe
00000060: 36c8 2442 89a9 9fc2 a074 9041 ecf8 d33f
00000070: 2768 4942 145a 46bd 4f05 f3be dc0a c841
00000080: 7a22 f241 8b51 7cc2 8b02 1942 a460 b2c1
00000090: 012c 13c2 9cf6 dd41 0796 16c2 7a0f 5dc2
000000a0: dc23 33c2 7504 06bf 000a c1c2 2560 cbc1
000000b0: 4b67 e840 6d46 8fc2 84fe 9d42 72d7 1bbf
000000c0: 3a24 3942 ffb1 9bc2 5dd4 4641 4287 20c0
000000d0: b8df e841 7068 063e 8f2f 17bf 2af2 bc41
000000e0: 579e a4c1 7bfe 6fc2 1fca 6f42 abae abc1
000000f0: 44f0 fbc1 652b a841 d272 03c2 d1fd b0c2
00000100: f553 6f42 ac70 23bf c3b7 23c2 b62c 15c2
00000110: 65fe 6441 35f9 9fc2 6b8f 9241 7c7b e2be
00000120: 0818 3842 07dc 40c2 063d 0942 7a1a 1bc0
00000130: 1294 93c1 5519 3640 0de1 d1be c6c5 af41
00000140: a869 3742 ad3d 1fc2 cde7 d342 4f71 adc1
00000150: 31d9 ebc1 4988 1342 39a2 46c1 15b8 06c2
00000160: 5d39 43c2 6865 e0be c2e4 a3c2 ec33 34c2
00000170: 7971 f1c1 1e28 41c2 981c 1ec2 693d 2ebf
-16.74771 -53.083637 -14.707124 -3.263248 38.080242 -0.49951267 -0.5540292 25.655912
-38.64081 -29.471018 42.678257 -22.022694 -27.393991 22.736958 -36.18741 -50.44004
28.861036 -0.56442195 -67.686134 -4.0238104 38.4256 -70.799934 27.702759 -0.48980045
41.19552 -79.83112 18.056946 1.656034 50.35171 -0.04842575 -0.47464988 25.005302
30.266834 -63.07963 38.252483 -22.297188 -36.792973 27.745415 -37.64651 -55.265114
-44.78502 -0.5235055 -96.51953 -25.421946 7.262609 -71.63755 78.9971 -0.6087562
46.285378 -77.84765 12.4268465 -2.5082555 29.109238 0.13125777 -0.59056944 23.618244
-20.577314 -59.998516 59.947384 -21.460287 -31.492317 21.021189 -32.86213 -88.495735
59.83199 -0.638438 -40.929455 -37.293663 14.312108 -79.98673 18.320028 -0.44234836
46.023468 -48.21487 34.309593 -2.423491 -18.4473 2.8452961 -0.40992013 21.97157
45.85318 -39.81023 105.952736 -21.680326 -29.48105 36.88309 -12.414605 -33.679768
-48.80602 -0.43827367 -81.94679 -45.050705 -30.180407 -48.289177 -39.527924 -0.68062454

4.bias f4 [4]
00000000: a99b f9c3 f6ba dec3 0d89 fdc3 f6fb dac3
-499.2161 -445.46063 -507.0707 -437.96844
