logs/try1/target_params_A_175_onehot.pt (torch, 14831 bytes, 6 tensors)

0.weight f4 [24, 100]
0	0xc1bd0d08	-23.631363
1	0x40732ddf	3.7996747
2	0x4087c057	4.242229
3	0xc21759fa	-37.837868
4	0x412fb79d	10.982327
5	0x417ac405	15.672856
6	0x4047b774	3.120572
7	0xc26b2a72	-58.79145
8	0x41af47e6	21.910107
9	0xc165cc7d	-14.362424
10	0xc2172c97	-37.793545
11	0xc1ce0d03	-25.756353
12	0x420cf0f1	35.235294
13	0xc0f1738c	-7.545355
14	0xc1626e6d	-14.151959
15	0xc19cf43a	-19.619251
16	0xc1739b06	-15.2253475
17	0x418ed6fd	17.854975
18	0xc1ed5942	-29.668583
19	0xc088ce15	-4.2751565
20	0xc24495e1	-49.146366
21	0xc23285ba	-44.630592
22	0x40740a4f	3.8131292
23	0xc09b59e6	-4.854724
24	0x40a54e4e	5.1658087
25	0x418b4dea	17.413044
26	0xbfa96d0d	-1.3236405
27	0xc22cd847	-43.21121
28	0x42056fd7	33.35922
29	0xc1fd5fdb	-31.671804
30	0xc0dc3636	-6.8816175
31	0xc1432b19	-12.198022
32	0xc220fadb	-40.244976
33	0xc2339bbb	-44.90208
34	0xc1271a5b	-10.443934
35	0xc1e0a5a3	-28.080877
36	0xc08ed3c2	-4.4633493
37	0xc2498f66	-50.390038
38	0xc16869fa	-14.525873
39	0xc2417662	-48.36561
40	0xc106e96b	-8.431987
41	0xc194ca8d	-18.598902
42	0x4113f06d	9.246198
43	0xc08852a7	-4.2600894
44	0xc0dad1b3	-6.838098
45	0x421d23bd	39.2849
46	0x4234605b	45.094097
47	0xc1e46e58	-28.553879
48	0x41bcd909	23.605974
49	0xc229f328	-42.487457
50	0xc240565a	-48.084328
51	0xc0f96372	-7.7933893
52	0xc20bc81a	-34.94541
53	0xc21a1437	-38.51974
54	0xc1bc4703	-23.534674
55	0xc21dffe1	-39.49988
56	0xc1d1abb5	-26.208841
57	0xc2251850	-41.273743
58	0xc26299ba	-56.650124
59	0xc0569cc5	-3.3533185
60	0xc1cf3313	-25.899939
61	0x41c7508f	24.914335
62	0x41a08e4d	20.069483
63	0x42021ce4	32.528214
64	0x41a0eda1	20.11603
65	0x41f3ffdd	30.499933
66	0x411e4015	9.890645
67	0x401fc507	2.4964006
68	0xc157d1a9	-13.488687
69	0xc0018dc9	-2.0242789
70	0xc1b7b573	-22.963598
71	0xc23aace6	-46.668846
72	0x40ad5aed	5.4173493
73	0xc210dd60	-36.216187
74	0x41b7726c	22.93087
75	0xbfaef4a8	-1.3668413
76	0xc23012e1	-44.018436
77	0xc26d7c0c	-59.37114
78	0xc0fed498	-7.9634514
79	0xc287bd42	-67.869644
80	0x41ba1bd8	23.263596
81	0x40e54a0c	7.165289
82	0xc16f4efc	-14.956783
83	0x41e1bd8e	28.217556
84	0x4177a438	15.477592
85	0x41e17f1f	28.18707
86	0xc13dc3a9	-11.860269
87	0xc1f33ded	-30.405237
88	0x41f43ae3	30.528753
89	0x424500da	49.25083
90	0xc1db2427	-27.392653
91	0xc1f59cee	-30.701626
92	0x4176b4e4	15.419163
93	0xc2084a0b	-34.072308
94	0x40df0a37	6.969997
95	0x41221a3f	10.131408
96	0xc11b428e	-9.703749
97	0xc2419309	-48.39359
98	0xc1b59703	-22.698736
99	0xc233d246	-44.955345
100	0xc0827f62	-4.0780497
101	0x41ce6978	25.801498
102	0xc1ca0c95	-25.256144
103	0x420ed11f	35.70422
104	0xc159224e	-13.570875
105	0x41772ebb	15.448909
106	0xc2e654db	-115.16573
107	0x41bfc5f6	23.97166
108	0xc21a5d2f	-38.591
109	0xc0c7131c	-6.2210827
110	0xc31a27ff	-154.15623
111	0x41fe8525	31.815012
112	0xc1b40764	-22.503609
113	0xc0cd035d	-6.4066606
114	0xc234ef6b	-45.233807
115	0x41d9b404	27.212898
116	0xc0fedcc4	-7.964449
117	0x415e46f6	13.892324
118	0xc0a6f4f1	-5.2174
119	0x4247b96a	49.93107
120	0x408e3453	4.443887
121	0x41a8155d	21.010431
122	0xc2917b0d	-72.74033
123	0xc1c0774b	-24.058249
124	0x416c010b	14.750255
125	0x41c9065e	25.128109
126	0xc1341563	-11.255221
127	0x41c3af34	24.460548
128	0xc0a8f71a	-5.280164
129	0x4159c1cc	13.609814
130	0xc1feaf33	-31.835546
131	0x421124cb	36.28593
132	0x3fd0eb9b	1.6321901
133	0xc139936e	-11.598494
134	0xc1f38a0f	-30.442411
135	0xc0312d3c	-2.768386
136	0x401a0e9f	2.4071424
137	0x41f2c989	30.348406
138	0x4088d425	4.2758965
139	0x414f8588	12.9701
140	0xc20554a1	-33.332645
141	0x41c4d432	24.603611
142	0x4125137f	10.31726
143	0x40ffe860	7.997116
144	0xc15fad9a	-13.979883
145	0x420cf713	35.241283
146	0xbfbe6a52	-1.4876196
147	0x422e9a15	43.65047
148	0xc0bd855d	-5.9225297
149	0x41bb72f0	23.431122
150	0xc1e5e08d	-28.734644
151	0x42042ee6	33.0458
152	0x418f01ae	17.87582
153	0x4204c36b	33.190838
154	0xc1a45c33	-20.54502
155	0x423d0077	47.250454
156	0x41a45074	20.539284
157	0x4217ef00	37.9834
158	0xc228d281	-42.20557
159	0x418ab597	17.338667
160	0xc27a4223	-62.564587
161	0xc137c6cc	-11.486034
162	0xc107786f	-8.466903
163	0xc121048d	-10.063611
164	0xc14f42c4	-12.9538
165	0xc05fda71	-3.4977076
166	0x41909254	18.07145
167	0xc198881e	-19.066463
168	0x41099551	8.598954
169	0x40d41c2f	6.6284404
170	0x4218fc2c	38.24626
171	0x417d3c68	15.827248
172	0xc1264ab4	-10.393238
173	0x4169c2b4	14.610035
174	0x40aa560e	5.3230047
175	0x41e88155	29.06315
176	0xc116325c	-9.387295
177	0x419970ef	19.180143
178	0xc11d32bb	-9.824885
179	0x413dfac3	11.873721
180	0xc1e3e2cb	-28.485739
181	0xc287eee0	-67.96655
182	0x422cb615	43.177814
183	0xc20a0895	-34.50838
184	0x3f927aca	1.1443722
185	0xc2246231	-41.09589
186	0xc198b6e2	-19.089298
187	0xc293b58d	-73.85459
188	0x40ad2343	5.4105544
189	0x4108bfa6	8.546789
190	0x4214dae9	37.21378
191	0x417e9f72	15.913927
192	0xc0967add	-4.702498
193	0x41b0600d	22.0469
194	0x421d36f3	39.30366
195	0x41fbacf8	31.459457
196	0xbf2bced6	-0.6711248
197	0x41cd8ad5	25.69279
198	0x414bb9c9	12.732858
199	0x40874d0d	4.2281556
200	0x42479307	49.89358
201	0x42727ce8	60.62198
202	0x428a247d	69.071266
203	0x4198842c	19.064537
204	0x41dce9ba	27.614124
205	0x41f36d6c	30.428429
206	0x41424051	12.140702
207	0xc11ec2af	-9.92253
208	0x417118df	15.068572
209	0x421cb97c	39.181137
210	0x4128f053	10.558673
211	0x4129b9ee	10.607893
212	0x422a4d62	42.57557
213	0x42341bd5	45.02718
214	0xc1ce47d6	-25.785076
215	0x421548d6	37.32113
216	0x42803038	64.09418
217	0xc0b28b72	-5.579522
218	0x4112e46d	9.180768
219	0x41f08e5c	30.069511
220	0xc238e353	-46.221996
221	0x41b55d72	22.670628
222	0xbf864425	-1.0489546
223	0x411ddea6	9.866858
224	0x41b1a56b	22.20577
225	0x410ad4b2	8.676928
226	0xc22853f1	-42.081974
227	0xc217638b	-37.84721
228	0x41414d10	12.081314
229	0xc15333f5	-13.200185
230	0xc2229fd7	-40.656094
231	0xc1af8dc7	-21.944227
232	0x421fd251	39.955387
233	0xc1345cf8	-11.272697
234	0xc2871bf5	-67.5546
235	0xc0a53a47	-5.163364
236	0x4259c52d	54.442554
237	0xc100c6a5	-8.048497
238	0x414b3329	12.69999
239	0xc19253de	-18.29095
240	0x413213be	11.12982
241	0x4184d9ef	16.606413
242	0x42224a4c	40.572556
243	0xc157f79f	-13.497954
244	0xc125ce5d	-10.362882
245	0xc13da563	-11.852878
246	0xc0f749b9	-7.7277493
247	0xc1a45d32	-20.545506
248	0x413b25a1	11.696687
249	0x4187fadb	16.997488
250	0xc01896b9	-2.3841994
251	0xc1659679	-14.3492365
252	0x4215d568	37.458405
253	0x401beefd	2.4364617
254	0xc17d123e	-15.816954
255	0x420b32dc	34.799667

0.bias f4 [24]
0	0xc28a1f89	-69.06159
1	0xc199ddb6	-19.233257
2	0xc27c6622	-63.09974
3	0xc26801ac	-58.001633
4	0x42102ce6	36.043846
5	0xc2a2b147	-81.346245
6	0xc2bf8150	-95.75256
7	0xc2186533	-38.098827
8	0xc22e7e8c	-43.62358
9	0xc299748d	-76.72764
10	0xc2936808	-73.703186
11	0xc29b2d59	-77.58857
12	0xc227a911	-41.915104
13	0xc2b3e408	-89.94537
14	0xc2a07522	-80.228775
15	0xc1011b91	-8.06923
16	0xc22671fb	-41.61131
17	0xc29d70e8	-78.72052
18	0xc28d9302	-70.787125
19	0xc23f9fcc	-47.90605
20	0xc27b4e49	-62.82645
21	0xc21a421c	-38.56456
22	0xc2b3f04a	-89.969315
23	0x407cc45b	3.9494846

2.weight f4 [24, 24]
0	0x418fbec8	17.968155
1	0xc1f3d257	-30.477705
2	0x411fcea2	9.987947
3	0xbda5d22f	-0.0809673
4	0xc2112567	-36.286526
5	0x40a42c75	5.130427
6	0x414cc971	12.79918
7	0xc25540aa	-53.31315
8	0x41582dfd	13.511228
9	0xc22b9d01	-42.903324
10	0xc210567e	-36.084465
11	0x4253cf9e	52.95275
12	0x41735a56	15.209555
13	0x41973227	18.899488
14	0xc1c33519	-24.400927
15	0x3ea9bfac	0.33154047
16	0x421f289b	39.789654
17	0xc1144ec8	-9.269234
18	0xc27f7068	-63.85977
19	0xc2bd3b60	-94.61597
20	0xc236182a	-45.523598
21	0xc2d3b6d5	-105.85709
22	0x410c9a0e	8.787611
23	0xc19162d7	-18.173262
24	0xc2320ca3	-44.51234
25	0x40d0d43f	6.525909
26	0x413d1e78	11.819939
27	0xc2b51f14	-90.5607
28	0xbe45950d	-0.1929514
29	0xc0f10f49	-7.533116
30	0x3f483f7b	0.78221864
31	0xc1ff5030	-31.914154
32	0xc1885a48	-17.044083
33	0xc227ee1f	-41.98254
34	0xc1ad2e03	-21.647467
35	0xc255e031	-53.468937
36	0xc153d81f	-13.240264
37	0x427bcc31	62.949406
38	0xc26a9734	-58.64766
39	0xc2aa915a	-85.28389
40	0x41c939b1	25.15317
41	0x41aa23be	21.267452
42	0xc2b96a0e	-92.70714
43	0xc18a12a5	-17.259104
44	0xc295242d	-74.570656
45	0xc200ec05	-32.230488
46	0x41e45dbe	28.545773
47	0xc1eababf	-29.341185
48	0xc22fd0bb	-43.95384
49	0xc2403815	-48.054768
50	0xc20bad69	-34.919346
51	0xc1710e43	-15.065982
52	0x414173f8	12.090813
53	0xc18e19fd	-17.76269
54	0xc154c771	-13.298692
55	0xc1983222	-19.024479
56	0xbfd726f3	-1.6808761
57	0xc1a01978	-20.012436
58	0x41e220ca	28.26601
59	0x41c57723	24.683172
60	0xc11b0797	-9.689353
61	0xc0b9ec95	-5.8101296
62	0xc1ff3632	-31.901463
63	0xc2d984ee	-108.75963
64	0xc282ee1c	-65.46506
65	0xc1973287	-18.899672
66	0x4179edd5	15.620564
67	0xbe63c696	-0.22243723
68	0xc2842694	-66.07535
69	0xc1213fdf	-10.078094
70	0xc0f93d3b	-7.7887244
71	0xc1a9f536	-21.244732
72	0xbfd037c0	-1.6267014
73	0xc0a9ada7	-5.302448
74	0xbf119aeb	-0.5687701
75	0xbfe70874	-1.8049455
76	0xbf43ded8	-0.7651191
77	0xc006749d	-2.1008675
78	0xbfe0b006	-1.7553718
79	0xbff5030d	-1.9141556
80	0xc02a2688	-2.6586018
81	0xbfc9121a	-1.5708649
82	0xbfe7d9b9	-1.8113319
83	0xbfdf5fdf	-1.7451133
84	0xbfe06440	-1.7530594
85	0xc00fbdb6	-2.245954
86	0xbf327236	-0.6970552
87	0xbe7a7bcf	-0.24461292
88	0xbfbaeacf	-1.4602908
89	0xc020f338	-2.514845
90	0xc0274da7	-2.6141145
91	0xc043b1c1	-3.0577242
92	0xc00102fb	-2.015807
93	0xbf9e060b	-1.2345594
94	0xbffc9083	-1.9731601
95	0xbfb7de9a	-1.4364808
96	0x41bdfc58	23.748215
97	0xc1a02b75	-20.02122
98	0xc289ccca	-68.89998
99	0xc11747a0	-9.454987
100	0xc2a5d810	-82.922
101	0xc1292410	-10.571304
102	0xc1f70e1f	-30.881895
103	0xc231aee3	-44.420788
104	0x407c3d7e	3.9412532
105	0x418ec489	17.845964
106	0x41b1ad6f	22.209684
107	0x428d3b79	70.61616
108	0xc160c9c6	-14.049261
109	0xc2258a1c	-41.384872
110	0xc121626b	-10.086528
111	0xc1fe20c7	-31.766005
112	0xc22c75d5	-43.11507
113	0xc1c1dedf	-24.233824
114	0xc27ca54e	-63.16143
115	0x3f2f14ef	0.6839132
116	0x3fc9e8d0	1.5774174
117	0xc0daa7e3	-6.832994
118	0xc014a1ba	-2.322371
119	0xc15cf8df	-13.81076
120	0xbf08f458	-0.5349784
121	0xbf2b3a16	-0.6688551
122	0xbef11aa6	-0.47090644
123	0xbf195a5d	-0.5990351
124	0xbef041a1	-0.4692507
125	0xc048b50e	-3.1360507
126	0xbf29d5b2	-0.663417
127	0xbf29adc8	-0.66280794
128	0xbda196f2	-0.07890119
129	0xbec04809	-0.37554958
130	0xbc86ea90	-0.01646927
131	0xbefeda36	-0.49775857
132	0xbf300a21	-0.68765455
133	0xbf2e2009	-0.6801763
134	0xbebc116e	-0.36732048
135	0xbe14c92a	-0.14529863
136	0xbf01e2a1	-0.50736433
137	0xbf1cf7cc	-0.6131561
138	0xc06ccac5	-3.699876
139	0xbea5543b	-0.32290825
140	0xbeb400ee	-0.3515696
141	0xbe29c16f	-0.16577695
142	0xbf380a46	-0.71890676
143	0xbeea1a08	-0.45722985
144	0xbf173fe3	-0.5908186
145	0xbf39b2f8	-0.7253871
146	0xbf381aa8	-0.71915674
147	0xbf3d8e87	-0.74045604
148	0xbf273a1f	-0.6532306
149	0xbf29a1f8	-0.6626277
150	0xbf2cb96a	-0.6747042
151	0xbf1ae74e	-0.6050919
152	0xbecb1bdf	-0.396697
153	0xbf1937eb	-0.5985095
154	0xbf09a1ea	-0.53762686
155	0xbf0cceba	-0.5500294
156	0xbf220d64	-0.6330168
157	0xbf2730c2	-0.65308774
158	0xbf0d29b5	-0.55141765
159	0xbf3b71de	-0.7322062
160	0xbf1f670e	-0.62266624
161	0xbf102bd9	-0.56316906
162	0xbf39e084	-0.7260821
163	0xbf0ed41c	-0.55792403
164	0xbed66d3c	-0.41880214
165	0xbf0b6741	-0.5445443
166	0xbf058865	-0.52161247
167	0xbef56dcb	-0.47935328
168	0x418c06d3	17.503332
169	0xc19a1336	-19.25938
170	0x420ef888	35.742706
171	0xc244bd13	-49.184643
172	0x40796e3a	3.8973527
173	0x427670f3	61.610302
174	0xc1b3f057	-22.492353
175	0x40c56547	6.168613
176	0x4208b01b	34.171978
177	0xc1c55132	-24.664646
178	0xc25a3e3e	-54.560783
179	0xc10b7fb8	-8.718681
180	0x41a0d7fb	20.10546
181	0xc1998a75	-19.192606
182	0xc1f299ab	-30.325033
183	0x418cb12d	17.586512
184	0xc199a75e	-19.206722
185	0xc324cb1e	-164.79343
186	0xc25490de	-53.14147
187	0x40e8ed23	7.2789474
188	0xc2870b9b	-67.52267
189	0x41eb7a74	29.434792
190	0xc127866c	-10.470318
191	0xc18e678c	-17.80056
192	0xc201d51a	-32.458107
193	0xc240bab0	-48.182312
194	0x40e50ebb	7.158048
195	0xc231c482	-44.441902
196	0xc274cf3f	-61.20239
197	0x4210e656	36.224937
198	0x415b22e0	13.696014
199	0xc20fdc7d	-35.96532
200	0xc1afcea4	-21.975899
201	0xc19ce05a	-19.609547
202	0x4162714f	14.152663
203	0xc17be2f4	-15.7429085
204	0x40dd03e0	6.906723
205	0x419a0422	19.252018
206	0xc28167c3	-64.70266
207	0xc1f64931	-30.785738
208	0x4136a55c	11.415371
209	0xc20e5fd3	-35.59358
210	0xc23b4519	-46.81748
211	0xc28a8556	-69.26042
212	0xc21e34d3	-39.551586
213	0x40142a7f	2.3150938
214	0x4148784b	12.529368
215	0xc1ac1207	-21.508802
216	0xc1bbd323	-23.478094
217	0xc250bbe3	-52.183483
218	0xc25dd71c	-55.460068
219	0x401e90ed	2.4775956
220	0xc2db8d9d	-109.77659
221	0x40a8342f	5.25637
222	0x41cb0344	25.376595
223	0x3f507d13	0.8144085
224	0x41742693	15.259418
225	0xc1626937	-14.150687
226	0x3f9f1220	1.2427406
227	0x3f01900e	0.50610435
228	0xc1e48051	-28.562654
229	0x40e4cc42	7.149934
230	0x42071908	33.774445
231	0xc0919eb5	-4.5506234
232	0xc2831672	-65.54384
233	0xc25a9a4c	-54.65068
234	0xc29dbb0c	-78.865326
235	0xc1b93730	-23.151947
236	0xc1ead621	-29.354555
237	0xc29ff42d	-79.976906
238	0xc09966fc	-4.7938213
239	0xc2b1ec00	-88.96094
240	0xc0ba7924	-5.8272877
241	0xc291dcec	-72.93149
242	0xc2078f96	-33.89022
243	0xc22aa57d	-42.66161
244	0xbfe57ae6	-1.7928131
245	0xc21ab006	-38.671898
246	0x40776b4d	3.8659241
247	0x41809b24	16.075752
248	0x410d2c27	8.823279
249	0xc0d65f3d	-6.699126
250	0xc28ec553	-71.3854
251	0x41b3becd	22.468164
252	0xc2a479c4	-82.23782
253	0x42557ee4	53.373917
254	0xc0ad9fa7	-5.425739
255	0xc24c4464	-51.066788

2.bias f4 [24]
0	0xc30b7ae6	-139.48007
1	0xc3169cb2	-150.61209
2	0xc337cd01	-183.8008
3	0xc0a5de37	-5.183376
4	0xc2d98943	-108.76809
5	0xc079c0c8	-3.9023914
6	0xbef50375	-0.478542
7	0xc39303ae	-294.02875
8	0xc22fb60f	-43.92779
9	0xc2f13bf8	-120.61713
10	0xc2be51bb	-95.15963
11	0x4331120d	177.07051
12	0xc320c3f3	-160.76543
13	0xc35f092e	-223.03586
14	0xc1909a5a	-18.075367
15	0xc3275122	-167.31693
16	0xc325936b	-165.57585
17	0xbf0bb0a5	-0.54566413
18	0x43248004	164.50006
19	0x40e138a4	7.038164
20	0xc305bf3b	-133.747
21	0xc1dca758	-27.58171
22	0xc28c167a	-70.0439
23	0xbf1a97d6	-0.60387933

4.weight f4 [4, 24]
0	0x41e7d575	28.979227
1	0xc11943d5	-9.579061
2	0x4259b5cd	54.42754
3	0xc050d90e	-3.263248
4	0x41f11969	30.137407
5	0xbeffc020	-0.49951267
6	0xbf0dd4dc	-0.5540292
7	0x420b7be3	34.870983
8	0xc1c25057	-24.289228
9	0xc23629de	-45.540886
10	0x42abe943	85.95559
11	0xc1e635d6	-28.776287
12	0xc208828b	-34.127483
13	0x4209b492	34.42634
14	0xc2137ff9	-36.874973
15	0xc25314be	-52.770256
16	0x41ca9574	25.322975
17	0xbf107df5	-0.56442195
18	0xc262e808	-56.726593
19	0xc22aa16b	-42.657635
20	0x4287e92a	67.9554
21	0xc283c83a	-65.89107
22	0x41756594	15.337299
23	0xbefac720	-0.48980045
24	0x42286078	42.094208
25	0xc29cbeb1	-78.372444
26	0x422e44a0	43.567017
27	0x3fd3f8ec	1.656034
28	0x41e11c0d	28.138697
29	0xbd465a14	-0.04842575
30	0xbef3054f	-0.47464988
31	0x42112f31	36.296085
32	0x422947aa	42.319984
33	0xc23ee911	-47.727604
34	0x4281001f	64.50024
35	0xc1e12a60	-28.14569
36	0xc239f412	-46.48835
37	0x41b929e8	23.145462
38	0xc1b3282b	-22.394613
39	0xc204a75b	-33.163433
40	0xc226ae9f	-41.67053
41	0xbf060475	-0.5235055
42	0xc282e8fb	-65.45504
43	0xc1e963cd	-29.17373
44	0x4180e1fb	16.110342
45	0xc23a1948	-46.52469
46	0x42bd5a7b	94.67672
47	0xbf1bd772	-0.6087562
48	0x4230f8b4	44.242874
49	0xc2a13d8b	-80.6202
50	0x4242830a	48.627968
51	0xc0208742	-2.5082555
52	0x4213bb40	36.93286
53	0x3e066870	0.13125777
54	0xbf172f8f	-0.59056944
55	0x421142cf	36.315243
56	0xc24cc9fb	-51.197247
57	0xc2344368	-45.065826
58	0x428dda11	70.92591
59	0xc1e7d055	-28.976725
60	0xc1d99a19	-27.200243
61	0x4227ed89	41.981968
62	0xc1d65fdf	-26.796812
63	0xc23270d5	-44.610188
64	0x4277e3d4	61.97249
65	0xbf2370ac	-0.638438
66	0xc241b6f6	-48.428673
67	0xc15ce30d	-13.805432
68	0x4222d8e0	40.711792
69	0xc2861089	-67.032295
70	0x41a35db2	20.42075
71	0xbee27b7c	-0.44234836
72	0x4287b5b2	67.85487
73	0xc1d17ab6	-26.184917
74	0x422da2c1	43.40894
75	0xc01b1a7a	-2.423491
76	0xc0adc6c3	-5.430513
77	0x40361955	2.8452961
78	0xbed1e10d	-0.40992013
79	0x42161058	37.51596
80	0x4240fcdb	48.24693
81	0xc22909d6	-42.259605
82	0x42c6f52a	99.478836
83	0xc1f28f82	-30.320072
84	0xc242c4c9	-48.692173
85	0x4223849c	40.8795
86	0xc1e4c362	-28.595402
87	0xc2488b0c	-50.135788
88	0xc295eb8e	-74.96007
89	0xbee06568	-0.43827367
90	0xc1b58c1e	-22.693417
91	0xc20f7a87	-35.869656
92	0xc1e326b6	-28.393902
93	0xc29a52d3	-77.161766
94	0xc1ee437b	-29.78295
95	0xbf2e3d69	-0.68062454

4.bias f4 [4]
0	0xc41be5fd	-623.59357
1	0xc41c80a4	-626.01
2	0xc41d995d	-630.3963
3	0xc41aed6d	-619.7098
