logs/try1/target_params_B_25_onehot.pt (torch, 14823 bytes, 6 tensors)

0.weight f4 [24, 100]
26.14006 -4.8711586 -19.200434 -9.5711 -2.916653 6.659934 0.5755593 1.3786589
21.524918 26.102629 18.559206 -29.617962 46.559486 13.577303 -1.520881 -4.539298
12.391256 -12.36578 11.996694 -54.283543 -3.2335703 7.4582686 -0.5417129 -2.5452385
10.674657 0.2075424 -2.575757 -13.72287 -3.9118373 9.057526 -18.717268 -0.9214401
17.698135 0.8339341 6.329815 -10.573171 19.117605 14.969823 8.284367 -0.06280391
16.01036 -4.817514 -3.057101 -3.4385066 12.746578 0.29389155 6.27093 2.7768183
3.7082024 6.597683 -6.557537 2.2178767 13.374127 16.130514 8.368814 -1.0818809
-1.6960919 -0.52969235 5.8157873 12.118858 19.214214 -16.844635 13.293544 -6.378991
-5.999542 12.983808 12.876129 11.857924 3.107573 -6.548817 1.936471 -13.022533
4.1215525 9.558849 2.8194218 13.573611 3.7966304 5.326983 17.669298 -0.44725338
6.8468676 -3.1684847 -4.8259697 5.939884 20.341085 -5.8297024 -10.202863 2.624897
20.538778 -6.111162 9.984107 2.9937181 10.781439 -2.689076 10.389997 9.786078
7.472616 1.3642052 20.90245 1.8138777 -14.95314 1.1683286 0.21334264 -3.2578483
-4.8783937 -7.596095 -9.201736 -27.558107 -5.3606806 -14.687642 -7.7089963 -8.370649
22.477936 -4.8880153 -2.7749877 -11.903572 30.603312 -10.513564 22.133547 -1.8461443
15.660393 -7.3617506 2.363515 -0.40395764 15.62791 -9.540042 -14.0112295 -2.2275472
3.5364776 0.019770805 17.940384 -11.931498 -7.055526 12.880095 4.5929575 -13.275929
-15.572044 3.512769 -6.9489355 -27.208136 11.186665 -7.6071196 12.16469 -4.4152045
-14.794253 -11.090805 0.2440869 -3.6751993 4.666673 -3.6912167 -1.8560932 15.807346
-2.5325696 6.5913243 11.820694 5.077183 -19.682846 -3.8028982 19.124735 -1.9699862
-27.602633 -14.324618 -16.372904 6.4747252 30.377298 24.674362 -7.037589 -4.9558415
9.045556 -10.100755 3.91312 21.90406 -2.6699054 15.9504385 -2.5659873 16.662228
-6.532983 -7.8546004 0.584942 19.185692 6.9175067 -21.381931 -0.32252324 -11.803444
6.5401726 9.099126 0.9786113 -12.505371 8.368146 40.099987 16.95395 17.849016
8.885186 12.224417 13.393602 -29.317648 -6.5013328 0.85960585 24.824854 -1.1084334
3.985406 5.1623664 -9.379378 -9.618776 3.5608823 -1.2117764 -13.21403 2.8346746
14.3948145 2.2247326 -6.4642286 -11.185986 25.899124 8.5867815 -7.2370896 8.890223
8.77646 12.974726 -0.61287004 -7.9002595 -11.622141 -4.7725534 -20.360277 -9.745117
-1.5318822 -1.4687104 -25.21083 27.943497 -11.278922 0.019611523 12.655271 2.7964194
-9.654155 1.7731453 0.27402014 -2.0164497 -20.322979 -15.528261 11.177178 9.963247
-2.7374165 -5.9690785 6.1049995 -15.44812 1.2580621 4.2357683 -1.2399056 2.4070556
-4.437433 -15.863744 -3.0522723 -4.3412914 21.135397 -2.06963 8.84898 2.824435
00000000: d81e d141 88e0 9bc0 7d9a 99c1 3a23 19c1
00000010: 71aa 3ac0 2e1e d540 db57 133f e577 b03f
00000020: 0833 ac41 2fd2 d041 4179 9441 96f1 ecc1
00000030: ea3c 3a42 a23c 5941 3bac c2bf ee41 91c0
00000040: 9642 4641 3cda 45c1 75f2 3f41 5922 59c2
00000050: d1f2 4ec0 23aa ee40 b2ad 0abf 30e5 22c0
00000060: 65cb 2a41 ff85 543e 34d9 24c0 e090 5bc1
00000070: 8b5b 7ac0 a0eb 1041 f7bc 95c1 80e3 6bbf
00000080: c895 8d41 b57c 553f d88d ca40 b52b 29c1
00000090: dbf0 9841 6584 6f41 c48c 0441 569f 80bd
000000a0: 3815 8041 1329 9ac0 8ba7 43c0 7e10 5cc0
000000b0: fcf1 4b41 f478 963e 75ab c840 64b7 3140
000000c0: 3053 6d40 3820 d340 58d7 d1c0 b1f1 0d40
000000d0: 6dfc 5541 4b0b 8141 aae6 0541 137b 8abf
000000e0: 8a19 d9bf eb99 07bf ee1a ba40 d8e6 4141
000000f0: b6b6 9941 d0c1 86c1 5bb2 5441 b220 ccc0
00000100: 40fc bfc0 adbd 4f41 a004 4e41 0fba 3d41
00000110: 7ae2 4640 e98f d1c0 48de f73f 4c5c 50c1
00000120: c2e3 8340 0cf1 1841 6871 3440 832d 5941
00000130: fefb 7240 a576 aa40 b95a 8d41 65fe e4be
00000140: 8a19 db40 74c8 4ac0 586e 9ac0 8813 be40
00000150: 8bba a241 ec8c bac0 ed3e 23c1 50fe 2740
00000160: 6b4f a441 a48e c3c0 e7be 1f41 1499 3f40
00000170: c680 2c41 d219 2cc0 6d3d 2641 c793 1c41
00000180: ac1f ef40 479e ae3f 3838 a741 252d e83f
00000190: 1040 6fc1 cb8b 953f 7e76 5a3e 9680 50c0
000001a0: cd1b 9cc0 3613 f3c0 503a 13c1 0177 dcc1
000001b0: b28a abc0 9500 6bc1 19b0 f6c0 2eee 05c1
000001c0: d0d2 b341 9f6a 9cc0 6699 31c0 0875 3ec1
000001d0: 95d3 f441 8f37 28c1 8111 b141 754e ecbf
000001e0: f890 7a41 7693 ebc0 d443 1740 89d3 cebe
000001f0: eb0b 7a41 03a4 18c1 ff2d 60c1 2290 0ec0
00000200: a655 6240 62f6 a13c e885 8f41 6ae7 3ec1
00000210: dec6 e1c0 de14 4e41 82f9 9240 356a 54c1
00000220: 1827 79c1 35d1 6040 ae5d dec0 43aa d9c1
00000230: 94fc 3241 866d f3c0 92a2 4241 5b49 8dc0
00000240: 43b5 6cc1 f073 31c1 ebf1 793e 7736 6bc0
00000250: 6355 9540 e53c 6cc0 7694 edbf e4ea 7c41
00000260: 9f15 22c0 21ec d240 9021 3d41 4878 a240
00000270: 7876 9dc1 af62 73c0 75ff 9841 8228 fcbf
00000280: 31d2 dcc1 a331 65c1 b5fb 82c1 f330 cf40
00000290: b504 f341 1865 c541 ee33 e1c0 4196 9ec0
000002a0: 99ba 1041 b19c 21c1 8f70 7a40 843b af41
000002b0: bbdf 2ac0 ff34 7f41 2339 24c0 3e4c 8541
000002c0: 320e d1c0 e358 fbc0 c2be 153f 4c7c 9941
000002d0: 375c dd40 320e abc1 c421 a5be e8da 3cc1
000002e0: 1849 d140 0596 1141 4586 7a3f 0016 48c1
000002f0: ede3 0541 6366 2042 b1a1 8741 c9ca 8e41
00000300: b929 0e41 3697 4341 324c 5641 8b8a eac1
00000310: eb0a d0c0 210f 5c3f 4d99 c641 25e1 8dbf
00000320: e410 7f40 1b32 a540 ef11 16c1 82e6 19c1
00000330: 7fe5 6340 7d1b 9bbf ab6c 53c1 4f6b 3540
00000340: 2951 6641 0562 0e40 f6da cec0 ccf9 32c1
00000350: 6831 cf41 7563 0941 3d96 e7c0 5a3e 0e41
00000360: 616c 0c41 7a98 4f41 0de5 1cbf edce fcc0
00000370: 4af4 39c1 c2b8 98c0 d9e1 a2c1 00ec 1bc1
00000380: b714 c4bf b4fe bbbf c8af c9c1 488c df41
00000390: 7776 34c1 58a8 a03c fd7b 4a41 89f8 3240
000003a0: 6b77 1ac1 6df6 e23f 5e4c 8c3e 830d 01c0
000003b0: 7695 a2c1 c273 78c1 b9d5 3241 7669 1f41
000003c0: d531 2fc0 b102 bfc0 285c c340 802b 77c1
000003d0: 2e08 a13f 6a8b 8740 3ab5 9ebf 330d 1a40
000003e0: 73ff 8dc0 e5d1 7dc1 6e58 43c0 dceb 8ac0
000003f0: 4b15 a941 d174 04c0 6c95 0d41 8bc3 3440

0.bias f4 [24]
-13.165226 8.103218 -2.142406 -10.309648 -18.03552 -3.813375 -15.484661 3.625066
-25.516752 5.807496 2.8981037 -26.853706 -21.626188 2.6007657 -2.5537467 -21.61183
8.947163 1.1825378 6.7777476 12.755094 5.3339896 -20.309803 -1.7482998 -7.910281
00000000: c4a4 52c1 c8a6 0141 2e1d 09c0 51f4 24c1
00000010: bf48 90c1 560e 74c0 2cc1 77c1 1501 6840
00000020: 4f22 ccc1 02d7 b940 887a 3940 64d4 d6c1
00000030: 6f02 adc1 f272 2640 9670 23c0 07e5 acc1
00000040: 9427 0f41 665d 973f 4fe3 d840 dd14 4c41
00000050: 0bb0 aa40 7a7a a2c1 4ac8 dfbf 0621 fdc0

2.weight f4 [24, 24]
2.5641391 4.3120275 0.92814344 6.1496487 -6.5260396 -6.8058457 7.3615327 6.0739317
-13.863283 1.2663711 -0.316566 0.13584211 -0.8519225 2.09357 7.587399 -8.025633
3.3229725 1.7760712 -0.33154228 5.616003 6.406237 3.82096 4.2691336 9.810537
-0.60074204 -0.70207065 -0.52811 -0.68343824 -0.59000224 -0.79958946 -0.553091 -0.75528234
-0.6319259 -0.6508848 -0.6877802 -0.65182525 -0.55585915 -0.47992873 -0.53754884 -0.67927194
-0.69544464 -0.74926317 -0.7060884 -0.6282975 -0.48373407 -0.57191086 -0.7210503 -0.6247666
3.634794 -25.89558 3.9799852 17.962757 3.1533685 12.24978 -9.60671 -34.977943
-20.144114 -6.6239495 -18.63248 -12.585328 33.345924 -3.75495 5.633891 14.647765
-1.6387722 -4.376994 -33.05123 -5.4561963 -9.616721 -0.6564341 -19.716955 19.075285
5.9417644 -1.842916 0.71224463 0.6181943 9.156072 3.9475021 9.861404 3.3979146
-8.783328 3.7299614 6.913406 -5.474709 4.15193 -0.23431835 6.2565265 5.765301
5.0700035 -1.5783949 -4.785596 3.0283952 -2.2260735 3.947117 2.405682 7.041347
-6.7066107 -38.318356 -13.010246 -0.18582432 -38.558147 11.58323 -2.915431 -12.515073
6.336892 -25.570852 -34.050026 -20.235035 -6.4665585 -29.96744 -1.4459703 -0.16246639
6.9669223 -5.3770337 -38.57334 13.428202 -14.852454 -28.000725 -3.8284912 4.770507
13.913366 -13.292676 7.8126364 20.739965 -3.9549367 5.392578 15.538596 -5.790409
20.93009 -32.235104 0.6650041 0.056614853 5.9331865 -16.468592 21.33425 8.931483
-16.850492 -32.969437 -12.506757 -21.309792 -7.758608 5.8374662 -14.829304 -1.7751154
17.557833 -5.079773 16.589529 10.014423 17.424482 1.4213142 -13.0650625 -15.956444
23.065525 -2.3820324 -20.275658 17.863066 18.634325 0.15935783 -4.7863646 16.88327
-28.795366 -12.01069 -14.823364 -11.824447 -14.560988 5.955716 -7.002304 5.6539936
9.725873 -12.400938 13.479305 16.60001 6.4083304 14.392327 29.645306 -3.433036
22.55395 -8.132783 1.0297973 14.647896 15.755222 -47.660206 3.5265565 8.719049
-21.42648 -0.082642004 -16.650589 -3.7318606 -15.51065 -1.4732721 -42.12409 -11.6127825
-0.3629895 -0.7086821 -0.41849607 -0.7100644 -0.7393826 -0.381811 -0.72089297 -0.6442907
-0.3722567 -0.3724436 -0.5227861 -0.54565006 -0.63468516 -0.63557726 -0.56269747 -0.36658508
-0.36336815 -0.62432307 -0.5564373 -0.64771193 -0.6581264 -0.43869486 -0.51144594 -0.62794805
-9.461544 -25.193243 -1.0009757 14.978831 -33.300045 13.350778 30.734032 -7.3987393
-1.7092248 -22.834448 -21.857681 -27.249308 10.350934 -9.740599 14.853305 2.2458463
10.979917 -26.276205 -23.437357 -4.272834 -23.559153 -11.912181 -31.713993 -0.60719687
15.918382 -14.047468 5.6726975 7.123018 9.283516 12.153342 8.205812 -8.4645605
35.884037 -22.927202 -12.891201 1.13917 14.959338 -20.844938 4.3810744 18.204199
00000000: db1a 2440 21fc 8940 cf9a 6d3f ecc9 c440
00000010: 51d5 d0c0 7dc9 d9c0 ad91 eb40 a65d c240
00000020: 02d0 5dc1 7318 a23f f014 a2be 321a 0b3e
00000030: 9817 5abf 0dfd 0540 f9cb f240 fe68 00c1
00000040: 95ab 5440 4d56 e33f e9bf a9be 4cb6 b340
00000050: e5ff cc40 9c8a 7440 be9c 8840 f6f7 1c41
00000060: 3bca 19bf e7ba 33bf 3832 07bf cff5 2ebf
00000070: 630a 17bf e5b1 4cbf 5f97 0dbf 2f5a 41bf
00000080: e5c5 21bf 63a0 26bf 5d12 30bf 05de 26bf
00000090: c94c 0ebf 38b9 f5be cd9c 09bf c4e4 2dbf
000000a0: a908 32bf b6cf 3fbf 36c2 34bf 1bd8 20bf
000000b0: feab f7be c068 12bf c196 38bf b4f0 1fbf
000000c0: 77a0 6840 262a cfc1 14b8 7e40 bab3 8f41
000000d0: cad0 4940 19ff 4341 16b5 19c1 6ae9 0bc2
000000e0: 2527 a1c1 65f7 d3c0 520f 95c1 815d 49c1
000000f0: 3a62 0542 1a51 70c0 d648 b440 3f5d 6a41
00000100: 4ac3 d1bf 5610 8cc0 7634 04c2 2999 aec0
00000110: 17de 19c1 110c 28bf 53bc 9dc1 2f9a 9841
00000120: ef22 be40 ace4 ebbf aa55 363f fb41 1e3f
00000130: 457f 1241 e0a3 7c40 50c8 1d41 6f77 5940
00000140: 8388 0cc1 b0b7 6e40 9f3a dd40 d130 afc0
00000150: 9cdc 8440 26f1 6fbe 7735 c840 597d b840
00000160: 783d a240 d808 cabf 9a23 99c0 3ad1 4140
00000170: fd77 0ec0 919d 7c40 b2f6 1940 b752 e140
00000180: 8e9c d6c0 ff45 19c2 f829 50c1 bb48 3ebe
00000190: 8b3b 1ac2 e954 3941 6c96 3ac0 bd3d 48c1
000001a0: d2c7 ca40 1b91 ccc1 3a33 08c2 5ae1 a1c1
000001b0: 0cee cec0 51bd efc1 8e15 b9bf 975d 26be
000001c0: 07f1 de40 a910 acc0 1a4b 1ac2 ead9 5641
000001d0: a7a3 6dc1 7c01 e0c1 0006 75c0 fea7 9840
000001e0: 269d 5e41 cdae 54c1 1e01 fa40 73eb a541
000001f0: af1d 7dc0 0090 ac40 179e 7841 084b b9c0
00000200: d370 a741 bff0 00c2 b53d 2a3f fae4 673d
00000210: aadc bd40 adbf 83c1 8bac aa41 5be7 0e41
00000220: cfcd 86c1 b4e0 03c2 ad1b 48c1 747a aac1
00000230: 8446 f8c0 86cc ba40 d444 6dc1 fb36 e3bf
00000240: 7176 8c41 808d a2c0 5bb7 8441 143b 2041
00000250: 5765 8b41 a0ed b53f 7f0a 51c1 984d 7fc1
00000260: 3286 b841 3873 18c0 8c34 a2c1 8fe7 8e41
00000270: 1913 9541 b32e 233e e629 99c0 f010 8741
00000280: e95c e6c1 c92b 40c1 802c 6dc1 ef30 3dc1
00000290: cff9 68c1 3a95 be40 e012 e0c0 84ed b440
000002a0: 2d9d 1b41 3e6a 46c1 3cab 5741 d2cc 8441
000002b0: 0b11 cd40 f946 6641 9629 ed41 ddb6 5bc0
000002c0: 7d6e b441 e11f 02c1 66d0 833f c85d 6a41
000002d0: 6415 7c41 0da4 3ec2 1ab3 6140 3a81 0b41
000002e0: 6e69 abc1 3640 a9bd 6834 85c1 ced6 6ec0
000002f0: 9f2b 78c1 2e94 bcbf 117f 28c2 f5cd 39c1
00000300: c2d9 b9be 316c 35bf 1e45 d6be c8c6 35bf
00000310: 2e48 3dbf bb7c c3be 718c 38bf 3cf0 24bf
00000320: 6e98 bebe edb0 bebe 4fd5 05bf b9af 0bbf
00000330: ba7a 22bf 31b5 22bf f10c 10bf 0ab1 bbbe
00000340: 640b babe a3d3 1fbf ad72 0ebf 73d0 25bf
00000350: f97a 28bf 9d9c e0be 1fee 02bf 34c1 20bf
00000360: 7c62 17c1 c38b c9c1 f91f 80bf 4ba9 6f41
00000370: 3f33 05c2 c99c 5541 4cdf f541 79c2 ecc0
00000380: e1c7 dabf f3ac b6c1 88dc aec1 95fe d9c1
00000390: 6d9d 2541 7ed9 1bc1 23a7 6d41 f2bb 0f40
000003a0: bdad 2f41 ab35 d2c1 b57f bbc1 0ebb 88c0
000003b0: 2579 bcc1 4b98 3ec1 42b6 fdc1 4171 1bbf
000003c0: b1b1 7e41 6ec2 60c1 bd86 b540 c3ef e340
000003d0: 4889 1441 1774 4241 024b 0341 d76e 07c1
000003e0: 4189 0f42 e96a b7c1 5c42 4ec1 53d0 913f
000003f0: 7359 6f41 6fc2 a6c1 c331 8c40 33a2 9141

2.bias f4 [24]
163.5475 -0.5238887 -7.3682795 167.05229 22.897627 8.235672 -22.477839 1.056526
-0.66370624 8.064172 -1.7553558 -16.358532 -20.2075 -7.2132764 -1.4143705 120.2159
-0.821095 -0.12232177 0.5406934 -26.18551 -15.237864 -17.71017 -24.339968 22.109205
00000000: 298c 2343 921d 06bf f2c8 ebc0 630d 2743
00000010: 572e b741 50c5 0341 9dd2 b3c1 3e3c 873f
00000020: a7e8 29bf d906 0141 80af e0bf 46de 82c1
00000030: f6a8 a1c1 29d3 e6c0 180a b5bf 8a6e f042
00000040: 4833 52bf d683 fabd e26a 0a3f ed7b d1c1
00000050: 4ace 73c1 6eae 8dc1 41b8 c2c1 a7df b041

4.weight f4 [4, 24]
-6.395205 -0.63178295 12.001758 -14.163628 -16.66222 -39.617805 -6.355334 2.6681366
-0.5684921 -26.08682 -13.477241 12.827977 -34.087803 -23.007872 -26.242352 -10.201681
-12.792742 -12.160394 -6.312332 -25.133993 26.443619 -39.415012 -35.563793 -30.533337
-13.29432 -0.57189685 -14.57836 -5.629359 -14.933242 -7.2730985 -15.464304 -25.87863
-0.37293255 -38.89031 -16.8142 -28.286589 -6.5419574 -7.5972095 -21.50386 -8.1021805
-41.80774 -31.119146 -3.0016468 -31.482597 -42.010216 -28.411455 -9.886826 -20.385162
-12.001269 -0.4514348 -36.811474 -9.288302 -5.9890175 -10.413358 -31.050291 -28.689528
-0.5447833 -32.307716 -17.462082 15.441477 -28.814688 -21.064276 -21.617912 -4.3467746
-27.434858 -16.24771 -25.091015 -12.806513 -14.3827915 -25.186005 -22.372778 -33.351177
-8.895035 -0.4983408 -8.3956995 -10.933117 -49.3235 -25.066357 0.57747465 -38.623356
-0.55595285 -8.338284 -29.421309 -44.01304 -11.088141 -26.475613 -14.042031 -7.573089
-29.782963 -8.080572 -38.262505 -14.348059 -52.283188 -2.0097008 2.8743827 -13.246443
00000000: 85a5 ccc0 87bc 21bf 3307 4041 389e 62c1
00000010: 3a4c 85c1 a278 1ec2 e55e cbc0 c0c2 2a40
00000020: b388 11bf cfb1 d0c1 c7a2 57c1 653f 4d41
00000030: e959 08c2 1f10 b8c1 56f0 d1c1 163a 23c1
00000040: 12af 4cc1 f990 42c1 a0fe c9c0 6b12 c9c1
00000050: 888c d341 f9a8 1dc2 5341 0ec2 4644 f4c1
00000060: 89b5 54c1 d567 12bf f640 69c1 b523 b4c0
00000070: 8fee 6ec1 39bd e8c0 ca6d 77c1 6f07 cfc1
00000080: 04f1 bebe ad8f 1bc2 7b83 86c1 ef4a e2c1
00000090: b757 d1c0 571c f3c0 e807 acc1 88a2 01c1
000000a0: 203b 27c2 03f4 f8c1 fb1a 40c0 5cdc fbc1
000000b0: 760a 28c2 a94a e3c1 7030 1ec1 d014 a3c1
000000c0: 3305 40c1 7622 e7be f33e 13c2 e39c 14c1
000000d0: 08a6 bfc0 1d9d 26c1 ff66 f8c1 2784 e5c1
000000e0: eb76 0bbf 1a3b 01c2 58b2 8bc1 4a10 7741
000000f0: 7b84 e6c1 a383 a8c1 7cf1 acc1 c718 8bc0
00000100: 977a dbc1 4ffb 81c1 66ba c8c1 7ae7 4cc1
00000110: ea1f 66c1 f07c c9c1 73fb b2c1 9b67 05c2
00000120: 1052 0ec1 8626 ffbe c954 06c1 0cee 2ec1
00000130: 444b 45c2 e687 c8c1 61d5 133f 517e 1ac2
00000140: ed52 0ebf 9c69 05c1 d75e ebc1 5a0d 30c2
00000150: 0769 31c1 0ece d3c1 29ac 60c1 bf56 f2c0
00000160: 8243 eec1 064a 01c1 ce0c 19c2 a691 65c1
00000170: fc21 51c2 f09e 00c0 e3f5 3740 6ef1 53c1

4.bias f4 [4]
-135.7589 -96.60528 -68.27285 -92.90845
00000000: 47c2 07c3 e735 c1c2 b38b 88c2 20d1 b9c2
